model_dir/VCAS_128/VertCAS_1.onnx (onnx, 7429 bytes, 4 tensors)

W0 f4 [128, 4]
000000 59 89 21 bf a8 a9 99 3f 1f 42 c1 bc d0 43 21 3f
       -0.631002 1.20049 -0.0235911 0.629941
000010 52 63 c2 bb 2f d5 31 bd f9 ba c1 3d ed 83 6c be
       -0.00593225 -0.0434162 0.0945949 -0.230972
000020 53 e8 0a 40 9f a5 95 bd c0 26 01 c0 05 8a 98 bc
       2.17043 -0.0730698 -2.01799 -0.0186205
000030 8b c3 0d 40 b6 04 aa bd 04 39 2e c0 72 dd 94 bc
       2.21506 -0.0830168 -2.72223 -0.018172
000040 0d 1a fa 3d fb bd 93 3d 29 77 ff bd d5 e7 2a be
       0.12212 0.0721397 -0.124739 -0.1669
000050 88 f4 9f 3f 7b da e4 c0 5b 3f 15 bf a3 74 69 3e
       1.24965 -7.15167 -0.582998 0.227984
000060 7e 98 1b 41 70 25 ff bf 61 1a ba 3f 2b 69 e5 3d
       9.72473 -1.99333 1.45393 0.112017
000070 cc 7f 23 c1 eb 1c b7 bf de 71 af 40 87 19 1a be
       -10.2187 -1.43057 5.48265 -0.150488
000080 2c 45 22 3e 14 c7 46 3d 4a 53 6e bd 84 a0 e3 bd
       0.158467 0.0485297 -0.0581849 -0.111146
000090 2a a9 a0 c1 97 0a b0 3d 55 2e f4 3d 8a 30 8f 3c
       -20.0826 0.0859577 0.119229 0.0174792
0000a0 22 50 bd be c5 75 cc 3e c4 e1 b6 bd 80 d5 11 3e
       -0.369752 0.399336 -0.0892978 0.142416
0000b0 d5 1c 65 bd 9b 94 00 3c 71 34 aa 3b 66 11 2a 3e
       -0.0559357 0.00784793 0.00519424 0.166082
0000c0 28 7e f0 40 bd a9 fc 3f d0 ed 39 c0 5b 5f 1c bf
       7.5154 1.97393 -2.90514 -0.61083
0000d0 49 2e 67 c1 70 5f d7 3f 67 18 ed bc ba d9 4b bf
       -14.4488 1.6826 -0.0289423 -0.796291
0000e0 45 2f 8f bf 35 97 c3 3e e1 28 3d 40 53 cd 3c 3e
       -1.11863 0.382013 2.95562 0.184377
0000f0 c8 24 f8 c0 c9 41 a4 3c 19 ca a5 c0 8e e9 91 bf
       -7.75449 0.0200509 -5.18092 -1.13994
000100 d1 3b f5 3d 7c b9 1f be 7f bd c2 3c f5 82 bf bd
       0.119743 -0.155981 0.023772 -0.0935115
000110 75 73 d1 bd b9 5c 12 bb 46 06 f9 bd 96 79 eb bd
       -0.102271 -0.00223331 -0.121594 -0.114978
000120 fb aa 14 3a fe 4d c3 bc d9 98 d7 bd 80 93 b2 3d
       0.000567123 -0.0238409 -0.105272 0.0871954
000130 ca e0 b0 40 81 5b 96 40 ef 03 64 c0 c9 e8 20 be
       5.52744 4.69867 -3.56274 -0.157138
000140 fe 48 f9 3f 4c 05 c0 3d c0 26 87 bf a5 91 a5 bd
       1.94754 0.0937601 -1.05587 -0.0808442
000150 d9 5f 16 3d 8d fc 0d 3c b0 8d 58 be d8 ec 2d 3d
       0.0367125 0.00866617 -0.211478 0.0424622
000160 c9 03 81 3d ca 37 c6 40 e4 2c c0 c0 bf 61 02 be
       0.0629955 6.19431 -6.00548 -0.127326
000170 42 b4 6e 3f a0 fa c7 3e 0a bf 1a 40 a3 57 e3 3d
       0.932438 0.390584 2.41791 0.111007
000180 bf f1 f0 c0 92 96 83 40 d5 5a 58 3f 63 7f 91 3f
       -7.52951 4.11213 0.845136 1.1367
000190 25 39 c5 bd 44 b8 ae bd d5 20 cc 3c 86 72 e2 3d
       -0.0963004 -0.0853124 0.024918 0.11057
0001a0 1d c9 1a c1 8d 62 2d c0 e4 f7 02 40 81 79 d8 3e
       -9.6741 -2.70914 2.04638 0.422802
0001b0 df 32 ce 40 65 df f1 bf 78 97 b3 3f c8 b2 14 3f
       6.44371 -1.88963 1.40306 0.580853
0001c0 be ea 12 3d d7 c9 2f 3d 7c 48 c3 bd fd c6 8d 3c
       0.0358684 0.0429171 -0.0953531 0.0173068
0001d0 e6 05 08 c1 f7 01 38 c0 6a 30 0b 40 19 e6 00 3c
       -8.50144 -2.87512 2.17483 0.00786736
0001e0 96 24 87 3e 72 dc bc c0 14 96 b8 40 32 f2 a8 bd
       0.263951 -5.90191 5.76832 -0.0824932
0001f0 20 63 30 c1 95 7d 21 c0 f4 32 bc 40 fa b3 1f 3e
       -11.0242 -2.52329 5.88122 0.15596
000200 c1 ad b9 c0 2a 1d 4c c0 00 8c 43 c0 89 08 d7 3e
       -5.80246 -3.18928 -3.05542 0.419987
000210 a0 04 9c 3d 1b d7 1f 3e a5 5f 9c 3d 39 b3 dd bd
       0.0761807 0.156094 0.0763543 -0.108252
000220 87 f5 ca bb f4 52 31 be 6f 8f 6f 3c 09 a7 05 be
       -0.00619382 -0.173168 0.0146216 -0.13052
000230 48 a3 47 bd 1c d0 f2 bd 88 33 da 3c 10 47 0f 3c
       -0.0487397 -0.118561 0.0266359 0.00874497
000240 14 d0 52 41 85 42 4a 40 16 18 b5 c0 03 b5 28 bf
       13.1758 3.16031 -5.65919 -0.659012
000250 24 6e 0e 41 d7 dd 04 40 74 98 45 c0 59 e0 2b 3e
       8.90189 2.07604 -3.08743 0.167848
000260 6c 3e 70 c0 90 a0 dc 3f e9 5a 80 3d 19 37 69 3f
       -3.75381 1.72365 0.0626734 0.910997
000270 9d 63 48 c0 3a 92 af 3f 79 cc 28 bf 4d d7 03 3e
       -3.13108 1.37165 -0.65937 0.128751
000280 33 50 59 40 a5 6b 18 40 da 75 57 3f 03 d1 d3 be
       3.39552 2.38157 0.841642 -0.413704
000290 fd f6 4c 41 f6 24 2c bf fe 9a e8 3f e8 f9 23 3e
       12.8103 -0.672439 1.81723 0.160133
0002a0 e3 19 b9 c0 eb 39 c0 40 c6 85 31 c0 00 8e 8d 3e
       -5.78441 6.00707 -2.77379 0.276474
0002b0 11 70 95 40 93 c6 60 3f 65 19 48 c1 8f e4 08 c0
       4.66993 0.87803 -12.5062 -2.13895
0002c0 76 13 81 bd fd db 05 3e 8d 45 d3 bd 66 c1 94 be
       -0.0630254 0.130722 -0.10316 -0.290538
0002d0 7a 1c 12 3f 10 07 e9 be ac a8 55 c0 af 5c ce 3b
       0.570747 -0.455132 -3.33842 0.00629767
0002e0 a1 f8 41 41 7f 30 1c c0 9a 94 da 3f 27 16 88 be
       12.1232 -2.44046 1.70766 -0.265794
0002f0 48 bf 10 c1 f2 7b 05 40 ca 37 29 c0 79 e8 4b 3f
       -9.0467 2.08569 -2.64403 0.796516
000300 c8 c0 90 bd f1 bd 0f be 3d a5 99 bd cf b9 20 bd
       -0.0706802 -0.140373 -0.0750222 -0.0392397
000310 8f b2 b4 3d 83 31 32 3e c4 5a 41 3d 81 a9 10 bd
       0.0882312 0.174017 0.0472057 -0.0353179
000320 1d c9 23 c1 0d a9 0a 3f ee ce c6 bf 9a 23 eb 3d
       -10.2366 0.541642 -1.55319 0.114814
000330 28 f2 ba 40 b7 b4 aa 3d 52 d5 6e 40 73 ba 98 bf
       5.84206 0.0833525 3.73177 -1.19319
000340 72 f9 46 c1 df c2 2a 3e 6e 86 fb bf 6d 08 a9 bd
       -12.4359 0.166759 -1.96504 -0.0825356
000350 0b 24 94 40 d2 18 87 c0 12 a0 93 40 55 69 eb 3d
       4.6294 -4.22178 4.61329 0.114947
000360 3f 00 49 3f 1a fa 35 c0 14 ae d7 bf 87 50 57 40
       0.78516 -2.84339 -1.685 3.36429
000370 3e 5c 2e 40 99 b8 0d 3f 7b 6b b4 3f 43 ff 58 3f
       2.72438 0.553598 1.40953 0.847645
000380 ef c6 66 bf 45 f3 e8 be c3 81 d0 40 7f 83 fe be
       -0.901473 -0.454981 6.51584 -0.497097
000390 37 4f 11 40 90 f7 8e 3f 09 16 1f 40 82 36 99 3e
       2.27046 1.11693 2.48572 0.299244
0003a0 c9 ab 93 c0 d5 94 f4 3e 4b e5 65 40 88 46 67 3e
       -4.61472 0.477698 3.59212 0.225855
0003b0 8a b0 20 41 ff 04 2f 40 6d e7 07 c0 f8 8b 0d 3f
       10.0431 2.73468 -2.1235 0.552917
0003c0 0f ff 13 c1 bf 82 02 40 23 32 1e c0 f0 52 5e bf
       -9.24977 2.03923 -2.47181 -0.868453
0003d0 b5 f5 78 3d d1 b0 98 3d a7 52 98 bd 27 3c 87 bd
       0.0607812 0.074556 -0.0743764 -0.0660327
0003e0 74 46 66 41 94 13 ad bf a1 a1 bf 3f 3a 79 d1 3d
       14.3922 -1.35216 1.49712 0.102282
0003f0 a3 06 98 40 54 8c 2d c0 52 d5 6c 40 cc a4 3c 3c
       4.75081 -2.71169 3.70052 0.0115139

B0 f4 [128]
000000 90 12 13 3f 03 43 d6 bd c2 88 31 3f 34 2e 78 3f
       0.574502 -0.10462 0.693493 0.969455
000010 b4 56 54 be a5 6a 0b 3f 26 fd 3d 3c ff 3e 0f 3f
       -0.207362 0.544596 0.011596 0.559555
000020 37 53 51 be 75 e5 1f bf 2e 1c 18 3e 87 88 2b be
       -0.204419 -0.624595 0.148545 -0.167513
000030 64 91 f6 3e f0 30 cd bd 5c 3c 70 3f 30 d7 6e 3f
       0.481578 -0.100191 0.938421 0.932971
000040 fc 1d 5a be 2a 1c 21 be a8 c6 2b be 8f 18 25 3f
       -0.213005 -0.157334 -0.16775 0.644906
000050 de 59 ab 3e 8b e0 1f be 6f 0d ac bf f2 94 51 3f
       0.33467 -0.15613 -1.34416 0.818679
000060 2f 87 3d 3f 86 e7 55 be 72 26 57 bd 24 b9 e4 be
       0.740344 -0.208891 -0.0525269 -0.446725
000070 b9 00 14 be 69 8c 36 be 64 3b 9f bf 1a 33 1d bf
       -0.144534 -0.17827 -1.244 -0.614061
000080 a7 cf d6 3e 62 15 2f be 93 70 31 be d1 22 fb bd
       0.419553 -0.17098 -0.173281 -0.122625
000090 3f a8 2b bd dd 0c bf be 16 c1 87 3f 90 dd 29 3f
       -0.0419085 -0.373145 1.06058 0.663537
0000a0 9d 46 ba 3f 1d 77 3a 3f bf 9a ab be 43 37 9b 3e
       1.45528 0.72838 -0.335165 0.303156
0000b0 68 21 41 be 8a cd 9b 3f bf c8 95 3b a7 23 00 3d
       -0.188604 1.21721 0.00457105 0.031284
0000c0 f1 45 2b be 8f 37 29 be 14 e8 1f 3f 83 33 58 3f
       -0.167259 -0.165251 0.624635 0.844536
0000d0 c7 4b df 3e 0a a1 27 3f e4 be b5 3e 11 a9 01 3f
       0.436125 0.654801 0.354972 0.506486
0000e0 34 ba eb 3e 5c 59 6a 3f 33 16 9d 3f 39 2a 47 be
       0.460405 0.915426 1.22724 -0.194497
0000f0 bb b9 18 bd 0d 1d fb bd 8e 03 53 3f 5f c7 82 ba
       -0.0372865 -0.122614 0.824273 -0.000997763
000100 5f eb 42 be 1d ca 50 be 8d 24 01 be 18 66 19 3c
       -0.190351 -0.203896 -0.126116 0.00936272
000110 cc 97 07 be 6d a8 48 be 78 43 ea 3e 78 5f 65 be
       -0.132415 -0.195955 0.457546 -0.223997
000120 07 45 23 be 5f 5c ea bd 52 80 b8 bd ee 08 a7 3f
       -0.159443 -0.114434 -0.0900885 1.30496
000130 a4 01 a7 bd fd 4b 62 3e 59 16 70 3f 30 0d 97 3f
       -0.0815461 0.220993 0.937841 1.18009
000140 b1 db 2b 3f 1b 13 52 3f f2 0a 64 3f de f4 c8 bd
       0.671321 0.820604 0.890792 -0.0981233
000150 61 1a 86 3f 48 18 52 3f 7f 68 36 3e 15 37 2e be
       1.04768 0.820683 0.178133 -0.170132
000160 12 40 bb 3c ca c1 4c be 38 a1 50 be 63 ee 4a be
       0.0228577 -0.199958 -0.20374 -0.198175
000170 43 49 32 bd 0f f0 8c 3e 45 84 2f 3f 71 1c 28 be
       -0.0435269 0.275269 0.685612 -0.164171
000180 ea 82 10 bd 37 c5 27 3f 11 72 6e be 2e cf be bd
       -0.0352811 0.655353 -0.232857 -0.0931686
000190 cf a2 1f bf 38 6b 60 3f 4e 0a 93 3e 1b f2 7f 3e
       -0.623578 0.876636 0.287188 0.249947
0001a0 b9 36 f8 bf fe 3f b3 bd 7d e9 6d 3f 14 59 83 3e
       -1.93917 -0.0875244 0.929344 0.256539
0001b0 76 6c 70 3f d2 90 cc bc 47 b7 cd 39 a6 63 d6 3e
       0.939155 -0.0249714 0.000392372 0.418729
0001c0 96 26 95 3f 05 73 bf bd 76 e3 3c bb 3b df 0f be
       1.16524 -0.0934811 -0.00288221 -0.1405
0001d0 9d d9 7a 3f 25 23 37 be f7 54 b3 bd 12 ff bb bd
       0.979883 -0.178845 -0.0875644 -0.0917951
0001e0 48 dd 52 3f 89 96 6c be 8c 11 75 bf e3 fd 18 be
       0.823689 -0.231043 -0.957299 -0.149406
0001f0 13 0c 27 be 2f 6a 27 be ab e5 73 bc 0a bf a4 3f
       -0.163132 -0.163491 -0.0148863 1.28708

W1 f4 [9, 128]
000000 b3 7e eb be 0c 3e 2d be 00 02 26 3f a7 1f 08 3f
       -0.459951 -0.169182 0.648468 0.531733
000010 f7 64 14 3d 74 5e ff 3f 83 34 f3 40 17 2b d2 bf
       0.0362291 1.99507 7.60016 -1.64194
000020 99 2c 4e 3d 41 48 3a 40 43 14 19 3c d5 5c ee 3c
       0.0503355 2.91066 0.00934321 0.029097
000030 52 27 98 3f 42 26 8d 3f 25 91 0d 3f cc 27 93 be
       1.1887 1.10273 0.552996 -0.287413
000040 8e 40 3c 3e 95 7e 12 3e 53 b4 22 be 62 f3 b9 3f
       0.18384 0.143061 -0.158891 1.45274
000050 8f 8b ca 3e 4e d3 27 be 15 00 6b 40 91 f0 51 3f
       0.395596 -0.163892 3.67188 0.820077
000060 d3 9f dd bf 7f a0 2c be d9 94 a8 40 7f 6a b5 c0
       -1.73144 -0.168581 5.26817 -5.66925
000070 25 41 53 bd 68 d0 a7 40 e1 5d cc 40 0c 94 54 be
       -0.0515758 5.24419 6.38646 -0.207596
000080 04 1b 53 3f 7c 65 2e be 0c 92 fe bd 89 97 27 be
       0.824631 -0.170309 -0.124302 -0.163664
000090 e5 44 4f c0 45 d8 62 40 a1 f8 81 bf 71 ab 6c bf
       -3.23858 3.54445 -1.0154 -0.924491
0000a0 e8 bc 9a 3f 10 cc f5 bf a1 10 75 c0 7a f8 97 bc
       1.20889 -1.92029 -3.82914 -0.0185511
0000b0 c3 49 aa 3d c8 95 da 3e 2f 69 a2 40 13 d5 96 40
       0.0831485 0.426924 5.07534 4.71351
0000c0 3b c8 eb bd 02 7a 26 bd 35 41 3e c0 95 e5 15 3d
       -0.115128 -0.0406437 -2.97273 0.0365959
0000d0 26 b8 01 bc 37 e0 55 c0 10 cf aa 3e a2 9b e5 3e
       -0.00791744 -3.34181 0.333611 0.448453
0000e0 55 4d bc 3f bd 3a 97 3f 89 3f ef 3c 3d 7e 8c 40
       1.47111 1.18148 0.0292051 4.39041
0000f0 8d 1c 03 41 b8 74 4c 3c c4 ce 3e c0 5f 7b c5 40
       8.19447 0.012479 -2.98137 6.17131
000100 1d 62 52 bd 13 f3 1c be 67 0e 19 be 6a 68 2f bf
       -0.0513631 -0.153271 -0.149469 -0.685187
000110 f5 a1 8b 3c 9b c8 ec bd ec 4c f5 3f 0a ae a8 bc
       0.017045 -0.115617 1.91641 -0.0205908
000120 0b 24 e8 bd 78 b4 d1 bd 2c d6 f0 bd 90 4d 22 3f
       -0.11335 -0.102395 -0.117596 0.633996
000130 c4 e9 54 3e 0a 13 46 be 7e 52 ad bf fb 92 e5 3e
       0.207923 -0.193432 -1.35408 0.448387
000140 77 49 74 3f 9a 7a 19 3f aa 28 7a bf b5 4e fc bd
       0.954246 0.599527 -0.977183 -0.123197
000150 7f a5 8b be 12 84 6b bf 5f 97 25 3f 92 74 f5 3f
       -0.272747 -0.919984 0.646841 1.91762
000160 cf 65 aa 3c e5 2b 5c 3d 01 13 d0 bf ad c8 43 bc
       0.0208005 0.0537528 -1.62558 -0.0119497
000170 5a 11 f5 bd 85 ce 75 c0 f0 8a a8 3f ec 86 cd bd
       -0.119662 -3.84073 1.31674 -0.100355
000180 57 9d 70 bd 52 d3 7e be ea 4d 56 bc b7 13 5b bd
       -0.0587438 -0.248853 -0.0130801 -0.0534856
000190 b7 28 39 40 9b 5a 46 3e d6 ad 1e be 56 bc 87 c0
       2.89311 0.193705 -0.15496 -4.24174
0001a0 85 25 d6 3f e7 3a 6d bd 4e 43 1c bf ea 5d dc 3e
       1.67302 -0.0579175 -0.610402 0.430404
0001b0 9d 11 03 c0 db ba 40 bd f0 50 f4 3f d5 3d 2e 3f
       -2.04795 -0.0470532 1.90872 0.680631
0001c0 2a e3 1b 3f d1 c9 32 be e5 b8 4d 40 f1 35 ca bd
       0.608935 -0.174598 3.21441 -0.0987357
0001d0 ec 67 3d 3f 13 ef e0 bd 47 03 20 3f 5b ed 01 be
       0.739867 -0.109831 0.62505 -0.126882
0001e0 17 17 b2 bd b3 2e c9 3c df a6 d0 c0 d8 f2 ca bc
       -0.0869581 0.0245584 -6.52037 -0.024774
0001f0 ab 42 5e bd 66 2d 85 3c 59 8b 11 40 af 60 fb 3e
       -0.0542628 0.016257 2.27413 0.490972
000200 29 5a 05 3f 3c c1 6e be e8 13 2f c0 c8 07 6b c0
       0.520907 -0.233159 -2.73559 -3.67235
000210 c2 ee 85 3d 5a 12 a3 c0 38 be ea bf c5 fe c2 3f
       0.0653968 -5.09599 -1.83393 1.5234
000220 11 fc 0f bd 45 2a 1c c1 70 ed bc 3e f2 7b 7b be
       -0.0351525 -9.76032 0.368999 -0.24559
000230 dd b5 a0 3f 8d 0b bd c0 1f da b7 bd 31 eb b5 40
       1.25555 -5.90766 -0.0897715 5.68496
000240 54 79 b1 bc 6c 3e 4e 3e 8c a4 18 3d 68 ae eb 3e
       -0.0216643 0.20141 0.0372663 0.460315
000250 99 f5 fa bf 63 2e a5 3b b7 7f 1b 40 8b c2 2e 3e
       -1.96062 0.00504093 2.42967 0.170664
000260 74 b5 3d bf b0 fe 3f be e0 2d 45 c1 50 df 62 40
       -0.74105 -0.187495 -12.3237 3.54488
000270 b6 67 06 3e a3 58 09 c1 39 74 24 c2 db 8a b5 3f
       0.131255 -8.58414 -41.1135 1.4183
000280 bc 74 73 3e 5b d1 26 3e a5 8d fe bc 80 d7 27 be
       0.23775 0.162908 -0.0310734 -0.163908
000290 86 03 9d 40 fb 07 01 bf 8e 8f 4e 3f 92 75 98 3e
       4.90668 -0.504028 0.806878 0.297772
0002a0 81 3e 61 3e ff 41 54 3e 75 c8 b1 3f bd 8c 92 c0
       0.219965 0.207283 1.38893 -4.57968
0002b0 dd 83 ab bc 8c 10 9c c0 09 fe 8b 3f 9a 77 42 c0
       -0.0209369 -4.87702 1.09369 -3.03855
0002c0 c9 1e 21 be 5e a7 c7 bc 9c 6d 08 41 69 8d c9 be
       -0.157344 -0.0243718 8.52676 -0.393657
0002d0 e7 8c b1 c1 ba 65 ef be 28 7e ac bf 02 82 99 3e
       -22.1938 -0.467573 -1.3476 0.29982
0002e0 1c 40 6b 3f d4 d4 fa 3e e6 5d f5 bd a6 d6 6f bf
       0.918947 0.489905 -0.119808 -0.936869
0002f0 04 e7 d6 c1 c3 f4 9d be 2a 39 cf 3e 7f bc 94 c0
       -26.8628 -0.308508 0.404733 -4.64801
000300 c2 a4 58 3d 91 f1 38 be a3 76 3f be 4d c0 5f 3e
       0.0528915 -0.180609 -0.186976 0.218507
000310 ce dd 2e bc fc 8d 26 be 84 80 bc 3e f2 cd 06 be
       -0.010673 -0.162651 0.368168 -0.131645
000320 b3 5e e4 be e9 6d c2 3d 4c e1 01 3e 51 c0 26 3e
       -0.446035 0.0949362 0.126836 0.162843
000330 b3 39 98 bd 89 eb 88 3e 3e 75 60 bf 0f 25 ff 3c
       -0.0743288 0.267422 -0.876789 0.0311456
000340 5f 0a d7 3e 40 4d 3f c0 26 c7 73 40 17 a4 84 bd
       0.420001 -2.98909 3.80903 -0.0647661
000350 50 8b 0d bf be 13 d3 3d 16 fb d3 3f 7b bd 7d 40
       -0.552907 0.103065 1.6561 3.96469
000360 d7 c0 ba 3f 69 3a fb bd f1 4b 23 40 97 e2 2a 3e
       1.45901 -0.12267 2.55151 0.16688
000370 17 8a 2a 3d 34 9d d5 bf 5d 53 30 3f 0a a2 2e be
       0.0416356 -1.66886 0.688772 -0.17054
000380 82 1e 4a be 7b f7 47 40 b9 4f 73 3d 80 ec d8 3b
       -0.197382 3.12448 0.0594022 0.00661999
000390 ab fa e6 3c b4 d8 37 3d 2f c4 6a 3f 02 65 a7 3f
       0.0281957 0.0448844 0.917056 1.30777
0003a0 c4 b1 c6 c0 cf c5 3a 3d 62 bc ae 3e 69 00 1b c2
       -6.2092 0.0455988 0.341281 -38.7504
0003b0 1e 33 00 40 85 f8 b6 3d b8 40 68 c1 af 25 e8 3f
       2.00312 0.0893412 -14.5158 1.81365
0003c0 e9 43 a4 c0 5b 28 b9 3d 47 e6 19 c0 84 9f 78 be
       -5.13329 0.090409 -2.40468 -0.242796
0003d0 7f 6a c4 3e ba 11 d6 bd 26 19 53 c0 4b 3a 3a be
       0.383625 -0.104526 -3.29841 -0.181863
0003e0 cc 7d 22 3e 67 ed 36 3c 2d 5b 65 40 c0 d4 aa 3d
       0.158683 0.011165 3.58369 0.0834136
0003f0 61 35 46 3e 7b f4 9b bd 96 98 af 3e e9 b6 c4 bc
       0.193563 -0.0761499 0.342961 -0.024013

B1 f4 [9]
000000 f9 69 5c bf 53 03 65 3f 60 3c d3 3f 8a e4 1b 3e
       -0.860992 0.894582 1.65028 0.152239
000010 7c 46 62 3f 1a a3 c5 be f2 08 2e 3e 3f 00 b9 be
       0.883888 -0.38601 0.169956 -0.36133
000020 1f 2d f6 3e
       0.480813
