model_dir/VCAS_64/VertCAS_1.onnx (onnx, 3842 bytes, 4 tensors)

W0 f4 [64, 4]
00000000: 6ec0 14c1 516b 34c0 72a7 1240 529e b93e
00000010: e414 6141 5227 5e40 d157 c2c0 a627 dcbe
00000020: 3369 153c cbf8 17be e56f 8cbc 7042 313e
00000030: f60b c8c0 374f a5bf 5839 60c0 5dfe cf3f
00000040: 3945 3cc1 5e9d cb3f 5934 9dbf f374 12bf
00000050: 85eb 44c1 f580 15bf e90e ba40 04e8 073e
00000060: 185a 053f 1689 b1be 9546 1c3e d639 c2bf
00000070: 0569 ee3f a870 543f d387 863f 2593 cb3e
00000080: 4a08 3ebf 00e3 e5bf 670f eb40 7ae4 9fbf
00000090: 1ea4 673d 4b76 2cbd e43c 123d a754 4ebd
000000a0: c269 fd3f 170e a4bf 80d2 a0be e944 363f
000000b0: 48bf 4f41 d36a 0cc0 4ce0 ce3f b804 88be
000000c0: 68bf 0b41 10b9 f43c 19ad 2740 01a7 f7bd
000000d0: 647b 68bd f04d 23be 0859 c63d 5fcf 77bd
000000e0: 8b7c cdbc 05fa 74be 676b d83c d80b 753e
000000f0: c217 47c1 c1e2 34c0 eab2 f040 787f 243f
00000100: 53b3 8f3f 66f7 943f a378 413f 7dd0 fb3f
00000110: 507c 0841 f1f4 02c0 9a25 1d40 5281 3fbf
00000120: 61e0 f640 9b55 99c0 c6bf 8440 15e0 2b3e
00000130: 581c 863f c592 6a3f b9c3 7a3f e410 d13d
00000140: 75e5 e740 4bb0 82c0 5e11 3440 48f8 06bf
00000150: 077c f1c0 5af6 003f 15c6 c9c0 75c8 d1bf
00000160: f758 0bc1 2159 1ec0 c51b 0340 4609 0ebf
00000170: 447a 1b41 9430 0d40 6744 47c0 b8e8 843e
00000180: 328e 713e 7802 9b3d 376a 0abd dffd 21be
00000190: f49a 0fc1 2fa3 30c0 8bfd 0b40 ca6b 053e
000001a0: 3ee9 24be 200e 6dbc f1f2 243e 704e 193b
000001b0: 7ea8 1cbf 1711 fd3e e63f 4040 3986 d73b
000001c0: 9817 dec0 ee77 a940 03cf e53f 821c e43f
000001d0: 0378 20c1 3203 39c0 fbcb e340 58e7 bcbf
000001e0: bec0 3c3e 2ec5 af40 4963 a8c0 7bb5 adbd
000001f0: aa60 f43f 0245 acbe fb93 303f 8fd7 0d3d
00000200: 486b 0c3f 2d60 8d40 a8a7 8f3e c91e 313e
00000210: 1f68 b13f 5f29 7bbe 3507 28c0 537b 913e
00000220: a4a5 b7c0 93c9 31bf 006f 71c0 d732 2d3f
00000230: 6c5f e0bd d387 f940 9066 0cc0 b3f0 f5bd
00000240: 666d 8ebd 9d30 5c3d 85d1 5c3e 3d47 64be
00000250: fd6a 6640 529b 90bf 7380 34bf a4ff 41bf
00000260: 0de0 0540 79e5 7abe c251 6ec0 b6bb d73e
00000270: 0c59 35c0 a209 cc3e 7fd9 3f40 48e2 653d
00000280: 4a7b 8b40 1288 8b40 e0db 1640 9357 933f
00000290: be87 14c1 a06f c3be 19e7 0740 bb45 44bf
000002a0: cc62 2040 5648 d1be e3c1 a6be 179f 0cc0
000002b0: ddb5 4cc1 1f0e e23e 8a1f 5d40 fa28 c33d
000002c0: a774 c03f 3e26 a2be 5704 59c0 02d6 ca3e
000002d0: 514e 1640 c6dc a93f 6519 2fc1 172b d2bf
000002e0: 9546 4c3f 06f5 dd40 bc22 b0c0 5308 e4bd
000002f0: c675 e33b 2b1d b73d dfcb 933d 31ce 0f3e
00000300: 535e 8bbd 6c7b 17bf f371 0bc1 dc68 b03f
00000310: d3bc 6dc0 ea5e 073f 2193 2a40 f5d5 753e
00000320: bcae 0b40 8577 1340 882e 6ac0 5c20 b1bf
00000330: dba3 57be 4ed1 01be 88f5 063e 5419 06be
00000340: d34d 6741 3430 f2bd a419 1140 8e3f 51bd
00000350: 01c1 9640 e7a9 2ec0 baf7 8740 40a5 5a3e
00000360: 17d8 133f a2f0 e9be 516b 4ac0 c960 a0bd
00000370: 24af 73bd c83f 93bd e431 e3bd fa3a cabd
00000380: 791e 8c40 ddea b9be a56b 48c0 6796 0a3c
00000390: b1f9 0440 2672 15bf 0a4b 34bf 7bf9 753f
000003a0: dd07 0440 7957 55bf 992c f63e e50b 0e3f
000003b0: ba14 9140 e541 e2be a358 42c0 d156 2a3d
000003c0: 26fc 5e3f 6efa 13bf f7e9 b9c0 b610 00bf
000003d0: 3a94 51bf a245 fe3e d5ec 4340 d8d2 483c
000003e0: f5b9 3b41 5b08 1cc0 a86f b13f 7b59 073c
000003f0: 54e3 5441 74ea 00c0 c18c 51bf a68b c3bd
-9.29698 -2.81905 2.29147 0.362536 14.0676 3.47115 -6.07322 -0.42999
0.00911932 -0.14841 -0.0171432 0.173105 -6.25146 -1.29148 -3.5035 1.62495
-11.7669 1.59074 -1.22816 -0.572097 -12.3075 -0.583999 5.81432 0.132721
0.520906 -0.346749 0.152613 -1.51739 1.86258 0.829844 1.05102 0.397607
-0.742314 -1.79599 7.34563 -1.24916 0.056553 -0.042105 0.0357026 -0.0503737
1.97979 -1.28168 -0.314106 0.711989 12.9842 -2.19402 1.61622 -0.265661
8.73423 0.0298734 2.61994 -0.120924 -0.0567583 -0.159477 0.0968495 -0.0605005
-0.0250838 -0.239235 0.0264184 0.239303 -12.4433 -2.82634 7.52184 0.64257
1.12266 1.1638 0.755747 1.9673 8.53035 -2.0462 2.45542 -0.748067
7.71489 -4.7917 4.14841 0.167847 1.04774 0.916302 0.979549 0.102083
7.24676 -4.08402 2.81356 -0.527226 -7.54639 0.503759 -6.30543 -1.63893
-8.70922 -2.47419 2.04857 -0.554829 9.71735 2.20609 -3.11355 0.259588
0.235894 0.0756883 -0.0337927 -0.158195 -8.97533 -2.75996 2.18735 0.130294
-0.161046 -0.0144687 0.161083 0.00233927 -0.611946 0.494271 3.0039 0.00657728
-6.94038 5.29589 1.79538 1.78212 -10.0293 -2.89082 7.11865 -1.47581
0.184329 5.49282 -5.26212 -0.0848188 1.9092 -0.336464 0.689758 0.0346294
0.548512 4.41799 0.280576 0.172969 1.38599 -0.245275 -2.62544 0.284144
-5.73897 -0.694482 -3.7724 0.676557 -0.109557 7.79783 -2.19376 -0.120088
-0.0695446 0.0537573 0.215643 -0.222928 3.60028 -1.12974 -0.705085 -0.757807
2.0918 -0.245016 -3.72374 0.421354 -2.83356 0.398511 2.99765 0.056124
4.3588 4.36036 2.35717 1.15111 -9.28314 -0.381711 2.12348 -0.766689
2.50603 -0.408755 -0.325698 -2.19721 -12.7944 0.441514 3.45505 0.095293
1.50356 -0.316698 -3.39089 0.396164 2.34853 1.32705 -10.9437 -1.64194
0.797952 6.93616 -5.50424 -0.111344 0.00694153 0.0894111 0.0721662 0.140435
-0.068051 -0.591727 -8.71532 1.3782 -3.71465 0.528792 2.66523 0.240074
2.18254 2.30417 -3.65909 -1.3838 -0.210586 -0.126775 0.131796 -0.130956
14.4565 -0.118256 2.26719 -0.051086 4.71106 -2.72912 4.24899 0.213521
0.577516 -0.456914 -3.1628 -0.0783096 -0.0594932 -0.071899 -0.110935 -0.0987453
4.37872 -0.36312 -3.13157 0.00845871 2.07774 -0.583773 -0.70427 0.960838
2.06298 -0.833366 0.480809 0.554869 4.53378 -0.441909 -3.03666 0.0415867
0.871035 -0.57804 -5.80981 -0.500255 -0.818668 0.496625 3.06133 0.0122573
11.7329 -2.43801 1.38622 0.00826108 13.3055 -2.01431 -0.818554 -0.0954812

B0 f4 [64]
00000000: d1e6 28be 398b 0d3d 1425 51be 029f 97bf
00000010: 0d16 f33a 44a2 083f f915 573f 2fc0 823f
00000020: e410 353f 9702 82be bb27 933f dcbd 9a3b
00000030: d6c4 aabe 6478 94be b1c2 95be 1172 4ebf
00000040: 488a 983f 1047 cdbc 8258 2ebf 27dc 773f
00000050: bff3 1b3f f0bf 8d3f 4487 203e 8657 babe
00000060: d61c 88be 7d04 fe3c bfb9 6fbe e8de 8b3f
00000070: bff2 683f 67ef 7c3e 4013 99bf 84f0 203f
00000080: 54a9 0340 a400 593f ad6e a13f 8524 633f
00000090: b39a 86be b8cc b13f 2eca 943f f0a2 8b3f
000000a0: b18b aa3e ab26 903f d5af 2c3f 2177 0d3f
000000b0: e960 893f 295c 7f3e 9a7c 9f3f e086 28be
000000c0: a149 22be 5f79 703f 21cd 843f 72fc 88be
000000d0: ad14 d23e 923f 78bd bebc 983f 60ac 1fbe
000000e0: 6805 8e3f 96cf 9a3f 67b8 9d3f 84f0 8c3f
000000f0: 4f92 d2bf 5de1 8d3f d23a 853c b9a5 953e
-0.164943 0.0345566 -0.204243 -1.18454 0.0018546 0.533726 0.840179 1.02149
0.707289 -0.253926 1.14965 0.00472234 -0.333533 -0.289981 -0.292501 -0.806428
1.19172 -0.0250583 -0.681038 0.968203 0.609188 1.10742 0.156766 -0.363949
-0.265845 0.031008 -0.234107 1.09274 0.909954 0.247007 -1.1959 0.62867
2.05721 0.847666 1.26119 0.887276 -0.262899 1.38906 1.16242 1.09091
0.333097 1.12618 0.674558 0.552599 1.07327 0.249375 1.24599 -0.164577
-0.158484 0.939352 1.03751 -0.267551 0.410314 -0.0606075 1.19326 -0.155931
1.10954 1.20946 1.23219 1.10109 -1.64509 1.10844 0.0162634 0.29228

W1 f4 [9, 64]
00000000: a5a0 c440 e57e d8c0 6608 31bd b072 b0bf
00000010: ef20 a140 4e45 f6bf 1e4f 1b3e 3eaf 58bf
00000020: 060d c53f 0c02 4bbe dcb8 f5be 4226 7940
00000030: 76e0 5240 d428 44be 9c09 a7bd 8f1d f4be
00000040: 9fcd aebf e4ac 0841 ac56 60c0 7442 18bf
00000050: e5d0 0ac0 aa20 b0bd 8c67 9b40 52f2 6a40
00000060: 99b9 90be 384a cc40 15ca 223e 0674 f0bc
00000070: e259 6abf cb84 8dc0 085a 2340 be12 88be
00000080: 2fbe c83e 766f cd3e cdcc e03f 0f7f c93f
00000090: 3960 173e 0933 85bf 1a8b b63e 917d b03e
000000a0: effe 5440 6d90 53c0 9e5e 99bf dd99 3dbf
000000b0: e658 123f 0cad 323f 6132 8c40 ee95 19be
000000c0: a69d 2abe e108 023e 7671 07c0 9da1 b3bd
000000d0: 465c 38bf d786 8c40 ba4a 373f 2ce8 87bc
000000e0: 3998 fd3e 2bfa fbbe 1aa8 d4be 433d f53e
000000f0: ec4c 5340 6f11 b03e 6f47 dc40 3012 f2bf
00000100: 3f52 10c1 6e17 c340 3d61 093e 4d15 37c1
00000110: 6ff0 91c1 2ff7 6ebd 0cea f33f c494 943f
00000120: a73f 4f3f 9830 7abe 68b3 4040 04ad fc3f
00000130: 7ff6 cbbf 049e 453a 17d8 e3bd 0adb f7be
00000140: a245 863f 8594 71c0 6e6e 83c0 ace2 f53e
00000150: 6d1c a1c0 6328 e740 fa9b 50c0 7fd9 1740
00000160: 8446 90be 1511 17c1 7957 0d3e 05d5 103d
00000170: 325a 9bbf d9ce cbbf a9a4 4a40 83dd b43f
00000180: f0be d23e be30 43c0 058b 93c0 79e6 55be
00000190: e0f3 433e ab3e 8440 f836 83c0 cd06 b1be
000001a0: 3815 81bf 0dc3 0740 8a74 973e 4f24 b03e
000001b0: fa0a 85c0 c425 29c0 98a3 87bf ca8b 5cbe
000001c0: f0c4 c4bf 8cf4 c2be 2098 f3bf baa0 aebd
000001d0: a835 0740 4b1e 4fbe 53d0 6dc0 22c4 453e
000001e0: ff21 63c0 41f1 2140 19c5 1040 6536 7ac0
000001f0: 99d8 4040 4d2e 863e 5530 c2bf ee25 b040
00000200: a488 16c0 c217 92bf 5e80 0dbe a94d 9640
00000210: deb0 23c0 35d2 5440 130a 993f cea5 f83f
00000220: 4be5 2dbd 9a71 84bd 5f5f bb3e 4cc3 10c1
00000230: 13d6 06bf e3ff 86be ef91 3dbe 9b72 4740
00000240: 6f49 223f ef49 ccc1 5743 c0c0 6284 3e40
00000250: 0f97 1c40 c8ec 843e 26e4 87bf b82f 0cc1
00000260: 7500 84be fa7e 96bf e0f7 ca3d ee08 63c0
00000270: 0933 55c0 0309 3240 5c20 5bc2 e6ce 6c3f
00000280: 883a 01c1 b3b6 093e e333 313f 5682 d53f
00000290: a323 d93d 7d41 6b3e 39ef d73e 3a1e 63c0
000002a0: 925c 52c1 5a81 1340 7ced 0940 e97d 5740
000002b0: c572 eb3e 1327 e7bf cb10 b340 3310 a0bd
000002c0: 4596 b1bd 336d 2bc0 172b 4a40 f72c febc
000002d0: fafe b2c1 4417 c6c0 ffae efbd de57 553e
000002e0: 996d ad3d 03e9 aa3e 5987 7b3f c72f fcbd
000002f0: 008c c1c0 7e1d 3ec0 11aa c43f 68ea 61bf
00000300: e6a2 04c1 39d6 2141 7ff7 8ebe 7025 da40
00000310: 1d38 68c1 c1c5 7040 9b57 c5be 99d3 813f
00000320: 51d8 fd3e 22c2 ff3d 8351 8d3f 11aa 36c0
00000330: 40de bdc0 b532 513e c362 443e a01a 86c1
00000340: 12a5 fd3f 3c83 c1c0 a9bc 1941 7845 603f
00000350: 0855 ce3f 0118 e9c0 a4aa a8c0 003a c03f
00000360: 438f 48be 9dba 9ec0 d190 21be c959 a43f
00000370: 31b6 c43f 772d 99c0 e02d 22c0 5680 1b3f
00000380: 92b3 b83f e014 86bd 6c3e 98c0 b728 89c0
00000390: 2719 b53a 3a21 143e 20d1 84bc 60c8 c23f
000003a0: 52ba 64bf 8412 5c40 132c be3f c711 5d40
000003b0: 57ec bf3e dc46 2641 b5fd 05c1 e63b 283e
000003c0: e561 f5c0 a661 e43f 1c0b 223f ca50 75be
000003d0: 9c50 e43f 07eb efbf 8e1f babe 7277 cc3d
000003e0: 4418 8fbd 87dc 903f 8faa 9a3f 65e0 b03e
000003f0: ac90 9040 f706 b33f 94c1 c4c0 afeb b7c0
6.14461 -6.76549 -0.0432209 -1.3785 5.03527 -1.92399 0.151669 -0.846424
1.53946 -0.19825 -0.479926 3.89296 3.29495 -0.191562 -0.0815613 -0.476788
-1.36565 8.54221 -3.50529 -0.594764 -2.169 -0.0859998 4.85639 3.67104
-0.282666 6.38406 0.158974 -0.0293522 -0.915434 -4.42246 2.55237 -0.265768
0.392076 0.401241 1.75625 1.57419 0.147828 -1.04062 0.35653 0.344708
3.32806 -3.30569 -1.1982 -0.740629 0.571669 0.697953 4.38115 -0.149986
-0.166617 0.126987 -2.1163 -0.0877106 -0.720158 4.39146 0.715984 -0.0165902
0.495302 -0.492143 -0.415345 0.478983 3.30157 0.343883 6.88372 -1.89118
-9.02008 6.09661 0.13416 -11.4427 -18.2424 -0.0583412 1.90558 1.16079
0.809565 -0.244326 3.01095 1.97403 -1.59346 0.00075385 -0.111252 -0.484093
1.049 -3.77469 -4.10723 0.480245 -5.03472 7.22368 -3.25952 2.37265
-0.281788 -9.44167 0.138029 0.0353594 -1.21369 -1.59225 3.1663 1.41301
0.411613 -3.04985 -4.61072 -0.208887 0.19136 4.13265 -4.10046 -0.345755
-1.00846 2.12128 0.295811 0.344027 -4.15759 -2.64293 -1.05968 -0.215377
-1.53726 -0.380772 -1.90308 -0.0852675 2.11265 -0.202264 -3.71584 0.193131
-3.54895 2.53035 2.26203 -3.90957 3.01322 0.262072 -1.5171 5.50463
-2.35209 -1.14135 -0.138185 4.69698 -2.55767 3.32533 1.19562 1.94256
-0.042455 -0.0646698 0.365962 -9.04768 -0.526704 -0.263671 -0.185127 3.11637
0.633933 -25.5361 -6.00822 2.97683 2.44672 0.259619 -1.06165 -8.76165
-0.257816 -1.17575 0.0991056 -3.54742 -3.33124 2.7818 -54.7816 0.925032
-8.07679 0.134486 0.692198 1.66804 0.106025 0.229742 0.421747 -3.54872
-13.1476 2.30477 2.15512 3.36706 0.45986 -1.80588 5.5958 -0.0781559
-0.0867124 -2.67854 3.15888 -0.0310273 -22.3745 -6.19034 -0.117033 0.208343
0.0846817 0.333809 0.982534 -0.123138 -6.04834 -2.97055 1.53644 -0.882483
-8.28977 10.1148 -0.279232 6.81707 -14.5137 3.76207 -0.385434 1.01427
0.495791 0.124882 1.10405 -2.85413 -5.93338 0.204295 0.191783 -16.763
1.9816 -6.04727 9.60856 0.87606 1.61197 -7.28418 -5.27083 1.50177
-0.195859 -4.96028 -0.157779 1.28399 1.53681 -4.7868 -2.53405 0.607427
1.44298 -0.0654695 -4.75762 -4.28622 0.00138167 0.144658 -0.016213 1.52174
-0.893468 3.43863 1.48572 3.45421 0.37485 10.3923 -8.37444 0.164291
-7.6682 1.78423 0.632982 -0.239566 1.78371 -1.87436 -0.363522 0.0998372
-0.0698705 1.13173 1.20833 0.345462 4.51766 1.39865 -6.14863 -5.74752

B1 f4 [9]
00000000: 0588 0abf 412b 1440 7d96 df3f 3bc2 953f
00000010: 07ee c0be 7903 84be 8028 18bf deab 3ebf
00000020: fd14 ffbe
-0.541138 2.31514 1.74678 1.16999 -0.376816 -0.257839 -0.594368 -0.74481
-0.498207
