model_dir/dubinsrejoin.pt (torch, 990209 bytes, 9 tensors)

_initializer_StatefulPartitionedCall/sequential/dense_2/MatMul/ReadVariableOp:0 f4 [256, 8]
-0.0693691 -0.021899069 0.031122062 0.053363707 0.052816086 -0.0068596043 0.02584125 -0.06847223
0.12773658 -0.09542285 -0.0023386406 -0.10073202 -0.023484034 0.06933438 0.064468004 -0.10536346
-0.11647222 -0.120744914 0.0017774042 0.19062091 0.20993869 0.042074647 -0.05965821 -0.15125208
-0.12870634 -0.032154698 0.07143493 0.05467096 0.064704254 -0.0155405775 0.029798815 -0.07534261
-0.14821737 -0.13130747 0.09535455 0.108738825 0.04397856 -0.023447556 -0.057931922 0.043485206
-0.063697666 -0.021249013 0.029015549 0.051530007 -0.14833373 -0.038384847 -0.010006378 0.17209503
0.10325494 0.04553878 -0.10756549 -0.17447701 -0.05291765 -0.005743348 -0.015368954 0.06138316
-0.12722695 0.007025203 0.071832284 0.035663225 0.11708394 -0.1513724 -0.012274038 -0.004967389
-0.0005212926 -0.000985696 -0.0003002189 0.00027498644 -9.029238e-05 0.000101649945 0.0013797879 0.00022533057
0.0874526 0.05440863 -0.07092594 -0.14323375 -0.10633679 -0.012123119 0.03879465 0.044677485
0.16191666 0.062482823 -0.10187144 -0.32921666 -0.10711414 -0.054147 0.04345939 0.06849434
0.05179775 0.016021105 -0.0541231 -0.027969405 0.13810779 -0.020405171 0.013345808 -0.3448337
-0.0643861 -0.058129016 0.029012887 0.12063241 -0.031385273 0.021297188 0.0154276695 0.020758905
0.003329909 0.062059127 -0.01439509 -0.045084696 0.07754889 0.020142948 0.06508097 -0.45688397
0.22060226 -0.009190049 -0.20000169 -0.13163124 0.08233979 0.010636332 -0.0335908 -0.0018680886
-0.12695678 -0.026634378 0.05345324 0.06788145 -0.028883992 -0.048428066 0.00075989036 0.08783207
-0.029380422 -0.011679751 0.02274172 0.023821348 -0.19680902 0.037761524 0.036760986 0.06661109
-0.033636726 -0.047083315 0.04408259 0.027473811 0.13972023 -0.09035923 0.011324863 -0.16736081
-0.05617246 -0.067635424 0.081460886 0.092846304 -0.028305583 0.062020276 0.050405428 -0.07592641
-0.031351503 0.04838896 -0.036501057 0.036920164 -0.13059826 0.11285317 0.048268747 0.09350872
0.18617074 -0.24383591 0.095161684 -0.11606104 -0.08420432 0.03812059 -0.025294244 0.23281315
0.083418824 -0.13755995 0.08272026 0.0733021 0.05883019 0.120041646 -0.08402705 -0.0714332
-0.12340181 0.09574772 0.0048306673 -0.008167625 0.0008623217 -0.030375026 0.036173783 0.036985714
0.04214752 0.1419642 -0.054797463 -0.2815317 0.010161248 -0.019179905 -0.021426864 0.079429425
0.056473583 0.07101429 -0.14665203 -0.045077544 0.13232118 -0.12653147 -0.015215483 0.015811156
0.010983742 0.0069521787 0.039148618 -0.06375966 -0.43344638 0.040093906 0.04067188 0.07981006
0.06789702 -0.04011451 0.06600808 -0.13357234 -0.16032326 0.18746161 -0.068540014 -0.036926776
0.18974207 0.04859663 -0.14316432 -0.27283344 -0.08934191 -0.086415134 0.014790862 0.11658965
-0.061662253 0.031105543 0.073690064 0.015515429 -0.16265516 -0.03343375 0.07565568 0.07635006
0.1004376 0.07267299 -0.13394225 -0.27305228 0.02157183 0.02868715 -0.08390668 0.063228935
0.10164238 0.0031295812 -0.062202714 -0.061860453 0.15721327 -0.0457091 0.018756323 -0.25555408
-0.062449858 -0.039863016 -0.011980718 0.11748198 -0.08253092 0.052606482 0.007736268 0.17007062
00000000: 6311 8ebd ad65 b3bc b2f3 fe3c e793 5a3d
00000010: ae55 583d 88c6 e0bb 07b1 d33c 2b3b 8cbd
00000020: 61cd 023e 0e6d c3bd e143 19bb 974c cebd
00000030: 9761 c0bc 2fff 8d3d cd07 843d ccc8 d7bd
00000040: fd88 eebd 1c49 f7bd caf7 e83a 2132 433e
00000050: 2bfa 563e 7756 2c3d 2b5c 74bd d3e1 1abe
00000060: 98cb 03be a5b4 03bd 7a4c 923d a8ee 5f3d
00000070: aa83 843d e89d 7ebc a51c f43c 3a4d 9abd
00000080: 4bc6 17be 7775 06be 3f49 c33d 76b2 de3d
00000090: dd22 343d 1715 c0bc 064a 6dbd 8b1d 323d
000000a0: ec73 82bd 6912 aebc 04b2 ed3c 2111 533d
000000b0: cce4 17be 6e39 1dbd cbf1 23bc ae39 303e
000000c0: 5377 d33d df86 3a3d 4c4b dcbd 1aaa 32be
000000d0: 2ec0 58bd b232 bcbb 11ce 7bbc e96c 7b3d
000000e0: c847 02be ad33 e63b ce1c 933d 9a13 123d
000000f0: b4c9 ef3d 5e01 1bbe 0c19 49bc 7bc5 a2bb
00000100: 5ba7 08ba 7832 81ba b366 9db9 0e2c 9039
00000110: 5a5b bdb8 e62c d538 00da b43a b746 6c39
00000120: 591a b33d 95db 5e3d 9f41 91bd deab 12be
00000130: 1ac7 d9bd 0ca0 46bc 24e7 1e3d bdff 363d
00000140: 7bcd 253e fded 7f3d f9a1 d0bd 168f a8be
00000150: a95e dbbd 3fc9 5dbd 7902 323d c346 8c3d
00000160: e129 543d b13e 833c 2fb0 5dbd 1820 e5bc
00000170: 216c 0d3e bf28 a7bc 60a8 5a3c 0b8e b0be
00000180: dcdc 83bd b118 6ebd 6fac ed3c 200e f73d
00000190: d88d 00bd 7177 ae3c 56c4 7c3c 940e aa3c
000001a0: 9a3a 5a3b b631 7e3d 62d9 6bbc bbaa 38bd
000001b0: f4d1 9e3d d302 a53c 2c49 853d b2ec e9be
000001c0: 8fe5 613e dc91 16bc 3ecd 4cbe 57ca 06be
000001d0: c4a1 a83d 0344 2e3c 8296 09bd a7da f4ba
000001e0: f500 02be 5730 dabc c9f1 5a3d 6e05 8b3d
000001f0: 1f9e ecbc 825c 46bd 6133 473a 4de1 b33d
00000200: 36af f0bc 6d5c 3fbc d84c ba3c fd24 c33c
00000210: 4e88 49be d4ab 1a3d b092 163d 656b 883d
00000220: aac6 09bd 6fda 40bd f28f 343d c210 e13c
00000230: d212 0f3e 430e b9bd eb8b 393c a260 2bbe
00000240: 1815 66bd 7184 8abd f7d4 a63d 3426 be3d
00000250: 1ce1 e7bc f908 7e3d ec75 4e3d 4e7f 9bbd
00000260: 6f6a 00bd 8133 463d 2282 15bd 9939 173d
00000270: 8dbb 05be 901f e73d 73b5 453d 8081 bf3d
00000280: 8ba3 3e3e 1fb0 79be 21e4 c23d 69b1 edbd
00000290: 5173 acbd 5624 1c3d e035 cfbc 9266 6e3e
000002a0: 7dd7 aa3d 84dc 0cbe 3d69 a93d 691f 963d
000002b0: edf7 703d 65d8 f53d 6016 acbd 924b 92bd
000002c0: 17ba fcbd 6117 c43d 934a 9e3b 81d1 05bc
000002d0: 6e0d 623a 0cd5 f8bc f62a 143d 557e 173d
000002e0: e1a2 2c3d 105f 113e 4e73 60bd ec24 90be
000002f0: 5d7b 263c 2d1f 9dbc 6487 afbc e5ab a23d
00000300: d850 673d f16f 913d f32b 16be 3ba3 38bd
00000310: 347f 073e 7791 01be 5c4a 79bc 6686 813c
00000320: 27f5 333c 1acf e33b 4d5a 203d 6d94 82bd
00000330: afec ddbe 8239 243d 8f97 263d 7573 a33d
00000340: 980d 8b3d 1d4f 24bd 3f2f 873d 30c7 08be
00000350: c82b 24be f0f5 3f3e b55e 8cbd 8840 17bd
00000360: bf4b 423e 430d 473d ab99 12be d3b0 8bbe
00000370: e4f8 b6bd 6bfa b0bd 5f55 723c 8ec6 ee3d
00000380: 8f91 7cbd 0dd1 fe3c d1ea 963d 6d34 7e3c
00000390: 138f 26be d4f1 08bd 5df1 9a3d 6c5d 9c3d
000003a0: 3ab2 cd3d 94d5 943d 2828 09be 82cd 8bbe
000003b0: 68b7 b03c 5001 eb3c 44d7 abbd 2c7e 813d
000003c0: e129 d03d a919 4d3b 46c8 7ebd 6361 7dbd
000003d0: 84fc 203e 7739 3bbd dca6 993c fcd7 82be
000003e0: 6ccb 7fbd 6747 23bd c64a 44bc 649a f03d
000003f0: f905 a9bd e579 573d 8580 fd3b fe26 2e3e

_initializer_StatefulPartitionedCall/sequential/dense_2/BiasAdd/ReadVariableOp:0 f4 [8]
0.0018905769 0.0045977007 0.0064817597 -0.014465754 -0.012598847 -0.013761932 0.0065799025 0.01803072
00000000: 3ccd f73a 4fa8 963b f164 d43b c501 6dbc
00000010: 656b 4ebc ba79 61bc 399c d73b 29b5 933c

_initializer_StatefulPartitionedCall/sequential/dense_1/MatMul/ReadVariableOp:0 f4 [256, 256]
-0.11251435 0.14380664 -0.060349505 0.032402415 -0.03299986 -0.039499383 0.068466865 -0.02251797
-0.05992696 -0.04239678 0.05375132 0.18057375 0.09280252 0.12153195 0.14644344 -0.19834574
-0.23317385 0.104048334 -0.36922744 0.004292392 0.043628298 0.118346244 0.06363973 0.07413243
0.12584844 -0.14087588 0.015417526 0.031694908 0.02968013 0.13159348 0.21807341 -0.04135109
0.14465567 0.0236418 -0.011181971 0.08496753 -0.09399128 -0.0017291463 0.017949263 -0.01769035
0.07768736 -0.15969543 0.17216626 -0.011778996 -0.13119118 -0.075680755 0.18731125 -0.08542312
-0.1358276 0.076980345 -0.1022761 0.21964113 0.06768487 0.043927368 0.050058022 -0.0046167066
0.20259774 0.16744009 0.123179026 -0.15379736 0.14113337 -0.0668862 0.10253677 0.2602523
0.080899164 -0.16018267 -0.08823993 -0.10397678 0.029164411 0.106370166 0.017126696 0.005371792
0.026416989 0.09899622 0.0719479 -0.19323422 -0.16031854 0.0859713 -0.08177844 -0.013389487
0.08447234 0.17306466 -0.048701894 0.124731325 0.28271317 -0.059098773 0.060774602 0.0453043
0.09775283 0.107796505 0.023575896 -0.061764024 0.13981487 0.14451906 -0.03580945 -0.03156447
-0.40071002 -0.2098529 0.11917664 0.09990051 0.12856454 0.015339796 -0.14839783 0.08819135
-0.099902585 -0.07195238 0.12193163 -0.11968559 -0.09969207 0.031613063 -0.04319167 -0.056148697
-0.067467935 -0.08062982 -0.010835848 0.07965691 0.0020468514 -0.050043333 -0.1128983 -0.02628145
-0.031956334 0.17409259 -0.062138747 0.15735613 0.067245305 -0.20072924 -0.103777364 0.09442435
0.14338037 -0.13554102 0.14323975 0.19059846 -0.12783144 -0.12231713 -0.19541131 -0.06919091
0.06611936 0.054030783 0.007749881 -0.21786298 0.061271247 -0.051385768 -0.014263643 -0.08355272
-0.06424612 -0.18037862 -0.0135672055 0.1912329 0.031800017 0.26669464 -0.015440997 0.06721474
0.088640876 -0.06281559 -0.024557196 0.07069528 0.0209691 0.06376463 0.20521718 -0.044103466
0.013604097 -0.18327743 0.062028788 0.1632326 -0.051630564 0.103376225 -0.07019935 -0.25193173
0.08814915 -0.0013899136 0.064779945 0.2269444 0.15380347 -0.1245045 -0.039752476 -0.023623
0.011192394 -0.091516435 0.15389724 -0.2259601 -0.12229488 -0.014976534 0.05755212 0.009693586
-0.12205262 0.23065005 -0.22825585 0.057633325 0.13171808 -0.118431024 -0.07023004 0.09318272
0.015981033 0.11950277 0.22582872 0.061261334 -0.15803829 -0.124592535 0.029006166 0.1683033
0.048029464 -0.17480771 0.01562226 0.17245033 0.0022140036 -0.104057446 -0.30024722 -0.108354144
0.0027671834 -0.065209605 0.0060280967 -0.01988571 0.12597442 -0.06310299 -0.066670306 0.06586964
-0.031587947 0.055828433 0.013092932 -0.024744194 0.044966493 0.11936465 -0.10337558 0.03845641
-0.1495059 0.14928058 -0.02734248 0.20350507 -0.030569429 0.13818902 0.16329607 -0.033876248
0.08507879 0.088317946 -0.103894144 -0.06476642 0.013276702 0.007323158 0.08560709 0.049722143
-0.06448557 -0.0066290568 0.120719515 -0.17179048 0.06237178 -0.07997587 0.18287648 0.14029057
0.21471667 -0.18012659 -0.04979272 -0.11533307 -0.107130714 -0.1522014 0.14800955 0.18087263
00000000: ec6d e6bd 0c42 133e 0b31 77bd 65b8 043d
00000010: dc2a 07bd 1bca 21bd 5b38 8c3d 9b77 b8bc
00000020: f975 75bd 3fa8 2dbd 582a 5c3d 53e8 383e
00000030: 3f0f be3d bee5 f83d 45f5 153e 251b 4bbe
00000040: 20c5 6ebe 4b17 d53d 610b bdbe 32a7 8c3b
00000050: 96b3 323d 845f f23d 8c55 823d bed2 973d
00000060: 6ade 003e c441 10be ca99 7c3c 85d2 013d
00000070: be23 f33c 71c0 063e a34e 5f3e c35f 29bd
00000080: 9e20 143e 73ac c13c 9634 37bc 7503 ae3d
00000090: 807e c0bd 86a4 e2ba 550a 933c 5aeb 90bc
000000a0: 8d1a 9f3d 3387 23be 5a4c 303e b1fc 40bc
000000b0: fb56 06be 83fe 9abd 85ce 3f3e 51f2 aebd
000000c0: 6416 0bbe dfa7 9d3d 2276 d1bd 9be9 603e
000000d0: 5d9e 8a3d 2fed 333d a409 4d3d be47 97bb
000000e0: c875 4f3e 6a75 2b3e 4945 fc3d 0e7d 1dbe
000000f0: 4485 103e a2fb 88bd ccfe d13d ca3f 853e
00000100: 76ae a53d ed06 24be 23b7 b4bd c7f1 d4bd
00000110: 34ea ee3c 9ad8 d93d 494d 8c3c db05 b03b
00000120: 7168 d83c 88be ca3d 6c59 933d 31df 45be
00000130: 8b2a 24be b911 b03d 747b a7bd 945f 5bbc
00000140: d6ff ac3d dd37 313e a37b 47bd 2373 ff3d
00000150: c8bf 903e 8e11 72bd caee 783d 0091 393d
00000160: a332 c83d 6ac4 dc3d 3d22 c13c 46fc 7cbd
00000170: a12b 0f3e cefc 133e eeac 12bd bf49 01bd
00000180: dd29 cdbe aee3 56be e212 f43d a398 cc3d
00000190: 6ca6 033e c553 7b3c 9af5 17be ab9d b43d
000001a0: ba99 ccbd c55b 93bd 4ab7 f93d b81d f5bd
000001b0: 5b2b ccbd b37c 013d c0e9 30bd 2dfc 65bd
000001c0: a12c 8abd 3f21 a5bd d788 31bc 2923 a33d
000001d0: 7824 063b 3dfa 4cbd 3937 e7bd 324c d7bc
000001e0: a5e4 02bd 5445 323e 3385 7ebd f721 213e
000001f0: e8b7 893d f78b 4dbe 3a89 d4bd 8e61 c13d
00000200: 4ed2 123e 44cb 0abe 71ad 123e 3e2c 433e
00000210: 3fe6 02be 6781 fabd e719 48be f7b3 8dbd
00000220: 9669 873d 624f 5d3d b7f2 fd3b 7917 5fbe
00000230: 8ff7 7a3d e279 52bd 0eb2 69bc b01d abbd
00000240: 7893 83bd 2cb5 38be fc48 5ebc 8fd2 433e
00000250: bc40 023d 338c 883e 3cfc 7cbc e2a7 893d
00000260: 5989 b53d 76a5 80bd 2c2c c9bc b0c8 903d
00000270: 64c7 ab3c 0897 823d 7424 523e d6a5 34bd
00000280: b8e3 5e3c 14ad 3bbe e611 7e3d 7226 273e
00000290: 927a 53bd eab6 d33d adc4 8fbd 32fd 80be
000002a0: 8b87 b43d c32d b6ba 59ab 843d 1d64 683e
000002b0: a87e 1d3e 37fc febd 7ed3 22bd 0685 c1bc
000002c0: 4e60 373c f86c bbbd 3d97 1d3e 1662 67be
000002d0: bd75 fabd 2360 75bc c6bb 6b3d d9d1 1e3c
000002e0: b9f6 f9bd 872f 6c3e e7bb 69be ec10 6c3d
000002f0: 1be1 063e f78b f2bd c4d4 8fbd 95d6 be3d
00000300: a8ea 823c debd f43d a53f 673e 2aed 7a3d
00000310: cad4 21be 5f2a ffbd 579e ed3c b357 2c3e
00000320: 8bba 443d cb00 33be 82f4 7f3c d296 303e
00000330: d118 113b 121c d5bd 01ba 99be c7e8 ddbd
00000340: a259 353b 9d8c 85bd 5787 c53b 5be7 a2bc
00000350: 70ff 003e 243c 81bd 718a 88bd a9e6 863d
00000360: 5d62 01bd 5bac 643d bd83 563c 56b4 cabc
00000370: c92e 383d 7475 f43d 93b6 d3bd 7884 1d3d
00000380: 1318 19be 02dd 183e 56fd dfbc a263 503e
00000390: bd6c fabc 6c81 0d3e 1637 273e d2c1 0abd
000003a0: ca3d ae3d 0ae0 b43d 74c6 d4bd 42a4 84bd
000003b0: 8686 593c 1af7 ef3b c552 af3d 72a9 4b3d
000003c0: 0311 84bd 8f38 d9bb cb3b f73d d8e9 2fbe
000003d0: 8d79 7f3d 64ca a3bd f943 3b3e 55a8 0f3e
000003e0: b0de 5b3e 1b73 38be 73f3 4bbd bf33 ecbd
000003f0: 5967 dbbd afda 1bbe d18f 173e ad36 393e

_initializer_StatefulPartitionedCall/sequential/dense_1/BiasAdd/ReadVariableOp:0 f4 [256]
0.0014999146 0.012367359 -0.003059142 0.015354204 0.002439164 0.013221882 0.022622583 -0.0025022975
0.0 0.027236516 0.059127677 0.008999303 0.015007597 0.012652755 0.027887987 0.02318982
0.028901264 -0.002084244 -0.05288567 0.023897557 0.03722239 -0.03415568 -0.00349843 0.047154628
-0.015014206 0.027622918 -0.010817082 0.046267454 -0.052187257 0.030612074 0.011348991 -0.02254965
-0.0064561 -0.017343327 0.0014716396 0.0189666 0.017677316 0.010012058 0.060864948 0.0375339
0.0047951774 -0.0057874075 0.01743298 0.039466884 0.050246365 0.031368967 0.03141099 0.058709018
0.026300838 0.022020496 0.026670715 -0.0016760105 0.02231995 -0.0033300563 0.04296223 0.016042542
0.003770635 0.019689709 -0.0037345355 0.037927367 0.004925062 0.015243892 0.011975573 0.020091373
-0.011909834 0.020718126 0.054303322 0.02899181 0.01110219 0.04385573 0.0013185221 0.022639185
0.018280875 0.0138522405 0.014908383 0.029743928 -0.020838007 0.0019845453 0.023218129 -0.021274151
0.003576675 0.004113936 0.0 0.01622816 0.024990015 0.022277843 0.02472127 -0.012888192
-0.011703176 0.010408982 0.061200447 0.035970587 0.010213464 0.027796265 0.014101671 0.01792649
-0.008436403 0.031412765 -0.012535209 -0.007334607 -0.0034764793 -0.016793635 0.05764327 0.007353823
-0.027217064 0.022580473 0.043913405 0.055602517 0.041230045 -0.014675154 -0.005715751 0.041608315
0.009054221 -0.006330768 0.028699657 0.067392685 0.044125363 0.040425647 0.049883164 -0.039522402
0.030571043 0.01804837 0.034219813 -1.1056025e-05 -0.024908343 -0.029187115 0.01506537 0.0014385479
-0.037949163 0.03140743 0.01524216 -0.0068684686 0.02195556 0.04212562 0.034114532 0.05711457
-0.0043121725 0.021020036 -0.016676458 0.010845838 -0.0017166331 0.009978099 0.017788673 0.015105768
0.03774243 0.074912764 0.004822268 -0.022099573 -0.008392358 0.042727593 0.037653834 0.06375629
0.011915806 0.029960964 0.009877048 0.044853166 -0.0052089747 0.01726561 0.019248325 0.05154612
0.011107966 -0.06338997 0.032268945 0.02017776 0.018648611 -0.018404199 0.013326698 0.021478638
0.022693956 0.039948817 0.027403824 0.03594977 0.034170333 0.0350495 0.011575318 0.017705083
-0.014025134 -0.004368986 -0.003501328 0.016400784 0.027708126 -0.0038330597 0.019759895 0.055320438
0.005760591 -0.010090715 0.031539835 0.026851872 -0.017571716 0.019868597 0.067105144 0.011629692
-0.04372006 -0.020629352 0.008488131 0.027273772 0.0021751993 0.03267075 0.023934934 0.0013965361
0.0062289895 0.030187352 0.011175384 0.034851972 0.017674912 0.039965753 0.019177396 0.023258038
0.045405142 -0.012778102 0.034652222 0.017447278 0.013687185 0.017248547 0.026139373 0.025796669
0.020182727 0.0125753945 0.021128641 -0.003338383 -0.02736103 0.026036143 0.04032754 -0.013907716
0.013610367 -0.03129561 0.04488683 0.024464529 0.03659969 -0.019689431 0.02752403 0.032051835
0.026308673 0.025165506 -0.0096128285 0.0 -0.0020087527 0.05178557 -0.0045240787 0.013751774
0.034744166 0.0014824253 0.0063227657 -0.022351196 0.012082285 0.04662451 -0.039465968 0.03166491
0.011310697 0.0272711 -0.031407963 -0.031680588 0.03662203 0.053616375 0.05805198 0.040703677
00000000: c898 c43a 77a0 4a3c e37b 48bb 3390 7b3c
00000010: 62da 1f3b 98a0 583c ff52 b93c 96fd 23bb
00000020: 0000 0000 1d1f df3c dd2f 723d d071 133c
00000030: 6de2 753c 804d 4f3c 5975 e43c 94f8 bd3c
00000040: 58c2 ec3c d097 08bb a59e 58bd cfc4 c33c
00000050: 8176 183d d4e6 0bbd ea45 65bb 3625 413d
00000060: 25fe 75bc 7549 e23c 213a 31bc f182 3d3d
00000070: 4ec2 55bd 2cc6 fa3c 1ef1 393c 0bba b8bc
00000080: b18d d3bb 9813 8ebc 08e4 c03a d85f 9b3c
00000090: 05d0 903c 9d09 243c 864d 793d 26bd 193d
000000a0: dd20 9d3b 4ba4 bdbb 9ccf 8e3c 07a8 213d
000000b0: 22cf 4d3d bf7c 003d cfa8 003d de78 703d
000000c0: db74 d73c 5464 b43c 8b7c da3c 95ad dbba
000000d0: 54d8 b63c 133d 5abb 2af9 2f3d a66b 833c
000000e0: c21c 773b 504c a13c 1cbf 74bb ba59 1b3d
000000f0: 6a62 a13b 84c1 793c 3235 443c aa96 a43c
00000100: 7721 43bc 0fb9 a93c 296d 5e3d 3b80 ed3c
00000110: f6e5 353c 11a2 333d 43d2 ac3a d075 b93c
00000120: c6c1 953c 82f4 623c 4a42 743c 8aa9 f33c
00000130: 78b4 aabc 250f 023b f233 be3c 2147 aebc
00000140: a666 6a3b 32ce 863b 0000 0000 ebf0 843c
00000150: dcb7 cc3c 0680 b63c 4384 ca3c ff28 53bc
00000160: aebe 3fbc 6f8a 2a3c 52ad 7a3d e555 133d
00000170: 5f56 273c feb4 e33c b20a 673c 93da 923c
00000180: d738 0abc acaa 003d 7a60 4dbc 2557 f0bb
00000190: a5d5 63bb ce92 89bc 591b 6c3d 57f8 f03b
000001a0: 52f6 debc affa b83c 8bde 333d 77bf 633d
000001b0: d6e0 283d 0f70 70bc 324b bbbb 7b6d 2a3d
000001c0: 2858 143c 5572 cfbb 8b1b eb3c 2d05 8a3d
000001d0: ccbc 343d 5d95 253d 4a52 4c3d 3ee2 21bd
000001e0: 2070 fa3c 2dda 933c 132a 0c3d 447d 39b7
000001f0: 950c ccbc d119 efbc bed4 763c a88d bc3a
00000200: 9570 1bbd 14a5 003d 41ba 793c e410 e1bb
00000210: 26dc b33c ea8b 2c3d aebb 0b3d f8f0 693d
00000220: 204d 8dbb 3632 ac3c 119d 88bc beb2 313c
00000230: a600 e1ba 2e7b 233c 8db9 913c 2f7e 773c
00000240: ce97 1a3d dd6b 993d 1e04 9e3b 2a0a b5bc
00000250: 1a80 09bc 2103 2f3d e83a 1a3d a892 823d
00000260: 833a 433c b270 f53c 58d3 213c f4b7 373d
00000270: 0cb0 aabb 9c70 8d3c aaae 9d3c 0622 533d
00000280: 30fe 353c 9ad2 81bd 712c 043d d44b a53c
00000290: f9c4 983c 67c4 96bc 3958 5a3c f8f3 af3c
000002a0: ade8 b93c 5fa1 233d fc7d e03c 1140 133d
000002b0: 31f6 0b3d 1190 0f3d 67a6 3d3c 400a 913c
000002c0: adc9 65bc b629 8fbb 8976 65bb f05a 863c
000002d0: 27fc e23c 1234 7bbb 81df a13c af97 623d
000002e0: 57c3 bc3b 8753 25bc ea2f 013d 75f8 db3c
000002f0: 8ff2 8fbc 78c3 a23c 6c6e 893d 778a 3e3c
00000300: ce13 33bd e3fe a8bc cd11 0b3c 3f6d df3c
00000310: ca8d 0e3b c4d1 053d 3213 c43c fa0b b73a
00000320: 8d1c cc3b 774b f73c f518 373c f1c0 0e3d
00000330: faca 903c 21b3 233d ea19 9d3c a487 be3c
00000340: befa 393d 3f5b 51bc 7def 0d3d 98ed 8e3c
00000350: 3740 603c d34c 8d3c 3d22 d63c 8953 d33c
00000360: 3f56 a53c 0709 4e3c f915 ad3c c6c8 5abb
00000370: 3d24 e0bc c049 d53c 7e2e 253d 30dd 63bc
00000380: 04fe 5e3c d32f 00bd 41db 373d d669 c83c
00000390: 8ee9 153d bb4b a1bc 137a e13c c948 033d
000003a0: 4985 d73c e427 ce3c 207f 1dbc 0000 0000
000003b0: 47a5 03bb 1b1d 543d b93e 94bb 1f4f 613c
000003c0: e64f 0e3d f04d c23a 342f cf3b db19 b7bc
000003d0: c7f4 453c 58f9 3e3d 11a7 21bd 11b3 013d
000003e0: 8050 393c a467 df3c a3a5 00bd 81c3 01bd
000003f0: fb00 163d d89c 5b3d eac7 6d3d e6b8 263d

_initializer_StatefulPartitionedCall/sequential/dense/MatMul/ReadVariableOp:0 f4 [8, 256]
0.44973478 0.1750583 0.33951735 0.9376918 0.70250195 -0.54031825 0.6103265 0.05323426
0.05316771 0.17542015 0.11767873 0.48795953 0.37055665 0.05946742 0.13259928 0.06437553
0.3476138 -0.14040835 0.11661436 -0.29390413 -0.60798854 0.4910349 0.32829282 -0.27580562
0.6325891 -0.5388062 0.052226216 -0.084818706 0.89288247 0.61785764 0.057958357 0.23801734
-0.29567456 -0.65521395 -0.2828854 -0.03160189 0.3851788 0.5672237 -0.26335514 -0.19994085
-0.38548982 -0.636248 -0.8531182 0.8217464 -0.1993414 -0.23508176 -0.5480279 0.2589033
-0.44031566 -0.058648467 -0.48336408 0.07155833 -0.24664202 -0.770183 0.025474867 0.19491345
0.07746763 0.17220575 -0.42378032 -0.048021544 -0.3664431 -0.082004145 -0.57293457 -0.8277965
0.11377532 -0.35039866 -0.87232554 0.25336903 -0.322216 0.03517614 0.24788184 0.07574472
0.6005445 -0.5111025 0.15263112 -0.20651147 -0.54246604 -0.21604638 0.016685767 0.21142422
-0.50145406 0.28310642 0.13056858 -0.52048993 0.5117062 0.69473076 0.56354547 -0.06781342
-0.36472827 0.54831463 -0.1456545 0.41917345 0.0685697 0.44060007 0.13874513 0.268832
0.015803378 0.80481684 0.020471131 0.05671911 0.5843637 -0.6495343 -0.5420353 0.5515972
-0.46588662 0.5929684 -0.2522584 -0.4051126 0.9341939 0.5383472 0.89679515 0.4022199
-0.4254224 0.65806264 -0.15315333 0.42743778 0.5226147 -0.049183913 0.18022175 0.48746604
0.23984823 -0.41650048 0.1558246 0.56595457 -0.23227824 -0.06724927 -0.036385637 0.5201747
0.22772707 0.19465274 -0.19884737 0.21016882 -0.21303432 0.083500326 -0.29569647 0.25548428
0.2246606 -0.07169648 0.07079129 -0.2423297 -0.5692908 0.17626655 0.052423414 0.30297458
0.9486399 0.33903953 -0.45189658 0.35195905 -0.46423823 -0.25735348 -0.058910545 0.6233264
-0.31362543 -0.4410854 -0.1400441 -0.20991102 0.26195794 -0.32961845 -0.4751958 -0.12895243
-0.18695974 0.7972386 0.35037795 8.632646e-05 -0.42575642 0.4238474 -0.19906981 -0.44321868
0.5082355 0.12782508 0.41534773 0.17544429 0.36706567 -0.13499032 -0.20880444 0.21861984
-0.5527031 -0.1372449 -0.15607826 0.090322964 -0.08824447 -0.57004386 -0.3965396 -0.89085597
0.26413888 -0.6020394 -0.5076312 0.054292124 -0.3699686 0.6861379 -0.416518 0.20994417
-0.025992388 -0.33358562 0.36686707 -0.09991064 0.27149662 0.47624624 0.64677966 0.43153986
-0.2336432 -0.06476373 0.54371077 0.6360524 0.3225589 -0.7069711 0.043705326 -0.28716052
0.07964881 -0.011603767 0.3817471 0.27879483 0.16001566 -0.33946142 -0.29054546 -0.09047438
0.075799026 0.28742447 0.67693126 -0.051988266 -0.37955093 -0.13705553 -0.13207436 0.19418256
-0.7544845 0.0931079 0.13693647 0.102532975 -0.23290442 -0.11249101 -0.40441886 -0.19394387
-0.31667432 0.18543813 -0.71946865 0.47036934 0.59855294 -0.68011683 0.12364482 0.18426774
-0.26918855 -0.0931348 -0.089676335 -0.08496607 -0.077313565 -0.45048025 0.42082465 0.3993149
-0.25705403 -0.65711117 0.22611369 -0.23771909 0.1486013 -0.24123593 0.5426924 0.22035937
00000000: a343 e63e 7c42 333e 38d5 ad3e 920c 703f
00000010: 2bd7 333f 4c52 0abf 5c3e 1c3f 2b0c 5a3d
00000020: 62c6 593d 57a1 333e 8c01 f13d d5d5 f93e
00000030: 9ab9 bd3e 1c94 733d 1bc8 073e 51d7 833d
00000040: 70fa b13e 35c7 0fbe 82d3 ee3d 9a7a 96be
00000050: 23a5 1bbf ed68 fb3e ff15 a83e 6536 8dbe
00000060: 5cf1 213f 34ef 09bf 28eb 553d 6eb5 adbd
00000070: f293 643f eb2b 1e3f be65 6d3d d1ba 733e
00000080: a862 97be 1abc 27bf 5bd6 90be fc70 01bd
00000090: 2836 c53e 9335 113f 7cd6 86be 4bbd 4cbe
000000a0: ec5e c5be 26e1 22bf f465 5abf f95d 523f
000000b0: 2720 4cbe 46b9 70be 8e4b 0cbf f98e 843e
000000c0: 0e71 e1be 6039 70bd 7f7b f7be 2c8d 923d
000000d0: ba8f 7cbe b72a 45bf abb0 d03c 6497 473e
000000e0: 59a7 9e3d b456 303e bcf9 d8be 3db2 44bd
000000f0: 6e9e bbbe caf1 a7bd d7ab 12bf 79ea 53bf
00000100: 0903 e93d 7467 b3be ba50 5fbf 96b9 813e
00000110: 7ff9 a4be db14 103d bdd4 7d3e 0c20 9b3d
00000120: 49bd 193f 9dd7 02bf 554b 1c3e be77 53be
00000130: 0edf 0abf 433b 5dbe 97b0 883c 977f 583e
00000140: 4b5f 00bf 53f3 903e c5b3 053e d43e 05bf
00000150: 2dff 023f e0d9 313f 8444 103f c3e1 8abd
00000160: aabd babe 595e 0c3f 7426 15be e79d d63e
00000170: 456e 8c3d 5596 e13e 3413 0e3e 59a4 893e
00000180: 1676 813c 7a08 4e3f 13b3 a73c 4c52 683d
00000190: dc98 153f e147 26bf d3c2 0abf 7935 0d3f
000001a0: b188 eebe c7cc 173f 0328 81be eb6a cfbe
000001b0: 5527 6f3f 1fd1 093f 5e94 653f c4ef cd3e
000001c0: f7d0 d9be cb76 283f 3ad4 1cbe 20d9 da3e
000001d0: 14ca 053f 1275 49bd 0d8c 383e 2695 f93e
000001e0: c69a 753e 8d3f d5be 7c90 1f3e 66e2 103f
000001f0: 59da 6dbe fcb9 89bd 1b09 15bd 2b2a 053f
00000200: 4931 693e 0c53 473e a59e 4bbe 7f36 573e
00000210: ab25 5abe 3802 ab3d 8765 97be d6ce 823e
00000220: 6e0d 663e 9bd5 92bd 06fb 903d 4725 78be
00000230: 0bbd 11bf 387f 343e efb9 563d 7c1f 9b3e
00000240: 11da 723f 9796 ad3e fd5e e7be fa33 b43e
00000250: a2b0 edbe d6c3 83be 2f4c 71bd 5292 1f3f
00000260: 8393 a0be f2d5 e1be b867 0fbe eaf2 56be
00000270: 5a1f 863e c0c3 a8be dd4c f3be 1b0c 04be
00000280: 6072 3fbe d417 4c3f bd64 b33e 2a0a b538
00000290: bffc d9be 8702 d93e f5d8 4bbe 8fed e2be
000002a0: b91b 023f 94e4 023e 75a8 d43e aba7 333e
000002b0: 08f0 bb3e e73a 0abe d5d0 55be e1dd 5f3e
000002c0: f37d 0dbf ed89 0cbe fbd2 1fbe 3ffb b83d
000002d0: 84b9 b4bd 65ee 11bf 3d07 cbbe 230f 64bf
000002e0: 363d 873e 411f 1abf 1ef4 01bf 6b61 5e3d
000002f0: 866c bdbe bca6 2f3f d941 d5be 9bfb 563e
00000300: fded d4bc bccb aabe 00d6 bb3e f39d ccbd
00000310: 9b01 8b3e 8cd6 f33e 5a93 253f cbf2 dc3e
00000320: 2a40 6fbe d9a2 84bd a130 0b3f 55d4 223f
00000330: 7126 a53e 0ffc 34bf 5b04 333d b406 93be
00000340: ea1e a33d ba1d 3ebc 5b74 c33e 32be 8e3e
00000350: 25db 233e e3cd adbe 60c2 94be a24a b9bd
00000360: 853c 9b3d 4d29 933e 5e4b 2d3f a6f1 54bd
00000370: 8054 c2be 4958 0cbe 803e 07be cbd7 463e
00000380: e525 41bf 5baf be3d 1339 0c3e cffc d13d
00000390: 7f7e 6ebe b061 e6bd fd0f cfbe 3999 46be
000003a0: 2323 a2be 7ee3 3d3e 192f 38bf 40d4 f03e
000003b0: c43a 193f 231c 2ebf 7f39 fd3d afb0 3c3e
000003c0: 15d3 89be 75bd bebd 3aa8 b7bd b102 aebd
000003d0: 9356 9ebd 59a5 e6be 5476 d73e 0173 cc3e
000003e0: 969c 83be 7038 28bf 598a 673e a26c 73be
000003f0: f02a 183e 8d06 77be e4ed 0a3f e3a5 613e

_initializer_StatefulPartitionedCall/sequential/dense/BiasAdd/ReadVariableOp:0 f4 [256]
0.07779466 0.14392558 0.074387036 0.067023285 0.021397032 0.06719539 0.056861337 0.16865396
0.10965485 0.060223766 0.06902091 0.031200849 -0.06206396 0.0057782414 -0.02190392 -0.046907265
0.0007199596 0.01968682 0.034926914 -0.013580063 0.0002911727 0.057574823 0.18611299 -0.004722742
0.015191131 0.12366788 0.08874407 0.023144603 0.025595268 -0.006125402 -0.029320532 0.0052600955
0.089221306 0.017193142 0.13045366 0.10448752 0.015738983 0.16479495 0.0059749666 -0.008738207
0.051874362 0.02662639 0.048603524 0.0086969035 0.02883732 0.029140549 0.12458475 0.15569042
0.08795497 0.049787726 -0.02309188 0.010352855 0.0207916 0.013706572 0.050061844 0.0535628
0.053147435 0.057867944 -0.057316247 0.021170711 0.07968606 0.06854825 0.18302096 0.107262336
0.046866287 0.028654143 0.09887253 0.010320809 0.054631576 0.13055332 -0.004769908 -0.016761778
0.041469645 0.13969983 -0.011989758 0.023154581 0.21216896 -0.008133329 0.070562154 0.19364367
0.07307181 0.08588642 0.033031527 0.032866083 -0.05076854 0.08957794 0.055918537 0.026045045
0.097885266 0.08160435 0.009336058 0.036387306 0.15379821 0.04319953 0.005251669 0.03482605
-0.044277444 0.06343466 0.12747675 0.0898279 0.08088967 -0.010666043 0.0668359 0.070877
0.106614806 0.08833292 0.0050937273 -0.01101054 -0.0021640381 0.025542676 0.14068694 0.084663995
0.08455364 0.038012788 -0.008440285 0.08686432 0.15631336 0.10589297 -0.012196612 0.17302467
-0.04067197 0.0025616914 0.05190437 0.017794507 0.03813371 0.07170337 0.089319855 0.0076904767
0.038685333 0.041347273 -0.00065904483 0.065452 0.075885884 0.03457929 -0.0636678 0.10629346
0.17506708 -0.0153487325 -0.075720415 0.072185546 0.018179335 -0.007793789 -0.0055674976 0.031192582
-0.0043091215 0.07412856 0.044727013 0.004345431 0.05233279 0.052086733 -0.016273335 0.015131185
0.04594797 0.11418182 0.20784637 0.013611193 -0.008160397 0.0008069836 0.048154898 0.099649854
0.20457251 0.045471735 -0.051288903 0.0020070272 0.073528916 0.0713004 0.044581626 0.068884864
0.060957693 -0.01926712 -0.021466058 0.0656379 0.14174865 0.075757325 0.070044175 0.054602988
0.12135463 0.043160036 0.032321505 0.03528963 0.09891993 0.02737279 -0.008563642 0.09809338
-0.031412628 0.02710066 0.045157786 0.047997415 0.060156222 0.021634933 0.019041408 0.12499388
0.06311303 -0.014537173 0.13287622 -0.016276663 0.013462846 0.0520835 0.00500902 -0.027433798
0.053767134 0.050361402 -0.0077692205 0.016480796 0.13826577 0.14022516 -0.005193789 0.05301677
0.111817606 0.031104302 0.10152592 0.18986546 -0.002653888 0.08677725 0.034681495 0.057174597
-0.016825883 0.14607961 -0.018660834 -0.006592671 -0.00857019 0.06434902 0.014626043 0.13000919
0.017631676 0.18227984 0.20252764 0.059855837 0.0031457054 0.042807452 0.012987555 0.12258379
0.15816076 0.019346643 0.070153035 0.03650194 0.057539698 0.07657938 -0.018449554 0.017011743
0.011131146 0.008357452 0.03050358 -0.022746341 0.17400607 -0.048561413 0.06506161 -0.023655144
0.036269918 0.02379962 0.08389224 0.081390984 0.06954963 0.07890686 0.1748019 0.03704576
00000000: cf52 9f3d 3a61 133e 3b58 983d 8143 893d
00000010: d448 af3c bd9d 893d 6fe7 683d a0b3 2c3e
00000020: b992 e03d 32ad 763d d65a 8d3d ec98 ff3c
00000030: c736 7ebd 6757 bd3b da6f b3bc d521 40bd
00000040: acbb 3c3a 4146 a13c 860f 0f3d ea7e 5ebc
00000050: 8aa8 9839 94d3 6b3d 6794 3e3e 3bc1 9abb
00000060: 39e4 783c 9645 fd3d 73bf b53d c099 bd3c
00000070: 2bad d13c 99b7 c8bb 9d31 f0bc e15c ac3b
00000080: a9b9 b63d a2d8 8c3c a595 053e 8efd d53d
00000090: 0aef 803c 02c0 283e a7c9 c33b b22a 0fbc
000000a0: 367a 543d 961f da3c 7d14 473d 757d 0e3c
000000b0: 3e3c ec3c 29b8 ee3c 4a26 ff3d 4f6d 1f3e
000000c0: bc21 b43d 37ee 4b3d 2f2b bdbc 059f 293c
000000d0: 2553 aa3c 8891 603c a60d 4d3d ab64 5b3d
000000e0: 20b1 593d f006 6d3d 71c4 6abd 336e ad3c
000000f0: 7232 a33d 0663 8c3d d969 3b3e 5bac db3d
00000100: ddf6 3f3d 18bc ea3c ae7d ca3d 9c18 293c
00000110: 5cc5 5f3d c5af 053e e34c 9cbb ff4f 89bc
00000120: 13dc 293d 790d 0f3e b170 44bc adae bd3c
00000130: d242 593e a841 05bc e482 903d 874a 463e
00000140: aca6 953d 38e5 af3d 114c 073d 969e 063d
00000150: acf2 4fbd a474 b73d d60a 653d 6b5c d53c
00000160: 1278 c83d 2e20 a73d 44f6 183c db0a 153d
00000170: 477d 1d3e fef1 303d 3116 ac3b c3a5 0e3d
00000180: 445c 35bd 08ea 813d 4489 023e b1f7 b73d
00000190: 7ca9 a53d a0c0 2ebc 43e1 883d f627 913d
000001a0: dd58 da3d e4e7 b43d 48e9 a63b 8d65 34bc
000001b0: 89d2 0dbb e03e d13c 3d10 103e 5164 ad3d
000001c0: 752a ad3d 4cb3 1b3d 1f49 0abc ece5 b13d
000001d0: 9c10 203e 6ade d83d 4cd4 47bc 612d 313e
000001e0: a797 26bd 0de2 273b ad99 543d c9c5 913c
000001f0: 1832 1c3d 37d9 923d 54ed b63d 6500 fc3b
00000200: 8374 1e3d c25b 293d c0c3 2cba b30b 863d
00000210: 0f6a 9b3d 03a3 0d3d 4364 82bd 63b0 d93d
00000220: c944 333e 4079 7bbc 4e13 9bbd 04d6 933d
00000230: d4ec 943c 0a63 ffbb 8e6f b6bb 9687 ff3c
00000240: 8833 8dbb b7d0 973d ac33 373d 1e64 8e3b
00000250: e85a 563d e658 553d a84f 85bc cae8 773c
00000260: f033 3c3d 28d8 e93d aed5 543e 7b01 5f3c
00000270: 30b3 05bc c18b 533a 123e 453d 3915 cc3d
00000280: 757b 513e 9240 3a3d 5014 52bd 5488 033b
00000290: 5496 963d f205 923d 399b 363d 8213 8d3d
000002a0: c6ae 793d 14d6 9dbc 96d9 afbc 2a6d 863d
000002b0: 8f26 113e a826 9b3d 5273 8f3d 62a7 5f3d
000002c0: c788 f83d 94c8 303d 8e63 043d dc8b 103d
000002d0: 8896 ca3d e73c e03c 854e 0cbc 2fe5 c83d
000002e0: 87aa 00bd 3402 de3c 5ff7 383d f098 443d
000002f0: 5f66 763d be3b b13c bafc 9b3c cbfc ff3d
00000300: 6741 813d 532d 6ebc b410 083e a356 85bc
00000310: 4593 5c3c 8255 553d b522 a43b d8bc e0bc
00000320: ed3a 5c3d c247 4e3d f294 febb bc02 873c
00000330: 8b95 0d3e 2f97 0f3e a930 aabb 1d28 593d
00000340: a100 e53d 73ce fe3c d2ec cf3d 176c 423e
00000350: daec 2dbb 45b8 b13d 2f0e 0e3d e92f 6a3d
00000360: 6fd6 89bc e595 153e 9bde 98bc 5507 d8bb
00000370: fb69 0cbc 6bc9 833d 12a2 6f3c 2121 053e
00000380: 4e70 903c 91a7 3a3e 6863 4f3e 652b 753d
00000390: 2e28 4e3b de56 2f3d c1c9 543c 360d fb3d
000003a0: e5f4 213e da7c 9e3c 65ac 8f3d 0f83 153d
000003b0: bfae 6b3d a6d5 9c3d 8523 97bc 365c 8b3c
000003c0: 695f 363c b2ed 083c a5e2 f93c 8956 babc
000003d0: a62e 323e 55e8 46bd 053f 853d 6fc8 c1bc
000003e0: c48f 143d 6cf7 c23c b2cf ab3d 51b0 a63d
000003f0: 0970 8e3d eb99 a13d 45ff 323e 4bbd 173d

bias f4 [256]
0.07779466 0.14392558 0.074387036 0.067023285 0.021397032 0.06719539 0.056861337 0.16865396
0.10965485 0.060223766 0.06902091 0.031200849 -0.06206396 0.0057782414 -0.02190392 -0.046907265
0.0007199596 0.01968682 0.034926914 -0.013580063 0.0002911727 0.057574823 0.18611299 -0.004722742
0.015191131 0.12366788 0.08874407 0.023144603 0.025595268 -0.006125402 -0.029320532 0.0052600955
0.089221306 0.017193142 0.13045366 0.10448752 0.015738983 0.16479495 0.0059749666 -0.008738207
0.051874362 0.02662639 0.048603524 0.0086969035 0.02883732 0.029140549 0.12458475 0.15569042
0.08795497 0.049787726 -0.02309188 0.010352855 0.0207916 0.013706572 0.050061844 0.0535628
0.053147435 0.057867944 -0.057316247 0.021170711 0.07968606 0.06854825 0.18302096 0.107262336
0.046866287 0.028654143 0.09887253 0.010320809 0.054631576 0.13055332 -0.004769908 -0.016761778
0.041469645 0.13969983 -0.011989758 0.023154581 0.21216896 -0.008133329 0.070562154 0.19364367
0.07307181 0.08588642 0.033031527 0.032866083 -0.05076854 0.08957794 0.055918537 0.026045045
0.097885266 0.08160435 0.009336058 0.036387306 0.15379821 0.04319953 0.005251669 0.03482605
-0.044277444 0.06343466 0.12747675 0.0898279 0.08088967 -0.010666043 0.0668359 0.070877
0.106614806 0.08833292 0.0050937273 -0.01101054 -0.0021640381 0.025542676 0.14068694 0.084663995
0.08455364 0.038012788 -0.008440285 0.08686432 0.15631336 0.10589297 -0.012196612 0.17302467
-0.04067197 0.0025616914 0.05190437 0.017794507 0.03813371 0.07170337 0.089319855 0.0076904767
0.038685333 0.041347273 -0.00065904483 0.065452 0.075885884 0.03457929 -0.0636678 0.10629346
0.17506708 -0.0153487325 -0.075720415 0.072185546 0.018179335 -0.007793789 -0.0055674976 0.031192582
-0.0043091215 0.07412856 0.044727013 0.004345431 0.05233279 0.052086733 -0.016273335 0.015131185
0.04594797 0.11418182 0.20784637 0.013611193 -0.008160397 0.0008069836 0.048154898 0.099649854
0.20457251 0.045471735 -0.051288903 0.0020070272 0.073528916 0.0713004 0.044581626 0.068884864
0.060957693 -0.01926712 -0.021466058 0.0656379 0.14174865 0.075757325 0.070044175 0.054602988
0.12135463 0.043160036 0.032321505 0.03528963 0.09891993 0.02737279 -0.008563642 0.09809338
-0.031412628 0.02710066 0.045157786 0.047997415 0.060156222 0.021634933 0.019041408 0.12499388
0.06311303 -0.014537173 0.13287622 -0.016276663 0.013462846 0.0520835 0.00500902 -0.027433798
0.053767134 0.050361402 -0.0077692205 0.016480796 0.13826577 0.14022516 -0.005193789 0.05301677
0.111817606 0.031104302 0.10152592 0.18986546 -0.002653888 0.08677725 0.034681495 0.057174597
-0.016825883 0.14607961 -0.018660834 -0.006592671 -0.00857019 0.06434902 0.014626043 0.13000919
0.017631676 0.18227984 0.20252764 0.059855837 0.0031457054 0.042807452 0.012987555 0.12258379
0.15816076 0.019346643 0.070153035 0.03650194 0.057539698 0.07657938 -0.018449554 0.017011743
0.011131146 0.008357452 0.03050358 -0.022746341 0.17400607 -0.048561413 0.06506161 -0.023655144
0.036269918 0.02379962 0.08389224 0.081390984 0.06954963 0.07890686 0.1748019 0.03704576
00000000: cf52 9f3d 3a61 133e 3b58 983d 8143 893d
00000010: d448 af3c bd9d 893d 6fe7 683d a0b3 2c3e
00000020: b992 e03d 32ad 763d d65a 8d3d ec98 ff3c
00000030: c736 7ebd 6757 bd3b da6f b3bc d521 40bd
00000040: acbb 3c3a 4146 a13c 860f 0f3d ea7e 5ebc
00000050: 8aa8 9839 94d3 6b3d 6794 3e3e 3bc1 9abb
00000060: 39e4 783c 9645 fd3d 73bf b53d c099 bd3c
00000070: 2bad d13c 99b7 c8bb 9d31 f0bc e15c ac3b
00000080: a9b9 b63d a2d8 8c3c a595 053e 8efd d53d
00000090: 0aef 803c 02c0 283e a7c9 c33b b22a 0fbc
000000a0: 367a 543d 961f da3c 7d14 473d 757d 0e3c
000000b0: 3e3c ec3c 29b8 ee3c 4a26 ff3d 4f6d 1f3e
000000c0: bc21 b43d 37ee 4b3d 2f2b bdbc 059f 293c
000000d0: 2553 aa3c 8891 603c a60d 4d3d ab64 5b3d
000000e0: 20b1 593d f006 6d3d 71c4 6abd 336e ad3c
000000f0: 7232 a33d 0663 8c3d d969 3b3e 5bac db3d
00000100: ddf6 3f3d 18bc ea3c ae7d ca3d 9c18 293c
00000110: 5cc5 5f3d c5af 053e e34c 9cbb ff4f 89bc
00000120: 13dc 293d 790d 0f3e b170 44bc adae bd3c
00000130: d242 593e a841 05bc e482 903d 874a 463e
00000140: aca6 953d 38e5 af3d 114c 073d 969e 063d
00000150: acf2 4fbd a474 b73d d60a 653d 6b5c d53c
00000160: 1278 c83d 2e20 a73d 44f6 183c db0a 153d
00000170: 477d 1d3e fef1 303d 3116 ac3b c3a5 0e3d
00000180: 445c 35bd 08ea 813d 4489 023e b1f7 b73d
00000190: 7ca9 a53d a0c0 2ebc 43e1 883d f627 913d
000001a0: dd58 da3d e4e7 b43d 48e9 a63b 8d65 34bc
000001b0: 89d2 0dbb e03e d13c 3d10 103e 5164 ad3d
000001c0: 752a ad3d 4cb3 1b3d 1f49 0abc ece5 b13d
000001d0: 9c10 203e 6ade d83d 4cd4 47bc 612d 313e
000001e0: a797 26bd 0de2 273b ad99 543d c9c5 913c
000001f0: 1832 1c3d 37d9 923d 54ed b63d 6500 fc3b
00000200: 8374 1e3d c25b 293d c0c3 2cba b30b 863d
00000210: 0f6a 9b3d 03a3 0d3d 4364 82bd 63b0 d93d
00000220: c944 333e 4079 7bbc 4e13 9bbd 04d6 933d
00000230: d4ec 943c 0a63 ffbb 8e6f b6bb 9687 ff3c
00000240: 8833 8dbb b7d0 973d ac33 373d 1e64 8e3b
00000250: e85a 563d e658 553d a84f 85bc cae8 773c
00000260: f033 3c3d 28d8 e93d aed5 543e 7b01 5f3c
00000270: 30b3 05bc c18b 533a 123e 453d 3915 cc3d
00000280: 757b 513e 9240 3a3d 5014 52bd 5488 033b
00000290: 5496 963d f205 923d 399b 363d 8213 8d3d
000002a0: c6ae 793d 14d6 9dbc 96d9 afbc 2a6d 863d
000002b0: 8f26 113e a826 9b3d 5273 8f3d 62a7 5f3d
000002c0: c788 f83d 94c8 303d 8e63 043d dc8b 103d
000002d0: 8896 ca3d e73c e03c 854e 0cbc 2fe5 c83d
000002e0: 87aa 00bd 3402 de3c 5ff7 383d f098 443d
000002f0: 5f66 763d be3b b13c bafc 9b3c cbfc ff3d
00000300: 6741 813d 532d 6ebc b410 083e a356 85bc
00000310: 4593 5c3c 8255 553d b522 a43b d8bc e0bc
00000320: ed3a 5c3d c247 4e3d f294 febb bc02 873c
00000330: 8b95 0d3e 2f97 0f3e a930 aabb 1d28 593d
00000340: a100 e53d 73ce fe3c d2ec cf3d 176c 423e
00000350: daec 2dbb 45b8 b13d 2f0e 0e3d e92f 6a3d
00000360: 6fd6 89bc e595 153e 9bde 98bc 5507 d8bb
00000370: fb69 0cbc 6bc9 833d 12a2 6f3c 2121 053e
00000380: 4e70 903c 91a7 3a3e 6863 4f3e 652b 753d
00000390: 2e28 4e3b de56 2f3d c1c9 543c 360d fb3d
000003a0: e5f4 213e da7c 9e3c 65ac 8f3d 0f83 153d
000003b0: bfae 6b3d a6d5 9c3d 8523 97bc 365c 8b3c
000003c0: 695f 363c b2ed 083c a5e2 f93c 8956 babc
000003d0: a62e 323e 55e8 46bd 053f 853d 6fc8 c1bc
000003e0: c48f 143d 6cf7 c23c b2cf ab3d 51b0 a63d
000003f0: 0970 8e3d eb99 a13d 45ff 323e 4bbd 173d

bias f4 [256]
0.0014999146 0.012367359 -0.003059142 0.015354204 0.002439164 0.013221882 0.022622583 -0.0025022975
0.0 0.027236516 0.059127677 0.008999303 0.015007597 0.012652755 0.027887987 0.02318982
0.028901264 -0.002084244 -0.05288567 0.023897557 0.03722239 -0.03415568 -0.00349843 0.047154628
-0.015014206 0.027622918 -0.010817082 0.046267454 -0.052187257 0.030612074 0.011348991 -0.02254965
-0.0064561 -0.017343327 0.0014716396 0.0189666 0.017677316 0.010012058 0.060864948 0.0375339
0.0047951774 -0.0057874075 0.01743298 0.039466884 0.050246365 0.031368967 0.03141099 0.058709018
0.026300838 0.022020496 0.026670715 -0.0016760105 0.02231995 -0.0033300563 0.04296223 0.016042542
0.003770635 0.019689709 -0.0037345355 0.037927367 0.004925062 0.015243892 0.011975573 0.020091373
-0.011909834 0.020718126 0.054303322 0.02899181 0.01110219 0.04385573 0.0013185221 0.022639185
0.018280875 0.0138522405 0.014908383 0.029743928 -0.020838007 0.0019845453 0.023218129 -0.021274151
0.003576675 0.004113936 0.0 0.01622816 0.024990015 0.022277843 0.02472127 -0.012888192
-0.011703176 0.010408982 0.061200447 0.035970587 0.010213464 0.027796265 0.014101671 0.01792649
-0.008436403 0.031412765 -0.012535209 -0.007334607 -0.0034764793 -0.016793635 0.05764327 0.007353823
-0.027217064 0.022580473 0.043913405 0.055602517 0.041230045 -0.014675154 -0.005715751 0.041608315
0.009054221 -0.006330768 0.028699657 0.067392685 0.044125363 0.040425647 0.049883164 -0.039522402
0.030571043 0.01804837 0.034219813 -1.1056025e-05 -0.024908343 -0.029187115 0.01506537 0.0014385479
-0.037949163 0.03140743 0.01524216 -0.0068684686 0.02195556 0.04212562 0.034114532 0.05711457
-0.0043121725 0.021020036 -0.016676458 0.010845838 -0.0017166331 0.009978099 0.017788673 0.015105768
0.03774243 0.074912764 0.004822268 -0.022099573 -0.008392358 0.042727593 0.037653834 0.06375629
0.011915806 0.029960964 0.009877048 0.044853166 -0.0052089747 0.01726561 0.019248325 0.05154612
0.011107966 -0.06338997 0.032268945 0.02017776 0.018648611 -0.018404199 0.013326698 0.021478638
0.022693956 0.039948817 0.027403824 0.03594977 0.034170333 0.0350495 0.011575318 0.017705083
-0.014025134 -0.004368986 -0.003501328 0.016400784 0.027708126 -0.0038330597 0.019759895 0.055320438
0.005760591 -0.010090715 0.031539835 0.026851872 -0.017571716 0.019868597 0.067105144 0.011629692
-0.04372006 -0.020629352 0.008488131 0.027273772 0.0021751993 0.03267075 0.023934934 0.0013965361
0.0062289895 0.030187352 0.011175384 0.034851972 0.017674912 0.039965753 0.019177396 0.023258038
0.045405142 -0.012778102 0.034652222 0.017447278 0.013687185 0.017248547 0.026139373 0.025796669
0.020182727 0.0125753945 0.021128641 -0.003338383 -0.02736103 0.026036143 0.04032754 -0.013907716
0.013610367 -0.03129561 0.04488683 0.024464529 0.03659969 -0.019689431 0.02752403 0.032051835
0.026308673 0.025165506 -0.0096128285 0.0 -0.0020087527 0.05178557 -0.0045240787 0.013751774
0.034744166 0.0014824253 0.0063227657 -0.022351196 0.012082285 0.04662451 -0.039465968 0.03166491
0.011310697 0.0272711 -0.031407963 -0.031680588 0.03662203 0.053616375 0.05805198 0.040703677
00000000: c898 c43a 77a0 4a3c e37b 48bb 3390 7b3c
00000010: 62da 1f3b 98a0 583c ff52 b93c 96fd 23bb
00000020: 0000 0000 1d1f df3c dd2f 723d d071 133c
00000030: 6de2 753c 804d 4f3c 5975 e43c 94f8 bd3c
00000040: 58c2 ec3c d097 08bb a59e 58bd cfc4 c33c
00000050: 8176 183d d4e6 0bbd ea45 65bb 3625 413d
00000060: 25fe 75bc 7549 e23c 213a 31bc f182 3d3d
00000070: 4ec2 55bd 2cc6 fa3c 1ef1 393c 0bba b8bc
00000080: b18d d3bb 9813 8ebc 08e4 c03a d85f 9b3c
00000090: 05d0 903c 9d09 243c 864d 793d 26bd 193d
000000a0: dd20 9d3b 4ba4 bdbb 9ccf 8e3c 07a8 213d
000000b0: 22cf 4d3d bf7c 003d cfa8 003d de78 703d
000000c0: db74 d73c 5464 b43c 8b7c da3c 95ad dbba
000000d0: 54d8 b63c 133d 5abb 2af9 2f3d a66b 833c
000000e0: c21c 773b 504c a13c 1cbf 74bb ba59 1b3d
000000f0: 6a62 a13b 84c1 793c 3235 443c aa96 a43c
00000100: 7721 43bc 0fb9 a93c 296d 5e3d 3b80 ed3c
00000110: f6e5 353c 11a2 333d 43d2 ac3a d075 b93c
00000120: c6c1 953c 82f4 623c 4a42 743c 8aa9 f33c
00000130: 78b4 aabc 250f 023b f233 be3c 2147 aebc
00000140: a666 6a3b 32ce 863b 0000 0000 ebf0 843c
00000150: dcb7 cc3c 0680 b63c 4384 ca3c ff28 53bc
00000160: aebe 3fbc 6f8a 2a3c 52ad 7a3d e555 133d
00000170: 5f56 273c feb4 e33c b20a 673c 93da 923c
00000180: d738 0abc acaa 003d 7a60 4dbc 2557 f0bb
00000190: a5d5 63bb ce92 89bc 591b 6c3d 57f8 f03b
000001a0: 52f6 debc affa b83c 8bde 333d 77bf 633d
000001b0: d6e0 283d 0f70 70bc 324b bbbb 7b6d 2a3d
000001c0: 2858 143c 5572 cfbb 8b1b eb3c 2d05 8a3d
000001d0: ccbc 343d 5d95 253d 4a52 4c3d 3ee2 21bd
000001e0: 2070 fa3c 2dda 933c 132a 0c3d 447d 39b7
000001f0: 950c ccbc d119 efbc bed4 763c a88d bc3a
00000200: 9570 1bbd 14a5 003d 41ba 793c e410 e1bb
00000210: 26dc b33c ea8b 2c3d aebb 0b3d f8f0 693d
00000220: 204d 8dbb 3632 ac3c 119d 88bc beb2 313c
00000230: a600 e1ba 2e7b 233c 8db9 913c 2f7e 773c
00000240: ce97 1a3d dd6b 993d 1e04 9e3b 2a0a b5bc
00000250: 1a80 09bc 2103 2f3d e83a 1a3d a892 823d
00000260: 833a 433c b270 f53c 58d3 213c f4b7 373d
00000270: 0cb0 aabb 9c70 8d3c aaae 9d3c 0622 533d
00000280: 30fe 353c 9ad2 81bd 712c 043d d44b a53c
00000290: f9c4 983c 67c4 96bc 3958 5a3c f8f3 af3c
000002a0: ade8 b93c 5fa1 233d fc7d e03c 1140 133d
000002b0: 31f6 0b3d 1190 0f3d 67a6 3d3c 400a 913c
000002c0: adc9 65bc b629 8fbb 8976 65bb f05a 863c
000002d0: 27fc e23c 1234 7bbb 81df a13c af97 623d
000002e0: 57c3 bc3b 8753 25bc ea2f 013d 75f8 db3c
000002f0: 8ff2 8fbc 78c3 a23c 6c6e 893d 778a 3e3c
00000300: ce13 33bd e3fe a8bc cd11 0b3c 3f6d df3c
00000310: ca8d 0e3b c4d1 053d 3213 c43c fa0b b73a
00000320: 8d1c cc3b 774b f73c f518 373c f1c0 0e3d
00000330: faca 903c 21b3 233d ea19 9d3c a487 be3c
00000340: befa 393d 3f5b 51bc 7def 0d3d 98ed 8e3c
00000350: 3740 603c d34c 8d3c 3d22 d63c 8953 d33c
00000360: 3f56 a53c 0709 4e3c f915 ad3c c6c8 5abb
00000370: 3d24 e0bc c049 d53c 7e2e 253d 30dd 63bc
00000380: 04fe 5e3c d32f 00bd 41db 373d d669 c83c
00000390: 8ee9 153d bb4b a1bc 137a e13c c948 033d
000003a0: 4985 d73c e427 ce3c 207f 1dbc 0000 0000
000003b0: 47a5 03bb 1b1d 543d b93e 94bb 1f4f 613c
000003c0: e64f 0e3d f04d c23a 342f cf3b db19 b7bc
000003d0: c7f4 453c 58f9 3e3d 11a7 21bd 11b3 013d
000003e0: 8050 393c a467 df3c a3a5 00bd 81c3 01bd
000003f0: fb00 163d d89c 5b3d eac7 6d3d e6b8 263d

bias f4 [8]
0.0018905769 0.0045977007 0.0064817597 -0.014465754 -0.012598847 -0.013761932 0.0065799025 0.01803072
00000000: 3ccd f73a 4fa8 963b f164 d43b c501 6dbc
00000010: 656b 4ebc ba79 61bc 399c d73b 29b5 933c
