model_dir/model_auto_park_auto_park_model.pt (torch, 3295 bytes, 4 tensors)

model.0.weight f4 [64, 2]
0	0xbf6d24c4	-0.92634225
1	0xbfac93ec	-1.3482642
2	0xbe4563b4	-0.19276315
3	0xbf348752	-0.7051898
4	0x3ed98d66	0.4249069
5	0x3e6cc56a	0.23122182
6	0x3fb6345a	1.4234726
7	0x3f00f825	0.5037864
8	0x3f28515a	0.6574913
9	0x3f4f4782	0.8096849
10	0xbdb2eead	-0.0873693
11	0xbfac918b	-1.3481916
12	0xbdb45bff	-0.08806609
13	0xbeeb155f	-0.45914742
14	0x3ec81941	0.39081767
15	0x3f013141	0.5046578
16	0x3e689538	0.22713172
17	0x3ec8ea35	0.39241186
18	0xbe268025	-0.16259821
19	0x3ea1f55d	0.3163251
20	0x3e98d9a1	0.29853538
21	0x3f3beea7	0.7341103
22	0xbd196e02	-0.037458427
23	0xbf97dcb9	-1.1864234
24	0x3e715855	0.23568852
25	0xbeafc25c	-0.34327972
26	0xbf91da5d	-1.1394764
27	0x3f9784d5	1.1837412
28	0x3f7bbe42	0.98337185
29	0x3f0866a3	0.5328161
30	0x3f0f555b	0.5598962
31	0xbf3831fc	-0.7195127
32	0xbece434c	-0.40285718
33	0xbebce3f9	-0.3689268
34	0xbf351827	-0.7073998
35	0x3f33ea0b	0.70278996
36	0x3f676c8f	0.9040002
37	0x3e478a04	0.19486243
38	0xbf298c65	-0.6622985
39	0x3f8a5717	1.0807828
40	0xbe1ffebd	-0.15624519
41	0x3efd926a	0.49525768
42	0xbd3c88fd	-0.04602908
43	0x3cb3e473	0.021959519
44	0xbf8619e3	-1.047665
45	0xbe8e23ad	-0.27761593
46	0xbf90c6cf	-1.1310672
47	0x3e10a675	0.14125998
48	0xbf9fa702	-1.2472842
49	0x3df5cd16	0.12002008
50	0x3f2b924e	0.6702012
51	0xbf09e733	-0.53868407
52	0x3e361f51	0.17785384
53	0x3f182472	0.5943061
54	0xbf99905f	-1.1997184
55	0x3f372469	0.7153993
56	0xbf99233d	-1.1963879
57	0xbeb3ea2e	-0.35139602
58	0xbe338ef4	-0.17535001
59	0xbe028563	-0.12746195
60	0xbf22b8c1	-0.6356316
61	0x3ecee6e5	0.40410534
62	0xbda46587	-0.08027177
63	0x3f903324	1.1265607
64	0xbe6c550d	-0.2307932
65	0x3ee5d639	0.4489
66	0xbe6a48d2	-0.22879341
67	0xbfa0124f	-1.2505587
68	0x3f5ab964	0.85439134
69	0xbeb1f9e0	-0.34760952
70	0x3f322b82	0.6959764
71	0xbf044150	-0.5166216
72	0x3f096e94	0.53684354
73	0xbf3280c7	-0.6972775
74	0xbee86ed9	-0.4539707
75	0x3f11dd08	0.5697789
76	0xbe75822d	-0.2397544
77	0xbf0bb935	-0.5457948
78	0x3d4d9cc3	0.050198328
79	0xbe582578	-0.21108043
80	0xbf1d9839	-0.615604
81	0x3ee7ecc3	0.45297822
82	0xbee5f15b	-0.44910702
83	0x3f331571	0.6995459
84	0x3d88851b	0.06666013
85	0x3df27515	0.11838738
86	0xbf0a8205	-0.54104644
87	0x3fb43d17	1.4081143
88	0x3e9f210b	0.31079897
89	0xbf313938	-0.69227934
90	0x3de14703	0.109998725
91	0x3edd1781	0.43181995
92	0x3edf07a5	0.4356052
93	0x3f8f6b6f	1.1204661
94	0x3f8b0c23	1.0863079
95	0x3e8460dc	0.25855148
96	0xbf38acc0	-0.72138596
97	0xbf0fd93d	-0.56190854
98	0x3f109021	0.56469923
99	0x3f823281	1.0171663
100	0x3f298d1c	0.6623094
101	0xbd8b6ea8	-0.068082154
102	0x3f5ce17c	0.8628156
103	0xbfabcc1a	-1.3421662
104	0xbef38546	-0.47562617
105	0xbdefbeca	-0.11706312
106	0x3f8c9f1a	1.0986054
107	0x3f0dcee2	0.55393803
108	0x3d2ee2a4	0.04269661
109	0x3d59d41f	0.05318081
110	0xbdfa0a7d	-0.12209032
111	0xbdfef31b	-0.124487124
112	0xbf40dfc7	-0.7534146
113	0xbe853017	-0.26013252
114	0xbe412833	-0.18862991
115	0xbf1cdd92	-0.6127559
116	0x3f9b2d13	1.212313
117	0xbe80ffb5	-0.2519509
118	0x3ec6d7ba	0.3883646
119	0x3f86d06b	1.0532354
120	0xbf64902c	-0.8928249
121	0xbe9daeb1	-0.3079734
122	0xbed70dbe	-0.42002672
123	0xbf72aefd	-0.9479826
124	0xbf74681d	-0.95471364
125	0xbd52f15e	-0.051499717
126	0xbe99baa5	-0.3002521
127	0xbe06101d	-0.13092084

model.0.bias f4 [64]
0	0x3f23981f	0.63903993
1	0x3e8a1b5a	0.26973993
2	0xbf0e2c09	-0.5553594
3	0x3f185976	0.59511507
4	0x3edd0dde	0.43174642
5	0x3eef1631	0.46696618
6	0xbed82e11	-0.42222646
7	0xbe9767ec	-0.29571474
8	0xbf11edb7	-0.5700335
9	0xbe50472d	-0.20339651
10	0xbe0897fb	-0.13339226
11	0x3f082d18	0.5319381
12	0x3e5013cf	0.20320056
13	0x3f209b80	0.62737274
14	0x3eec6405	0.4617006
15	0x3d2507bf	0.04029059
16	0xbf023475	-0.50861293
17	0xbeeb250a	-0.45926696
18	0x3f146814	0.5797131
19	0x3eedead8	0.46468234
20	0xbea60e9e	-0.32433027
21	0xbf168783	-0.58800524
22	0x3eac243c	0.33621395
23	0x3eb5fe0b	0.35545382
24	0x3eba87cf	0.3643174
25	0xbf121d15	-0.57075626
26	0xbe618dfe	-0.22026822
27	0x3f1260a7	0.5717873
28	0x3ed1d38f	0.4098172
29	0xbdfc82a8	-0.12329608
30	0xbeca0a0c	-0.3946079
31	0x3eaa1e9f	0.33226487
32	0xbef322cc	-0.47487485
33	0x3ec58240	0.38575935
34	0x3e940c36	0.28915566
35	0x3d475256	0.048662506
36	0x3f0d17fb	0.55114716
37	0xbebadb7b	-0.36495575
38	0x3e115c53	0.14195375
39	0xbe911068	-0.2833283
40	0xbe8c9a8a	-0.27461654
41	0xbed254d6	-0.4108035
42	0xbef9a3fd	-0.48757926
43	0x3f08f407	0.53497356
44	0x3d2ee4b5	0.04269858
45	0x3ed6f198	0.41981196
46	0x3eaae423	0.3337718
47	0x3ed86bf9	0.42269877
48	0x3ee683d6	0.45022458
49	0x3ed44c92	0.4146467
50	0xbe4a2fc9	-0.19744791
51	0x3f298ac0	0.6622734
52	0xbefe69d6	-0.4969012
53	0x3f00dc3f	0.5033607
54	0xbda8fce1	-0.08251358
55	0xbe1ff16a	-0.15619436
56	0x3e842b50	0.25814295
57	0x3e7f5d43	0.2493792
58	0x3f14ac16	0.5807508
59	0x3ec497da	0.38397104
60	0x3e8128ec	0.25226533
61	0x3ee1b9f6	0.4408719
62	0x3f1cedb4	0.61300206
63	0xbeee5041	-0.46545604

model.2.weight f4 [4, 64]
0	0x3f87a908	1.0598459
1	0x3eaa9a18	0.3332069
2	0xbcf492e8	-0.029855207
3	0xbf4b8005	-0.7949222
4	0xbf346066	-0.7045959
5	0x3f0870d3	0.53297156
6	0xbc743f00	-0.0149075985
7	0xbd3c21fe	-0.045930855
8	0xba13aa00	-0.0005632937
9	0xbd8438c0	-0.06456137
10	0xbcb977a8	-0.022640064
11	0x3eee9a65	0.4660217
12	0x3c5470c0	0.012966335
13	0xbc75c2bf	-0.015000044
14	0xbf30ed9a	-0.6911255
15	0xbdbfab7e	-0.093588814
16	0xbd2b55d8	-0.041829914
17	0xbd98433c	-0.07434699
18	0xbefe6002	-0.49682623
19	0xbea2430b	-0.31691775
20	0xbc55ab20	-0.013041288
21	0xbcfd0580	-0.030886412
22	0x3effac1d	0.49936
23	0x3ea5d85a	0.32391626
24	0x3ef07aee	0.46968788
25	0xbdcfb4b5	-0.10141889
26	0xbcf408ab	-0.02978929
27	0x3e3e7511	0.18599345
28	0x3f2745a0	0.65340614
29	0x3bb9c825	0.005669611
30	0x3dee5894	0.11637989
31	0xbec947bf	-0.3931255
32	0xbdfc6658	-0.12324208
33	0x3f163079	0.58667713
34	0xbe29dcd2	-0.16588143
35	0xbeb0275f	-0.34405038
36	0x3d126565	0.03574123
37	0xbcf6fc6d	-0.030149663
38	0x3ea4c103	0.32178506
39	0x3cc8d030	0.024513334
40	0xbdedff6d	-0.11620984
41	0xbe020359	-0.1269659
42	0x3d791ffc	0.06082152
43	0xbec6031e	-0.38674253
44	0xbd913f95	-0.070922054
45	0xbe842657	-0.258105
46	0xbef90095	-0.48633257
47	0xbf195a4d	-0.59903413
48	0x3f0063b4	0.50152135
49	0xbf1680ac	-0.5879009
50	0x3d1373b5	0.03599902
51	0x3e87ad32	0.26499325
52	0xbc901428	-0.017587736
53	0xbf270470	-0.65241146
54	0x3cdda318	0.027055308
55	0x3db971ac	0.09054884
56	0x3ee1d7de	0.44110006
57	0x3ea349ab	0.31892142
58	0xbeac16b3	-0.33611068
59	0xbf2b57d7	-0.6693091
60	0x3f172f6d	0.5905674
61	0x3f0c9e6a	0.5492922
62	0x3ea1c2f0	0.31594038
63	0x3d606ed8	0.05479321
64	0x3e7af4ee	0.24507496
65	0x3e8a967c	0.27067935
66	0xbdef4e58	-0.11684865
67	0x3f0300f8	0.51173353
68	0xbe0fdcd8	-0.14049089
69	0x3efae8e5	0.4900581
70	0xbd6dbf80	-0.058043957
71	0x3cf42adb	0.029805591
72	0x3d81d780	0.063399315
73	0xbdb71b86	-0.089407966
74	0xbd33d45a	-0.043903686
75	0x3f1f5e4c	0.6225326
76	0x3e880f6a	0.2657426
77	0xbf7e0bd3	-0.9923679
78	0x3e706d65	0.2347923
79	0x3ebffc83	0.3749734
80	0xbd93d2ea	-0.07217963
81	0xbdf8bfc1	-0.12145949
82	0x3e9eed02	0.31040198
83	0xbf3829be	-0.71938694
84	0x3d82b6f4	0.06382552
85	0x3c3fd630	0.011708781
86	0xbec2190f	-0.37909743
87	0xbf249257	-0.64285797
88	0xbf383cf6	-0.7196802
89	0xbc119564	-0.008885715
90	0xbcc03df3	-0.02346704
91	0xbf61f009	-0.8825689
92	0xbea2191a	-0.31659776
93	0xbdaa2ae7	-0.08308964
94	0xbdeb2432	-0.11481513
95	0xbed43aca	-0.41451102
96	0xbc9e5b90	-0.01933077
97	0x3f048c41	0.5177651
98	0x3f073249	0.52811104
99	0x3f019a72	0.5062629
100	0x3f03deb0	0.5151167
101	0x3da98d6e	0.08278929
102	0xbd0e1c23	-0.034694802
103	0x3d140660	0.036138892
104	0x3db81e1b	0.08990117
105	0xba8a56e1	-0.0010554456
106	0x3c9f9b48	0.019483224
107	0xbf4a95c1	-0.79134756
108	0x3ea3c343	0.3198491
109	0xbe15048d	-0.14552517
110	0xbef10f07	-0.47081777
111	0x3ed990ca	0.42493278
112	0x3c95adc0	0.018271327
113	0xbe584744	-0.21120936
114	0x3cfb9c01	0.030714037
115	0x3f86b46a	1.0523808
116	0x3dcbeff0	0.09957874
117	0x3ea25142	0.3170262
118	0x3df83eb0	0.12121332
119	0xbdba151a	-0.09086056
120	0xbe58027d	-0.21094699
121	0x3e8cd830	0.27508688
122	0x3f4da06e	0.8032292
123	0xbec3712c	-0.3817228
124	0xbec6e5da	-0.38847238
125	0x3e913e44	0.28367817
126	0xbed64e7c	-0.41856754
127	0x3d586690	0.052832186
128	0xbe8cc786	-0.27495974
129	0xbe78f192	-0.24310902
130	0x3deb134e	0.114782915
131	0xbedbf91e	-0.429635
132	0x3cfccac4	0.030858405
133	0xbf31c6ff	-0.6944427
134	0xbcdf8048	-0.027282849
135	0xbdb7bc0b	-0.08971413
136	0x3d98c7fc	0.07460019
137	0xbda65dee	-0.081233844
138	0xbdf705dd	-0.12061665
139	0xbedc601a	-0.4304207
140	0xbeac4063	-0.33642873
141	0x3f91f5a9	1.1403095
142	0xbe8603d2	-0.2617479
143	0xbda465e4	-0.080272466
144	0xbbe17e00	-0.0068814754
145	0xbc6c7c7d	-0.014433977
146	0xbea1d299	-0.31605986
147	0x3f65ad08	0.8971715
148	0x3df8a780	0.12141323
149	0x3cddb250	0.027062565
150	0x3e9d79f4	0.30757105
151	0x3f0eaf4f	0.5573625
152	0x3f095ae9	0.5365434
153	0x3aef7a1d	0.0018270646
154	0xbd496d8d	-0.04917674
155	0x3f61eb61	0.88249785
156	0x3ee95ab1	0.45577005
157	0xbdde788b	-0.108628355
158	0xbd5eb8d9	-0.054375503
159	0x3f2cf237	0.6755709
160	0x3ca27778	0.019832358
161	0xbeef2965	-0.4671127
162	0xbec8aced	-0.39194432
163	0xbdaededb	-0.085386
164	0xbf1b8630	-0.6075163
165	0xbd4058e5	-0.046959776
166	0xbe893f55	-0.2680613
167	0x3d1e17a0	0.03859675
168	0xbd17f7ae	-0.03710144
169	0x3d58a811	0.052894656
170	0xbc8449c0	-0.016148448
171	0x3f73ccbe	0.95234287
172	0xbdd14386	-0.10217957
173	0x3e35516f	0.17706846
174	0x3e1a236c	0.15052575
175	0xbea893f0	-0.32925367
176	0x3e1c4d73	0.1526392
177	0x3e2f93dc	0.17146248
178	0x3ce919da	0.02845471
179	0xbf8e4d5f	-1.1117362
180	0xbd0be40c	-0.03415303
181	0xbe7992b9	-0.24372377
182	0xbb11df40	-0.0022258312
183	0xbde64bd4	-0.11244932
184	0x3e82f4c0	0.25577354
185	0xbe415420	-0.18879747
186	0xbf0ac327	-0.5420403
187	0x3e55a9ef	0.20865606
188	0x3e3d23d1	0.18470694
189	0xbe32ff09	-0.174801
190	0x3eb25365	0.3482925
191	0x3cd9ebf8	0.026601776
192	0xbf5d9815	-0.86560184
193	0xbe8aaffc	-0.2708739
194	0x3d46c410	0.048526824
195	0x3f5ac5f7	0.8545832
196	0x3f2b6224	0.66946626
197	0xbf234fb0	-0.6379347
198	0x3d7f72c0	0.062365294
199	0xbca07d49	-0.01959099
200	0xbdc21366	-0.09476356
201	0xbdf6c2b4	-0.120488554
202	0x3e3820be	0.1798124
203	0xbecdde34	-0.4020859
204	0xbd3a5b12	-0.045497008
205	0xbd02bf46	-0.031920694
206	0x3f260158	0.648458
207	0xbe84bedf	-0.25926873
208	0xbd3c73d0	-0.046008885
209	0x3ce96818	0.028492019
210	0x3eecb03f	0.46228215
211	0x3d94b3c5	0.07260851
212	0x37edc000	2.8342009e-05
213	0x3d272844	0.040809885
214	0xbf0031a3	-0.5007574
215	0xbeffdca1	-0.49973014
216	0xbefeb86c	-0.49750078
217	0xbcf393ae	-0.029733505
218	0x3d882ea3	0.0664952
219	0xbe3ab4c9	-0.18233027
220	0xbf1bd856	-0.6087698
221	0xbdd0c7c4	-0.10194352
222	0xbd8f63f1	-0.07001484
223	0x3ef4f600	0.47843933
224	0xbddb648e	-0.10712539
225	0xbf0d2ac1	-0.5514336
226	0x3e6f615f	0.23376988
227	0xbe438546	-0.19093809
228	0xbc9b4e45	-0.01895822
229	0x3de63d5c	0.11242172
230	0xbe7e4cba	-0.24833956
231	0x3cafacb0	0.021444649
232	0xbcc8a17d	-0.024491066
233	0x3df466e5	0.11933688
234	0x3dba4924	0.09095982
235	0x3edbc695	0.42924944
236	0xbdf2b1b7	-0.11850303
237	0x3e7978ca	0.24362484
238	0x3f2ac324	0.6670401
239	0x3f01f281	0.50760657
240	0xbf172e16	-0.59054697
241	0x3f3984db	0.72468346
242	0xbde97dba	-0.114009336
243	0xbdb53d5f	-0.08849596
244	0x3d8aa780	0.06770229
245	0x3f425a81	0.7591935
246	0xbd7beccc	-0.061505124
247	0x3c819088	0.015815988
248	0xbec0f991	-0.37690404
249	0xbebc2c4e	-0.36752552
250	0x3edcda5a	0.4313534
251	0x3f28531f	0.6575183
252	0xbeb79865	-0.35858455
253	0xbef0540f	-0.46939132
254	0xbeea3fdf	-0.45751855
255	0x3df286e2	0.11842133

model.2.bias f4 [4]
0	0x3cc1ab78	0.023641333
1	0xbcda9397	-0.026681704
2	0x3d996247	0.07489448
3	0xbd24949b	-0.040180784
