model_dir/model_auto_park_auto_park_model_32.pt (torch, 2399 bytes, 4 tensors)

model.0.weight f4 [32, 2]
000000 c3 5b c4 bd a5 04 a0 3f 38 c2 ab 3e 4d f6 0d bf
       -0.09587815 1.2501417 0.33546615 -0.5545395
000010 81 77 6f 3d c0 27 9e 3e 16 b0 ef be 55 52 35 be
       0.058463577 0.30889702 -0.4681403 -0.17707188
000020 49 29 3e 3f 7b cd b8 3f ba 4f 7d 3f a6 b3 24 3d
       0.74281746 1.4437708 0.9894978 0.04021039
000030 28 36 13 bf 5a a2 7f 3e 67 cb c0 3e da 37 97 3e
       -0.5750451 0.24964276 0.37655184 0.295348
000040 86 1d ed be be ee 4d 3e 04 7a 3e be 8d a6 ff 3f
       -0.46311587 0.20110604 -0.18601233 1.9972702
000050 0d 21 bf bd c5 ea 32 3e 5f 5c cf bf a4 c3 82 bf
       -0.09332476 0.1747237 -1.6200064 -1.0215955
000060 0e 3c 62 bf e1 a8 77 bf 6c 4b 2e 3f d9 77 75 be
       -0.88372886 -0.96742064 0.68083835 -0.239715
000070 6f 5a 4b bf 94 23 c2 3f a2 58 5f 3f 08 2c 93 bf
       -0.79434866 1.5167108 0.8724462 -1.1497812
000080 84 ae 7d 3f a9 82 6e 3f dd 99 5d be f9 31 e5 3e
       0.99094415 0.9316812 -0.21640725 0.4476469
000090 2a 3e d8 be b2 b6 18 3e 2f 8d a9 3f c6 cd 66 bf
       -0.42234927 0.14913443 1.3246211 -0.90157735
0000a0 d0 80 c4 bf 2a 69 91 bf df d5 e5 3f 87 e3 a1 bf
       -1.535181 -1.1360219 1.7955893 -1.2647561
0000b0 07 64 34 be 29 21 55 bf 29 a5 d9 bf 9a c7 91 3c
       -0.17616282 -0.83253723 -1.7003528 0.017795373
0000c0 84 bf 6e bf 16 5d 9c bf f5 d0 ad bd 2b 9f af 3e
       -0.9326098 -1.2215908 -0.08487121 0.34301123
0000d0 bd 23 c5 be 62 78 d7 be e5 62 a5 3f 05 6a 76 bf
       -0.3850383 -0.42084032 1.2920805 -0.9625552
0000e0 13 4d b5 3e 73 20 09 be 34 b9 08 be fd d6 2f be
       0.35410365 -0.13391285 -0.133519 -0.17171855
0000f0 b1 25 60 be 9d 11 11 3f eb b9 8c be c4 51 25 3f
       -0.21889378 0.566675 -0.27485594 0.6457789

model.0.bias f4 [32]
000000 09 b4 01 3f 0e af e9 be 75 3b 58 be 8b 29 26 bf
       0.50665337 -0.4564137 -0.21116431 -0.6490714
000010 35 9d 34 3f 2d ba 96 3e 34 b0 81 3e ee ae 19 bf
       0.7055238 0.29438916 0.25329745 -0.60032547
000020 f4 b1 b8 be 1d da 4a 3f 47 81 17 3f 4c 63 3d 3f
       -0.36073267 0.79239064 0.59181637 0.7397964
000030 09 87 fc 3e 73 2e 02 bf 15 3c 39 3f 03 79 0f 3f
       0.49321774 -0.50852126 0.723573 0.56044024
000040 30 58 54 3e 2a 97 35 3f 39 83 07 bf ff 09 20 3f
       0.20736766 0.70933783 -0.52934605 0.6251525
000050 9e c5 36 3f ff 3c 65 3f 21 a5 87 3e 07 04 e8 3e
       0.7139529 0.895462 0.2649317 0.45315573
000060 e1 85 17 3f b8 4f 17 3e 78 ce 7d be a4 59 2d 3f
       0.5918866 0.14776504 -0.24785793 0.67714906
000070 be 8a be be 52 3e 18 be a1 eb 1a bf ad 89 dd be
       -0.37215227 -0.14867523 -0.6051579 -0.432691

model.2.weight f4 [4, 32]
000000 98 aa 2c bf 69 10 d6 bd e3 e5 33 3d a7 a8 04 be
       -0.67447805 -0.10452349 0.04392041 -0.12954961
000010 12 57 8f bf 98 67 f2 be 58 25 57 3e c6 69 bc bd
       -1.1198447 -0.4734466 0.2101034 -0.09199862
000020 bf 9c bf bc a2 5b 63 bf fd 08 4c be 30 c2 9f 3f
       -0.023390172 -0.88811696 -0.19925304 1.2481136
000030 74 57 6f 3f bb 7e 0d be f8 ca ab be 3b fa f6 3b
       0.9349282 -0.13817875 -0.3355329 0.007537154
000040 54 d0 6c be 44 13 24 be 92 66 3a bd 4a 2d ae be
       -0.23126346 -0.16022974 -0.045507975 -0.34018928
000050 22 de b1 3f b5 fd 90 be 65 a8 c5 3e f6 02 63 3f
       1.3895915 -0.28318563 0.38605037 0.88676393
000060 47 51 83 3f 67 3e 39 be 6f 4e 1a 3c 6b e3 28 be
       1.0259179 -0.18090211 0.009418114 -0.16493003
000070 ca 19 fe bd a8 d5 9a 3d c4 47 4f bd f4 dd 2c 3e
       -0.124072626 0.07560283 -0.05060555 0.16881543
000080 99 99 20 bf 06 2d 1e be 6f 38 ff 3d fb fc d6 bd
       -0.6273437 -0.15446863 0.12461936 -0.10497471
000090 68 5b cf be 38 e3 f7 3e 8c 54 02 bf 36 74 97 3c
       -0.40499425 0.48415542 -0.5091026 0.01848803
0000a0 a8 b6 10 3e 20 26 6a bf ce 80 7b be 1b a0 91 be
       0.14132178 -0.91464424 -0.24560854 -0.28442463
0000b0 8a 2d 0b 3c de d7 18 be 77 6f 91 bf 4c 55 82 3f
       0.008494744 -0.14926097 -1.1362141 1.018228
0000c0 0d 03 c9 bd 91 d8 85 be 0c 50 95 bd a7 db 8d 3f
       -0.09815035 -0.2614179 -0.07290658 1.1082658
0000d0 31 ea 8d be 90 ce ba 3f 34 5d b0 3e 9f 69 47 bf
       -0.27717736 1.4594288 0.34446108 -0.7789554
0000e0 1a 74 10 3e d9 1b 4b be f7 65 14 3e 63 7b 7a 3f
       0.14106789 -0.19834842 0.14492022 0.97844523
0000f0 ad 99 1b 3e 74 b4 a2 bd 93 2a 1d 3e 2c 09 34 3e
       0.15195341 -0.07944575 0.15348272 0.17581624
000100 cd 63 26 3f 36 d1 a5 3c 89 55 ee 3d f1 27 25 be
       0.64996034 0.020241361 0.11637408 -0.16128518
000110 09 17 bb 3e 72 46 9f be ed 5f d4 3e 24 87 a9 3d
       0.36541012 -0.31108433 0.41479436 0.08277729
000120 7a fc e0 3d 28 5e 8f 3f 1b 08 b8 3d c7 d6 d8 3e
       0.10985656 1.1200609 0.08985921 0.42351362
000130 18 b7 e6 bd 3b 41 ee 3d 50 9f 98 3f 4e ab 80 bf
       -0.11265391 0.116335355 1.1923618 -1.0052278
000140 7a bc 86 be 87 4f f2 3e d1 62 7d bd 2c f4 66 bf
       -0.2631567 0.473263 -0.061861817 -0.90216327
000150 0f b6 12 3e 74 d3 ba bf f4 78 84 be b7 f4 69 3f
       0.14327262 -1.459578 -0.2587353 0.9138903
000160 0d 10 9b bd 7a 8b 59 3e d4 1b d3 bd 88 a7 86 bf
       -0.07571421 0.21244612 -0.10308042 -1.0519876
000170 bd 0f 0a be b8 ae a4 3d d8 34 72 bd 59 2f 29 3c
       -0.13482566 0.080411375 -0.059132427 0.01032623
000180 ed fe 03 3f 41 15 18 bd 0e 37 0d 3e 36 6d ea 3c
       0.5156086 -0.037129644 0.13790533 0.028616529
000190 0b c9 84 3f ce bd f9 3e 8a 0a a7 bd bc 73 f8 3d
       1.0373853 0.48777622 -0.08156307 0.121314496
0001a0 fa af 7d bd 22 8b 7c 3f 13 98 03 bd 91 f3 9c bf
       -0.061935402 0.986498 -0.03212745 -1.226183
0001b0 79 40 70 bf da 7b e4 bd 0c 00 e3 3e 38 0f 3c be
       -0.9384838 -0.11156435 0.44335973 -0.1836518
0001c0 94 e3 63 3f 4f 92 39 3e 3b 43 6e 3d dc 59 36 3e
       0.8901913 0.18122219 0.058169585 0.17807716
0001d0 bd 5a 95 bf 1c 88 cf 3e d2 22 19 bf f6 95 3b bf
       -1.1668316 0.4053353 -0.59818757 -0.732757
0001e0 60 2b 6d bf 24 cc 19 3e 00 69 ab bc 8b dd b0 3e
       -0.9264431 0.1501928 -0.020924091 0.34544024
0001f0 6b 46 8a bd 23 65 17 3d b8 f5 f4 3d c8 41 a5 3d
       -0.067517124 0.036961686 0.1196093 0.080691874

model.2.bias f4 [4]
000000 0e 0e 22 be 1e b9 c6 bc 49 72 f9 bc c3 e7 98 3e
       -0.15825674 -0.024258193 -0.030450003 0.2986432
