model_dir/model_auto_park_auto_park_model_4.pt (torch, 1887 bytes, 4 tensors)

model.0.weight f4 [10, 2]
0.97493225 -0.9872147 0.43573684 -0.023398135 -1.1638435 -0.9389169 0.70894647 3.4838328
-0.44952866 0.08486655 3.0894294 -1.4175938 -0.25522825 -0.09658919 -0.5348627 0.63125336
-2.090907 -1.3106352 -0.37980205 0.12009052
00000000: 2995 793f 1aba 7cbf e618 df3e 72ad bfbc
00000010: d3f8 94bf dc5c 70bf 847d 353f 1ef7 5e40
00000020: 9f28 e6be 84ce ad3d 36b9 4540 b773 b5bf
00000030: 47ad 82be 8ed0 c5bd c3ec 08bf d299 213f
00000040: 6cd1 05c0 e5c2 a7bf 6a75 c2be 05f2 f53d

model.0.bias f4 [10]
0.53347397 -0.21104261 0.75237685 1.1301794 -0.6041033 1.1935108 -0.44566575 0.8876464
1.087242 -0.2292547
00000000: c091 083f 8e1b 58be c59b 403f b8a9 903f
00000010: 84a6 1abf f6c4 983f 4d2e e4be cb3c 633f
00000020: bf2a 8b3f bec1 6abe

model.2.weight f4 [4, 10]
0.26959902 0.053564 1.2782187 -1.9521707 0.124668814 -0.7583372 -0.12962133 0.022774646
1.7858794 -0.0916486 1.1804138 -0.09877949 -0.47785002 -1.6259133 0.15974033 2.3153784
-0.15469648 -0.35148633 -0.56998795 -0.31196126 -0.8053653 0.27805984 -0.02134741 1.4878385
0.079997756 -2.4128568 -0.017410718 1.01 0.46033317 -0.18594614 0.19127588 -0.22697556
-0.97150487 2.1459892 -0.14028446 0.81887966 -0.1661177 -0.055559427 -1.7207346 -0.28749624
00000000: e208 8a3e ed65 5b3d ac9c a33f bbe0 f9bf
00000010: 5d52 ff3d 6322 42bf 74bb 04be e591 ba3c
00000020: b297 e43f 43b2 bbbd cd17 973f e74c cabd
00000030: c2a8 f4be ed1d d0bf f892 233e 292f 1440
00000040: c168 1ebe 04f6 b3be bbea 11bf 63b9 9fbe
00000050: 6c2c 4ebf dc5d 8e3e c3e0 aebc 7e71 be3f
00000060: ddd5 a33d 3f6c 1ac0 eca0 8ebc ae47 813f
00000070: cab0 eb3e aa68 3ebe d3dd 433e 486c 68be
00000080: 8bb4 78bf e357 0940 bba6 0fbe 19a2 513f
00000090: c21a 2abe 4892 63bd 0841 dcbf b532 93be

model.2.bias f4 [4]
0.13872506 -0.06321685 0.46798497 -0.6194924
00000000: f10d 0e3e d677 81bd ba9b ef3e 0e97 1ebf
