model_dir/model_auto_park_auto_park_model.onnx (onnx, 2300 bytes, 4 tensors)

model.0.bias f4 [64]
00000000: 1f98 233f 5a1b 8a3e 092c 0ebf 7659 183f
00000010: de0d dd3e 3116 ef3e 112e d8be ec67 97be
00000020: b7ed 11bf 2d47 50be fb97 08be 182d 083f
00000030: cf13 503e 809b 203f 0564 ec3e bf07 253d
00000040: 7534 02bf 0a25 ebbe 1468 143f d8ea ed3e
00000050: 9e0e a6be 8387 16bf 3c24 ac3e 0bfe b53e
00000060: cf87 ba3e 151d 12bf fe8d 61be a760 123f
00000070: 8fd3 d13e a882 fcbd 0c0a cabe 9f1e aa3e
00000080: cc22 f3be 4082 c53e 360c 943e 5652 473d
00000090: fb17 0d3f 7bdb babe 535c 113e 6810 91be
000000a0: 8a9a 8cbe d654 d2be fda3 f9be 07f4 083f
000000b0: b5e4 2e3d 98f1 d63e 23e4 aa3e f96b d83e
000000c0: d683 e63e 924c d43e c92f 4abe c08a 293f
000000d0: d669 febe 3fdc 003f e1fc a8bd 6af1 1fbe
000000e0: 502b 843e 435d 7f3e 16ac 143f da97 c43e
000000f0: ec28 813e f6b9 e13e b4ed 1c3f 4150 eebe
0.63903993 0.26973993 -0.5553594 0.59511507 0.43174642 0.46696618 -0.42222646 -0.29571474
-0.5700335 -0.20339651 -0.13339226 0.5319381 0.20320056 0.62737274 0.4617006 0.04029059
-0.50861293 -0.45926696 0.5797131 0.46468234 -0.32433027 -0.58800524 0.33621395 0.35545382
0.3643174 -0.57075626 -0.22026822 0.5717873 0.4098172 -0.12329608 -0.3946079 0.33226487
-0.47487485 0.38575935 0.28915566 0.048662506 0.55114716 -0.36495575 0.14195375 -0.2833283
-0.27461654 -0.4108035 -0.48757926 0.53497356 0.04269858 0.41981196 0.3337718 0.42269877
0.45022458 0.4146467 -0.19744791 0.6622734 -0.4969012 0.5033607 -0.08251358 -0.15619436
0.25814295 0.2493792 0.5807508 0.38397104 0.25226533 0.4408719 0.61300206 -0.46545604

model.2.bias f4 [4]
00000000: 78ab c13c 9793 dabc 4762 993d 9b94 24bd
0.023641333 -0.026681704 0.07489448 -0.040180784

onnx::MatMul_12 f4 [2, 64]
00000000: c424 6dbf b463 45be 668d d93e 5a34 b63f
00000010: 5a51 283f adee b2bd ff5b b4bd 4119 c83e
00000020: 3895 683e 2580 26be a1d9 983e 026e 19bd
00000030: 5558 713e 5dda 91bf 42be 7b3f 5b55 0f3f
00000040: 4c43 cebe 2718 35bf 8f6c 673f 658c 29bf
00000050: bdfe 1fbe fd88 3cbd e319 86bf cfc6 90bf
00000060: 02a7 9fbf 4e92 2b3f 511f 363e 5f90 99bf
00000070: 3d23 99bf f48e 33be c1b8 22bf 8765 a4bd
00000080: 0d55 6cbe d248 6abe 64b9 5a3f 822b 323f
00000090: 946e 093f d96e e8be 2d82 75be c39c 4d3d
000000a0: 3998 1dbf 5bf1 e5be 1b85 883d 0582 0abf
000000b0: 0b21 9f3e 0347 e13d a507 df3e 230c 8b3f
000000c0: c0ac 38bf 2190 103f 1c8d 293f 7ce1 5c3f
000000d0: 4685 f3be 1a9f 8c3f a4e2 2e3d 7d0a fabd
000000e0: c7df 40bf 3328 41be 132d 9b3f bad7 c63e
000000f0: 2c90 64bf be0d d7be 1d68 74bf a5ba 99be
00000100: ec93 acbf 5287 34bf 6ac5 6c3e 25f8 003f
00000110: 8247 4f3f 8b91 acbf 5f15 ebbe 4131 013f
00000120: 35ea c83e 5df5 a13e a7ee 3b3f b9dc 97bf
00000130: 5cc2 afbe d584 973f a366 083f fc31 38bf
00000140: f9e3 bcbe 0bea 333f 048a 473e 1757 8a3f
00000150: 6a92 fd3e 73e4 b33c ad23 8ebe 75a6 103e
00000160: 16cd f53d 33e7 09bf 7224 183f 6924 373f
00000170: 2eea b3be 6385 02be e5e6 ce3e 2433 903f
00000180: 39d6 e53e 4f12 a0bf e0f9 b1be 5041 04bf
00000190: c780 32bf 08dd 113f 35b9 0bbf 7825 58be
000001a0: c3ec e73e 7115 333f 1575 f23d 173d b43f
000001b0: 3839 31bf 8117 dd3e 6f6b 8f3f dc60 843e
000001c0: 3dd9 0fbf 8132 823f a86e 8bbd 1acc abbf
000001d0: cabe efbd e2ce 0d3f 1fd4 593d 1bf3 febd
000001e0: 1730 85be 92dd 1cbf b5ff 80be 6bd0 863f
000001f0: b1ae 9dbe fdae 72bf 5ef1 52bd 1d10 06be
-0.92634225 -0.19276315 0.4249069 1.4234726 0.6574913 -0.0873693 -0.08806609 0.39081767
0.22713172 -0.16259821 0.29853538 -0.037458427 0.23568852 -1.1394764 0.98337185 0.5598962
-0.40285718 -0.7073998 0.9040002 -0.6622985 -0.15624519 -0.04602908 -1.047665 -1.1310672
-1.2472842 0.6702012 0.17785384 -1.1997184 -1.1963879 -0.17535001 -0.6356316 -0.08027177
-0.2307932 -0.22879341 0.85439134 0.6959764 0.53684354 -0.4539707 -0.2397544 0.050198328
-0.615604 -0.44910702 0.06666013 -0.54104644 0.31079897 0.109998725 0.4356052 1.0863079
-0.72138596 0.56469923 0.6623094 0.8628156 -0.47562617 1.0986054 0.04269661 -0.12209032
-0.7534146 -0.18862991 1.212313 0.3883646 -0.8928249 -0.42002672 -0.95471364 -0.3002521
-1.3482642 -0.7051898 0.23122182 0.5037864 0.8096849 -1.3481916 -0.45914742 0.5046578
0.39241186 0.3163251 0.7341103 -1.1864234 -0.34327972 1.1837412 0.5328161 -0.7195127
-0.3689268 0.70278996 0.19486243 1.0807828 0.49525768 0.021959519 -0.27761593 0.14125998
0.12002008 -0.53868407 0.5943061 0.7153993 -0.35139602 -0.12746195 0.40410534 1.1265607
0.4489 -1.2505587 -0.34760952 -0.5166216 -0.6972775 0.5697789 -0.5457948 -0.21108043
0.45297822 0.6995459 0.11838738 1.4081143 -0.69227934 0.43181995 1.1204661 0.25855148
-0.56190854 1.0171663 -0.068082154 -1.3421662 -0.11706312 0.55393803 0.05318081 -0.124487124
-0.26013252 -0.6127559 -0.2519509 1.0532354 -0.3079734 -0.9479826 -0.051499717 -0.13092084

onnx::MatMul_13 f4 [64, 4]
00000000: 08a9 873f eef4 7a3e 86c7 8cbe 1598 5dbf
00000010: 189a aa3e 7c96 8a3e 92f1 78be fcaf 8abe
00000020: e892 f4bc 584e efbd 4e13 eb3d 10c4 463d
00000030: 0580 4bbf f800 033f 1ef9 dbbe f7c5 5a3f
00000040: 6660 34bf d8dc 0fbe c4ca fc3c 2462 2b3f
00000050: d370 083f e5e8 fa3e ffc6 31bf b04f 23bf
00000060: 003f 74bc 80bf 6dbd 4880 dfbc c072 7f3d
00000070: fe21 3cbd db2a f43c 0bbc b7bd 497d a0bc
00000080: 00aa 13ba 80d7 813d fcc7 983d 6613 c2bd
00000090: c038 84bd 861b b7bd ee5d a6bd b4c2 f6bd
000000a0: a877 b9bc 5ad4 33bd dd05 f7bd be20 383e
000000b0: 659a ee3e 4c5e 1f3f 1a60 dcbe 34de cdbe
000000c0: c070 543c 6a0f 883e 6340 acbe 125b 3abd
000000d0: bfc2 75bc d30b 7ebf a9f5 913f 46bf 02bd
000000e0: 9aed 30bf 656d 703e d203 86be 5801 263f
000000f0: 7eab bfbd 83fc bf3e e465 a4bd dfbe 84be
00000100: d855 2bbd ead2 93bd 007e e1bb d073 3cbd
00000110: 3c43 98bd c1bf f8bd 7d7c 6cbc 1868 e93c
00000120: 0260 febe 02ed 9e3e 99d2 a1be 3fb0 ec3e
00000130: 0b43 a2be be29 38bf 08ad 653f c5b3 943d
00000140: 20ab 55bc f4b6 823d 80a7 f83d 00c0 ed37
00000150: 8005 fdbc 30d6 3f3c 50b2 dd3c 4428 273d
00000160: 1dac ff3e 0f19 c2be f479 9d3e a331 00bf
00000170: 5ad8 a53e 5792 24bf 4faf 0e3f a1dc ffbe
00000180: ee7a f03e f63c 38bf e95a 093f 6cb8 febe
00000190: b5b4 cfbd 6495 11bc 1d7a ef3a ae93 f3bc
000001a0: ab08 f4bc f33d c0bc 8d6d 49bd a32e 883d
000001b0: 1175 3e3e 09f0 61bf 61eb 613f c9b4 3abe
000001c0: a045 273f 1a19 a2be b15a e93e 56d8 1bbf
000001d0: 25c8 b93b e72a aabd 8b78 debd c4c7 d0bd
000001e0: 9458 ee3d 3224 ebbd d9b8 5ebd f163 8fbd
000001f0: bf47 c9be ca3a d4be 37f2 2c3f 00f6 f43e
00000200: 5866 fcbd 905b 9ebc 7877 a23c 8e64 dbbd
00000210: 7930 163f 418c 043f 6529 efbe c12a 0dbf
00000220: d2dc 29be 4932 073f edac c8be 5f61 6f3e
00000230: 5f27 b0be 729a 013f dbde aebd 4685 43be
00000240: 6565 123d b0de 033f 3086 1bbf 454e 9bbc
00000250: 6dfc f6bc 6e8d a93d e558 40bd 5c3d e63d
00000260: 03c1 a43e 231c 0ebd 553f 89be ba4c 7ebe
00000270: 30d0 c83c 6006 143d a017 1e3d b0ac af3c
00000280: 6dff edbd 1b1e b83d aef7 17bd 7da1 c8bc
00000290: 5903 02be e156 8aba 11a8 583d e566 f43d
000002a0: fc1f 793d 489b 9f3c c049 84bc 2449 ba3d
000002b0: 1e03 c6be c195 4abf becc 733f 95c6 db3e
000002c0: 953f 91bd 43c3 a33e 8643 d1bd b7b1 f2bd
000002d0: 5726 84be 8d04 15be 6f51 353e ca78 793e
000002e0: 9500 f9be 070f f1be 6c23 1a3e 24c3 2a3f
000002f0: 4d5a 19bf ca90 d93e f093 a8be 81f2 013f
00000300: b463 003f c0ad 953c 734d 1c3e 162e 17bf
00000310: ac80 16bf 4447 58be dc93 2f3e db84 393f
00000320: b573 133d 019c fb3c da19 e93c ba7d e9bd
00000330: 32ad 873e 6ab4 863f 5f4d 8ebf 5f3d b5bd
00000340: 2814 90bc f0ef cb3d 0ce4 0bbd 80a7 8a3d
00000350: 7004 27bf 4251 a23e b992 79be 815a 423f
00000360: 18a3 dd3c b03e f83d 40df 11bb ccec 7bbd
00000370: ac71 b93d 1a15 babd d44b e6bd 8890 813c
00000380: ded7 e13e 7d02 58be c0f4 823e 91f9 c0be
00000390: ab49 a33e 30d8 8c3e 2054 41be 4e2c bcbe
000003a0: b316 acbe 6ea0 4d3f 27c3 0abf 5ada dc3e
000003b0: d757 2bbf 2c71 c3be efa9 553e 1f53 283f
000003c0: 6d2f 173f dae5 c6be d123 3d3e 6598 b7be
000003d0: 6a9e 0c3f 443e 913e 09ff 32be 0f54 f0be
000003e0: f0c2 a13e 7c4e d6be 6553 b23e df3f eabe
000003f0: d86e 603d 9066 583d f8eb d93c e286 f23d
1.0598459 0.24507496 -0.27495974 -0.86560184 0.3332069 0.27067935 -0.24310902 -0.2708739
-0.029855207 -0.11684865 0.114782915 0.048526824 -0.7949222 0.51173353 -0.429635 0.8545832
-0.7045959 -0.14049089 0.030858405 0.66946626 0.53297156 0.4900581 -0.6944427 -0.6379347
-0.0149075985 -0.058043957 -0.027282849 0.062365294 -0.045930855 0.029805591 -0.08971413 -0.01959099
-0.0005632937 0.063399315 0.07460019 -0.09476356 -0.06456137 -0.089407966 -0.081233844 -0.120488554
-0.022640064 -0.043903686 -0.12061665 0.1798124 0.4660217 0.6225326 -0.4304207 -0.4020859
0.012966335 0.2657426 -0.33642873 -0.045497008 -0.015000044 -0.9923679 1.1403095 -0.031920694
-0.6911255 0.2347923 -0.2617479 0.648458 -0.093588814 0.3749734 -0.080272466 -0.25926873
-0.041829914 -0.07217963 -0.0068814754 -0.046008885 -0.07434699 -0.12145949 -0.014433977 0.028492019
-0.49682623 0.31040198 -0.31605986 0.46228215 -0.31691775 -0.71938694 0.8971715 0.07260851
-0.013041288 0.06382552 0.12141323 2.8342009e-05 -0.030886412 0.011708781 0.027062565 0.040809885
0.49936 -0.37909743 0.30757105 -0.5007574 0.32391626 -0.64285797 0.5573625 -0.49973014
0.46968788 -0.7196802 0.5365434 -0.49750078 -0.10141889 -0.008885715 0.0018270646 -0.029733505
-0.02978929 -0.02346704 -0.04917674 0.0664952 0.18599345 -0.8825689 0.88249785 -0.18233027
0.65340614 -0.31659776 0.45577005 -0.6087698 0.005669611 -0.08308964 -0.108628355 -0.10194352
0.11637989 -0.11481513 -0.054375503 -0.07001484 -0.3931255 -0.41451102 0.6755709 0.47843933
-0.12324208 -0.01933077 0.019832358 -0.10712539 0.58667713 0.5177651 -0.4671127 -0.5514336
-0.16588143 0.52811104 -0.39194432 0.23376988 -0.34405038 0.5062629 -0.085386 -0.19093809
0.03574123 0.5151167 -0.6075163 -0.01895822 -0.030149663 0.08278929 -0.046959776 0.11242172
0.32178506 -0.034694802 -0.2680613 -0.24833956 0.024513334 0.036138892 0.03859675 0.021444649
-0.11620984 0.08990117 -0.03710144 -0.024491066 -0.1269659 -0.0010554456 0.052894656 0.11933688
0.06082152 0.019483224 -0.016148448 0.09095982 -0.38674253 -0.79134756 0.95234287 0.42924944
-0.070922054 0.3198491 -0.10217957 -0.11850303 -0.258105 -0.14552517 0.17706846 0.24362484
-0.48633257 -0.47081777 0.15052575 0.6670401 -0.59903413 0.42493278 -0.32925367 0.50760657
0.50152135 0.018271327 0.1526392 -0.59054697 -0.5879009 -0.21120936 0.17146248 0.72468346
0.03599902 0.030714037 0.02845471 -0.114009336 0.26499325 1.0523808 -1.1117362 -0.08849596
-0.017587736 0.09957874 -0.03415303 0.06770229 -0.65241146 0.3170262 -0.24372377 0.7591935
0.027055308 0.12121332 -0.0022258312 -0.061505124 0.09054884 -0.09086056 -0.11244932 0.015815988
0.44110006 -0.21094699 0.25577354 -0.37690404 0.31892142 0.27508688 -0.18879747 -0.36752552
-0.33611068 0.8032292 -0.5420403 0.4313534 -0.6693091 -0.3817228 0.20865606 0.6575183
0.5905674 -0.38847238 0.18470694 -0.35858455 0.5492922 0.28367817 -0.174801 -0.46939132
0.31594038 -0.41856754 0.3482925 -0.45751855 0.05479321 0.052832186 0.026601776 0.11842133
