model_dir/model_auto_park_auto_park_model_4.onnx (onnx, 784 bytes, 4 tensors)

model.0.bias f4 [10]
00000000: c091 083f 8e1b 58be c59b 403f b8a9 903f
00000010: 84a6 1abf f6c4 983f 4d2e e4be cb3c 633f
00000020: bf2a 8b3f bec1 6abe
0.53347397 -0.21104261 0.75237685 1.1301794 -0.6041033 1.1935108 -0.44566575 0.8876464
1.087242 -0.2292547

model.2.bias f4 [4]
00000000: f10d 0e3e d677 81bd ba9b ef3e 0e97 1ebf
0.13872506 -0.06321685 0.46798497 -0.6194924

onnx::MatMul_12 f4 [2, 10]
00000000: 2995 793f e618 df3e d3f8 94bf 847d 353f
00000010: 9f28 e6be 36b9 4540 47ad 82be c3ec 08bf
00000020: 6cd1 05c0 6a75 c2be 1aba 7cbf 72ad bfbc
00000030: dc5c 70bf 1ef7 5e40 84ce ad3d b773 b5bf
00000040: 8ed0 c5bd d299 213f e5c2 a7bf 05f2 f53d
0.97493225 0.43573684 -1.1638435 0.70894647 -0.44952866 3.0894294 -0.25522825 -0.5348627
-2.090907 -0.37980205 -0.9872147 -0.023398135 -0.9389169 3.4838328 0.08486655 -1.4175938
-0.09658919 0.63125336 -1.3106352 0.12009052

onnx::MatMul_13 f4 [10, 4]
00000000: e208 8a3e cd17 973f 6c2c 4ebf d3dd 433e
00000010: ed65 5b3d e74c cabd dc5d 8e3e 486c 68be
00000020: ac9c a33f c2a8 f4be c3e0 aebc 8bb4 78bf
00000030: bbe0 f9bf ed1d d0bf 7e71 be3f e357 0940
00000040: 5d52 ff3d f892 233e ddd5 a33d bba6 0fbe
00000050: 6322 42bf 292f 1440 3f6c 1ac0 19a2 513f
00000060: 74bb 04be c168 1ebe eca0 8ebc c21a 2abe
00000070: e591 ba3c 04f6 b3be ae47 813f 4892 63bd
00000080: b297 e43f bbea 11bf cab0 eb3e 0841 dcbf
00000090: 43b2 bbbd 63b9 9fbe aa68 3ebe b532 93be
0.26959902 1.1804138 -0.8053653 0.19127588 0.053564 -0.09877949 0.27805984 -0.22697556
1.2782187 -0.47785002 -0.02134741 -0.97150487 -1.9521707 -1.6259133 1.4878385 2.1459892
0.124668814 0.15974033 0.079997756 -0.14028446 -0.7583372 2.3153784 -2.4128568 0.81887966
-0.12962133 -0.15469648 -0.017410718 -0.1661177 0.022774646 -0.35148633 1.01 -0.055559427
1.7858794 -0.56998795 0.46033317 -1.7207346 -0.0916486 -0.31196126 -0.18594614 -0.28749624
