model_dir/model_auto_park_auto_park_model_10_2.onnx (onnx, 1438 bytes, 6 tensors)

model.0.bias f4 [10]
0.31100178 0.9315124 0.8245714 1.342818 0.19275671 -0.40072876 -0.37053248 0.59124345
0.33004287 0.4434666
00000000: a03b 9f3e 9977 6e3f 1c17 533f 76e1 ab3f
00000010: 0462 453e 522c cdbe 6fb6 bdbe bb5b 173f
00000020: 61fb a83e 0e0e e33e

model.2.bias f4 [10]
-0.26841924 -0.086733244 -0.4109104 0.47523928 0.9911403 0.16609484 -0.2248449 0.8948154
0.014876191 -0.21999767
00000000: 3f6e 89be 33a1 b1bd d962 d2be 9052 f33e
00000010: 5fbb 7d3f c414 2a3e be3d 66be 9f12 653f
00000020: 44bb 733c 1247 61be

model.4.bias f4 [4]
0.6276278 -0.33929136 -0.13808133 -0.32196394
00000000: 37ac 203f 99b7 adbe 3165 0dbe 75d8 a4be

onnx::MatMul_18 f4 [2, 10]
0.41303167 -1.4601951 -0.8084932 1.4918889 0.16557403 0.3421314 0.10450884 0.814558
2.1587634 0.85846967 1.2673134 0.5027731 0.97698337 -1.1330751 1.3764141 0.098665856
-0.64147437 2.002537 0.040789347 0.86433834
00000000: e378 d33e ace7 babf 69f9 4ebf 37f6 be3f
00000010: 3d8c 293e d92b af3e bb08 d63d e086 503f
00000020: 2e29 0a40 abc4 5b3f 5337 a23f bdb5 003f
00000030: 951b 7a3f 9b08 91bf 562e b03f 5311 ca3d
00000040: aa37 24bf 9129 0040 bb12 273d 4745 5d3f

onnx::MatMul_19 f4 [10, 10]
0.15722781 -0.18358587 0.83688796 -0.42042553 -0.6540217 0.13363355 0.26882493 0.31227505
-0.2176908 -0.20983651 -0.17572357 -0.17071567 -0.10567527 -0.18772914 0.6278391 -0.4561859
-0.6013649 1.3623476 0.17530242 -0.13272807 0.25160542 -0.2067379 0.56115925 -0.057118732
0.23198923 -0.43529508 -0.28351283 1.2047757 0.110929154 -0.26638222 -0.15541092 -0.027058184
0.016179925 1.1911877 0.8880649 1.1441308 0.7167359 -0.5402313 -0.2644955 -0.20088877
0.20873123 -0.31199947 0.7664518 -0.4229184 -0.716291 0.025206108 0.30303887 0.7330627
-0.3163705 0.056012437 0.20179448 -0.0110494895 -0.16540985 -0.063610025 -0.22622862 0.06766459
0.23083021 0.20482448 0.08688509 -0.060156953 0.25108513 0.25723645 0.15955505 0.12443026
0.09645545 0.12526722 0.20419836 0.30371872 0.17990299 -0.09321638 -0.24867298 -0.28068778
1.7284304 -0.53833824 -1.0627692 0.030634563 0.38707998 0.34836963 0.0830996 -0.2830432
0.1552502 0.09184691 1.0115954 0.54057413 0.022524057 1.2151008 0.96334547 -0.92444444
0.18121058 -0.31124264 0.0189525 0.1964791 0.8507221 -0.38915804 -0.5881085 0.3305552
0.5529588 -0.14926742 -0.018370984 0.30368206
00000000: 5400 213e effd 3bbe 4a3e 563f 0442 d7be
00000010: f76d 27bf 3cd7 083e 6ca3 893e 84e2 9f3e
00000020: 56ea 5ebe 62df 56be e1f0 33be 17d0 2ebe
00000030: 476c d8bd 113c 40be 10ba 203f 3391 e9be
00000040: 0df3 19bf 6861 ae3f 7a82 333e dee9 07be
00000050: 6dd2 803e 1ab3 53be 22a8 0f3f 55f5 69bd
00000060: 968e 6d3e ffde debe 9828 91be 1736 9a3f
00000070: d32e e33d 4063 88be 0a24 1fbe 20a9 ddbc
00000080: c38b 843c d778 983f 3958 633f e172 923f
00000090: 017c 373f 994c 0abf f46b 87be c9b5 4dbe
000000a0: a4bd 553e 65be 9fbe 2f36 443f c388 d8be
000000b0: d95e 37bf 0a7d ce3c e927 9b3e ffa9 3b3f
000000c0: 50fb a1be 4c6d 653d 36a3 4e3e eb08 35bc
000000d0: 3361 29be f945 82bd 7aa8 67be bc93 8a3d
000000e0: c15e 6c3e 82bd 513e cff0 b13d 2367 76bd
000000f0: 3b8e 803e 7fb4 833e 6662 233e 4bd5 fe3d
00000100: 6f8a c53d 0d46 003e 6019 513e 0581 9b3e
00000110: 7d38 383e 3be8 bebd 21a4 7ebe 4fb6 8fbe
00000120: 353d dd3f 89d0 09bf d208 88bf 56f5 fa3c
00000130: 592f c63e 815d b23e 2030 aa3d 0aeb 90be
00000140: e9f9 1e3e 3c1a bc3d f57b 813f 1163 0a3f
00000150: 5f84 b83c 6c88 9b3f cf9d 763f 64a8 6cbf
00000160: 448f 393e 325b 9fbe 4642 9b3c d131 493e
00000170: ecc8 593f b93f c7be 478e 16bf 883e a93e
00000180: b58e 0d3f 8fd9 18be bf7e 96bc 377c 9b3e

onnx::MatMul_20 f4 [10, 4]
0.27073202 0.20056872 -0.23199491 -0.1309712 0.25975764 -0.30019546 -0.1739076 -0.23478174
-1.80869 -0.28072515 0.46904856 1.652113 0.61213005 0.9893509 -1.0035414 -0.42919764
1.4293242 0.76526594 -0.48140153 -1.3292097 -0.2971457 1.2523023 -1.1092826 0.6055758
-0.9348439 0.6797193 -0.87775624 0.63376325 0.5503819 -1.634486 1.6430355 -0.48040843
0.23960686 -0.14225923 0.017482601 0.23283894 0.269115 -0.15029298 0.1936358 0.2942486
00000000: 639d 8a3e e361 4d3e 1390 6dbe 501d 06be
00000010: f4fe 843e 38b3 99be d514 32be a06a 70be
00000020: 2783 e7bf 35bb 8fbe 2227 f03e 7078 d33f
00000030: 8eb4 1c3f 1a46 7d3f 0b74 80bf cbbf dbbe
00000040: 18f4 b63f 78e8 433f 437a f6be 8b23 aabf
00000050: 7b23 98be 714b a03f f9fc 8dbf 0407 1b3f
00000060: ee51 6fbf 1602 2e3f a2b4 60bf 4f3e 223f
00000070: d4e5 0c3f d636 d1bf fd4e d23f 18f8 f5be
00000080: 805b 753e 67ac 11be ac37 8f3c 556d 6e3e
00000090: 71c9 893e 67e6 19be 7748 463e c1a7 963e
