model_dir/model_auto_park_auto_park_model_20.onnx (onnx, 1066 bytes, 4 tensors)

model.0.bias f4 [20]
0.32922322 0.41338986 -0.60026383 -0.6984053 -0.392295 0.22370575 0.748368 0.5727017
0.8252765 0.9228909 0.8356607 -0.48919922 0.80412024 0.9143313 -0.5834746 -0.41494507
0.3016118 -0.34128907 -0.29234445 -0.26456124
00000000: f28f a83e d6a7 d33e e4aa 19bf b1ca 32bf
00000010: e4da c8be 1f13 653e 0c95 3f3f 949c 123f
00000020: 5245 533f 9442 6c3f dced 553f 5278 fabe
00000030: d3da 4d3f 9e11 6a3f 975e 15bf ae73 d4be
00000040: dd6c 9a3e 71bd aebe 2cae 95be 9274 87be

model.2.bias f4 [4]
-0.25921148 0.18510066 -0.22592315 0.15456364
00000000: 5eb7 84be 078b 3d3e 6658 67be ee45 1e3e

onnx::MatMul_12 f4 [2, 20]
-1.2878301 -0.8535535 0.638278 0.21788901 -0.5881046 -0.9308216 -2.5626404 -1.3298988
1.6000097 1.5560709 -1.208511 -0.31598783 0.8364392 0.55440557 0.43421167 0.22068022
-0.31076732 0.35880816 0.13698754 -0.4022593 -0.25931352 -0.588351 0.1577404 -0.4152112
-0.31299332 -0.19843087 -0.45312408 0.7755447 0.9778059 1.6393542 1.8421469 -0.42321673
-1.7230777 -2.3909695 -0.5693803 -0.5920222 0.79127264 0.27079275 0.1843547 0.5178175
00000000: 9ed7 a4bf 7b82 5abf 3066 233f 4c1e 5f3e
00000010: 068e 16bf 534a 6ebf 4d02 24c0 203a aabf
00000020: 1ecd cc3f 552d c73f 7db0 9abf 28c9 a1be
00000030: e120 563f 86ed 0d3f fe50 de3e fff9 613e
00000040: e51c 9fbe b4b5 b73e 7646 0c3e eef4 cdbe
00000050: bec4 84be 2c9e 16bf b386 213e 9096 d4be
00000060: a940 a0be 7631 4bbe e1ff e7be 198a 463f
00000070: 7d51 7a3f 5cd6 d13f 78cb eb3f ddaf d8be
00000080: cf8d dcbf a505 19c0 e8c2 11bf c48e 17bf
00000090: d890 4a3f 59a5 8a3e 7ac7 3c3e b08f 043f

onnx::MatMul_13 f4 [20, 4]
0.8758035 -0.63536036 0.37800628 -0.5988307 0.7949319 -0.080596544 0.0813144 -0.6987043
-0.011367961 -0.07228163 -0.07216117 -0.21183516 0.093201265 0.08342256 0.049933393 -0.20585299
-0.12537743 0.1711139 -0.044673126 -0.082353406 0.44366574 -0.48998246 0.14591338 -0.4423444
1.5562483 -0.94348675 1.0842041 -1.5424714 0.25952864 -1.099166 1.0301965 -0.31282628
-1.3348461 0.3433346 -0.3883653 1.2836211 -1.5718867 -0.058970977 -0.038439974 1.6579912
-0.3371769 -1.4690175 1.6464095 0.3558999 0.22234227 0.15588267 -0.04087949 0.050210375
0.3271306 1.232181 -1.4774382 -0.56023973 0.87982345 1.6641573 -1.501901 -0.8593711
-0.18446037 -0.02994328 -0.18530563 0.09390082 0.07110426 -0.08885535 -0.12064952 -0.013715609
-0.2561957 -0.55499315 0.5087461 0.28211048 -0.12085618 0.08900268 0.0727918 -0.024835669
0.13299082 -0.20767666 -0.079742886 -0.05791889 0.056130264 -0.13199325 0.1168283 0.085030586
00000000: a834 603f faa6 22bf 0a8a c13e f84c 19bf
00000010: a880 4b3f cd0f a5bd 2a88 a63d 49de 32bf
00000020: af40 3abc 6408 94bd 3cc9 93bd 51eb 58be
00000030: 4ee0 be3d 72d9 aa3d f586 4c3d 20cb 52be
00000040: f162 00be 7b38 2f3e 2bfb 36bd e7a8 a8bd
00000050: 2828 e33e fbde fabe 516a 153e f77a e2be
00000060: 2533 c73f 5988 71bf 33c7 8a3f b46f c5bf
00000070: f0e0 843e 79b1 8cbf 7bdd 833f c42a a0be
00000080: 3ddc aabf 8dc9 af3e d1d7 c6be b24d a43f
00000090: 9533 c9bf 8d8b 71bd 3c73 1dbd 0e39 d43f
000000a0: 73a2 acbe c408 bcbf 8cbd d23f 8338 b63e
000000b0: b1ad 633e b59f 1f3e 4171 27bd 65a9 4d3d
000000c0: a97d a73e 1bb8 9d3f b21c bdbf df6b 0fbf
000000d0: 1c3c 613f 1b03 d53f 4b3e c0bf bfff 5bbf
000000e0: 2ee3 3cbe 9c4b f5bc c2c0 3dbe 134f c03d
000000f0: 1c9f 913d cbf9 b5bd 1817 f7bd 6fb7 60bc
00000100: 152c 83be 0814 0ebf 2f3d 023f c970 903e
00000110: 7283 f7bd 0947 b63d de13 953d 2c74 cbbc
00000120: bf2e 083e 31a9 54be 3d50 a3bd 5c3c 6dbd
00000130: d9e8 653d 3d29 07be ad43 ef3d 8424 ae3d
