model_dir/model_auto_park_auto_park_model_10_2.pt (torch, 2903 bytes, 6 tensors)

model.0.weight f4 [10, 2]
0	0x3ed378e3	0.41303167
1	0x3fa23753	1.2673134
2	0xbfbae7ac	-1.4601951
3	0x3f00b5bd	0.5027731
4	0xbf4ef969	-0.8084932
5	0x3f7a1b95	0.97698337
6	0x3fbef637	1.4918889
7	0xbf91089b	-1.1330751
8	0x3e298c3d	0.16557403
9	0x3fb02e56	1.3764141
10	0x3eaf2bd9	0.3421314
11	0x3dca1153	0.098665856
12	0x3dd608bb	0.10450884
13	0xbf2437aa	-0.64147437
14	0x3f5086e0	0.814558
15	0x40002991	2.002537
16	0x400a292e	2.1587634
17	0x3d2712bb	0.040789347
18	0x3f5bc4ab	0.85846967
19	0x3f5d4547	0.86433834

model.0.bias f4 [10]
0	0x3e9f3ba0	0.31100178
1	0x3f6e7799	0.9315124
2	0x3f53171c	0.8245714
3	0x3fabe176	1.342818
4	0x3e456204	0.19275671
5	0xbecd2c52	-0.40072876
6	0xbebdb66f	-0.37053248
7	0x3f175bbb	0.59124345
8	0x3ea8fb61	0.33004287
9	0x3ee30e0e	0.4434666

model.2.weight f4 [10, 10]
0	0x3e210054	0.15722781
1	0xbe33f0e1	-0.17572357
2	0x3e80d26d	0.25160542
3	0xbe1f240a	-0.15541092
4	0x3e55bda4	0.20873123
5	0x3e4ea336	0.20179448
6	0x3e808e3b	0.25108513
7	0xbe7ea421	-0.24867298
8	0x3e1ef9e9	0.1552502
9	0x3c9b4246	0.0189525
10	0xbe3bfdef	-0.18358587
11	0xbe2ed017	-0.17071567
12	0xbe53b31a	-0.2067379
13	0xbcdda920	-0.027058184
14	0xbe9fbe65	-0.31199947
15	0xbc3508eb	-0.0110494895
16	0x3e83b47f	0.25723645
17	0xbe8fb64f	-0.28068778
18	0x3dbc1a3c	0.09184691
19	0x3e4931d1	0.1964791
20	0x3f563e4a	0.83688796
21	0xbdd86c47	-0.10567527
22	0x3f0fa822	0.56115925
23	0x3c848bc3	0.016179925
24	0x3f44362f	0.7664518
25	0xbe296133	-0.16540985
26	0x3e236266	0.15955505
27	0x3fdd3d35	1.7284304
28	0x3f817bf5	1.0115954
29	0x3f59c8ec	0.8507221
30	0xbed74204	-0.42042553
31	0xbe403c11	-0.18772914
32	0xbd69f555	-0.057118732
33	0x3f9878d7	1.1911877
34	0xbed888c3	-0.4229184
35	0xbd8245f9	-0.063610025
36	0x3dfed54b	0.12443026
37	0xbf09d089	-0.53833824
38	0x3f0a6311	0.54057413
39	0xbec73fb9	-0.38915804
40	0xbf276df7	-0.6540217
41	0x3f20ba10	0.6278391
42	0x3e6d8e96	0.23198923
43	0x3f635839	0.8880649
44	0xbf375ed9	-0.716291
45	0xbe67a87a	-0.22622862
46	0x3dc58a6f	0.09645545
47	0xbf8808d2	-1.0627692
48	0x3cb8845f	0.022524057
49	0xbf168e47	-0.5881085
50	0x3e08d73c	0.13363355
51	0xbee99133	-0.4561859
52	0xbededeff	-0.43529508
53	0x3f9272e1	1.1441308
54	0x3cce7d0a	0.025206108
55	0x3d8a93bc	0.06766459
56	0x3e00460d	0.12526722
57	0x3cfaf556	0.030634563
58	0x3f9b886c	1.2151008
59	0x3ea93e88	0.3305552
60	0x3e89a36c	0.26882493
61	0xbf19f30d	-0.6013649
62	0xbe912898	-0.28351283
63	0x3f377c01	0.7167359
64	0x3e9b27e9	0.30303887
65	0x3e6c5ec1	0.23083021
66	0x3e511960	0.20419836
67	0x3ec62f59	0.38707998
68	0x3f769dcf	0.96334547
69	0x3f0d8eb5	0.5529588
70	0x3e9fe284	0.31227505
71	0x3fae6168	1.3623476
72	0x3f9a3617	1.2047757
73	0xbf0a4c99	-0.5402313
74	0x3f3ba9ff	0.7330627
75	0x3e51bd82	0.20482448
76	0x3e9b8105	0.30371872
77	0x3eb25d81	0.34836963
78	0xbf6ca864	-0.92444444
79	0xbe18d98f	-0.14926742
80	0xbe5eea56	-0.2176908
81	0x3e33827a	0.17530242
82	0x3de32ed3	0.110929154
83	0xbe876bf4	-0.2644955
84	0xbea1fb50	-0.3163705
85	0x3db1f0cf	0.08688509
86	0x3e38387d	0.17990299
87	0x3daa3020	0.0830996
88	0x3e398f44	0.18121058
89	0xbc967ebf	-0.018370984
90	0xbe56df62	-0.20983651
91	0xbe07e9de	-0.13272807
92	0xbe886340	-0.26638222
93	0xbe4db5c9	-0.20088877
94	0x3d656d4c	0.056012437
95	0xbd766723	-0.060156953
96	0xbdbee83b	-0.09321638
97	0xbe90eb0a	-0.2830432
98	0xbe9f5b32	-0.31124264
99	0x3e9b7c37	0.30368206

model.2.bias f4 [10]
0	0xbe896e3f	-0.26841924
1	0xbdb1a133	-0.086733244
2	0xbed262d9	-0.4109104
3	0x3ef35290	0.47523928
4	0x3f7dbb5f	0.9911403
5	0x3e2a14c4	0.16609484
6	0xbe663dbe	-0.2248449
7	0x3f65129f	0.8948154
8	0x3c73bb44	0.014876191
9	0xbe614712	-0.21999767

model.4.weight f4 [4, 10]
0	0x3e8a9d63	0.27073202
1	0x3e84fef4	0.25975764
2	0xbfe78327	-1.80869
3	0x3f1cb48e	0.61213005
4	0x3fb6f418	1.4293242
5	0xbe98237b	-0.2971457
6	0xbf6f51ee	-0.9348439
7	0x3f0ce5d4	0.5503819
8	0x3e755b80	0.23960686
9	0x3e89c971	0.269115
10	0x3e4d61e3	0.20056872
11	0xbe99b338	-0.30019546
12	0xbe8fbb35	-0.28072515
13	0x3f7d461a	0.9893509
14	0x3f43e878	0.76526594
15	0x3fa04b71	1.2523023
16	0x3f2e0216	0.6797193
17	0xbfd136d6	-1.634486
18	0xbe11ac67	-0.14225923
19	0xbe19e667	-0.15029298
20	0xbe6d9013	-0.23199491
21	0xbe3214d5	-0.1739076
22	0x3ef02722	0.46904856
23	0xbf80740b	-1.0035414
24	0xbef67a43	-0.48140153
25	0xbf8dfcf9	-1.1092826
26	0xbf60b4a2	-0.87775624
27	0x3fd24efd	1.6430355
28	0x3c8f37ac	0.017482601
29	0x3e464877	0.1936358
30	0xbe061d50	-0.1309712
31	0xbe706aa0	-0.23478174
32	0x3fd37870	1.652113
33	0xbedbbfcb	-0.42919764
34	0xbfaa238b	-1.3292097
35	0x3f1b0704	0.6055758
36	0x3f223e4f	0.63376325
37	0xbef5f818	-0.48040843
38	0x3e6e6d55	0.23283894
39	0x3e96a7c1	0.2942486

model.4.bias f4 [4]
0	0x3f20ac37	0.6276278
1	0xbeadb799	-0.33929136
2	0xbe0d6531	-0.13808133
3	0xbea4d875	-0.32196394
