model_dir/model_auto_park_auto_park_model_32.onnx (onnx, 1404 bytes, 4 tensors)

model.0.bias f4 [32]
00000000: 09b4 013f 0eaf e9be 753b 58be 8b29 26bf
00000010: 359d 343f 2dba 963e 34b0 813e eeae 19bf
00000020: f4b1 b8be 1dda 4a3f 4781 173f 4c63 3d3f
00000030: 0987 fc3e 732e 02bf 153c 393f 0379 0f3f
00000040: 3058 543e 2a97 353f 3983 07bf ff09 203f
00000050: 9ec5 363f ff3c 653f 21a5 873e 0704 e83e
00000060: e185 173f b84f 173e 78ce 7dbe a459 2d3f
00000070: be8a bebe 523e 18be a1eb 1abf ad89 ddbe
0.50665337 -0.4564137 -0.21116431 -0.6490714 0.7055238 0.29438916 0.25329745 -0.60032547
-0.36073267 0.79239064 0.59181637 0.7397964 0.49321774 -0.50852126 0.723573 0.56044024
0.20736766 0.70933783 -0.52934605 0.6251525 0.7139529 0.895462 0.2649317 0.45315573
0.5918866 0.14776504 -0.24785793 0.67714906 -0.37215227 -0.14867523 -0.6051579 -0.432691

model.2.bias f4 [4]
00000000: 0e0e 22be 1eb9 c6bc 4972 f9bc c3e7 983e
-0.15825674 -0.024258193 -0.030450003 0.2986432

onnx::MatMul_12 f4 [2, 32]
00000000: c35b c4bd 38c2 ab3e 8177 6f3d 16b0 efbe
00000010: 4929 3e3f ba4f 7d3f 2836 13bf 67cb c03e
00000020: 861d edbe 047a 3ebe 0d21 bfbd 5f5c cfbf
00000030: 0e3c 62bf 6c4b 2e3f 6f5a 4bbf a258 5f3f
00000040: 84ae 7d3f dd99 5dbe 2a3e d8be 2f8d a93f
00000050: d080 c4bf dfd5 e53f 0764 34be 29a5 d9bf
00000060: 84bf 6ebf f5d0 adbd bd23 c5be e562 a53f
00000070: 134d b53e 34b9 08be b125 60be ebb9 8cbe
00000080: a504 a03f 4df6 0dbf c027 9e3e 5552 35be
00000090: 7bcd b83f a6b3 243d 5aa2 7f3e da37 973e
000000a0: beee 4d3e 8da6 ff3f c5ea 323e a4c3 82bf
000000b0: e1a8 77bf d977 75be 9423 c23f 082c 93bf
000000c0: a982 6e3f f931 e53e b2b6 183e c6cd 66bf
000000d0: 2a69 91bf 87e3 a1bf 2921 55bf 9ac7 913c
000000e0: 165d 9cbf 2b9f af3e 6278 d7be 056a 76bf
000000f0: 7320 09be fdd6 2fbe 9d11 113f c451 253f
-0.09587815 0.33546615 0.058463577 -0.4681403 0.74281746 0.9894978 -0.5750451 0.37655184
-0.46311587 -0.18601233 -0.09332476 -1.6200064 -0.88372886 0.68083835 -0.79434866 0.8724462
0.99094415 -0.21640725 -0.42234927 1.3246211 -1.535181 1.7955893 -0.17616282 -1.7003528
-0.9326098 -0.08487121 -0.3850383 1.2920805 0.35410365 -0.133519 -0.21889378 -0.27485594
1.2501417 -0.5545395 0.30889702 -0.17707188 1.4437708 0.04021039 0.24964276 0.295348
0.20110604 1.9972702 0.1747237 -1.0215955 -0.96742064 -0.239715 1.5167108 -1.1497812
0.9316812 0.4476469 0.14913443 -0.90157735 -1.1360219 -1.2647561 -0.83253723 0.017795373
-1.2215908 0.34301123 -0.42084032 -0.9625552 -0.13391285 -0.17171855 0.566675 0.6457789

onnx::MatMul_13 f4 [32, 4]
00000000: 98aa 2cbf 9999 20bf cd63 263f edfe 033f
00000010: 6910 d6bd 062d 1ebe 36d1 a53c 4115 18bd
00000020: e3e5 333d 6f38 ff3d 8955 ee3d 0e37 0d3e
00000030: a7a8 04be fbfc d6bd f127 25be 366d ea3c
00000040: 1257 8fbf 685b cfbe 0917 bb3e 0bc9 843f
00000050: 9867 f2be 38e3 f73e 7246 9fbe cebd f93e
00000060: 5825 573e 8c54 02bf ed5f d43e 8a0a a7bd
00000070: c669 bcbd 3674 973c 2487 a93d bc73 f83d
00000080: bf9c bfbc a8b6 103e 7afc e03d faaf 7dbd
00000090: a25b 63bf 2026 6abf 285e 8f3f 228b 7c3f
000000a0: fd08 4cbe ce80 7bbe 1b08 b83d 1398 03bd
000000b0: 30c2 9f3f 1ba0 91be c7d6 d83e 91f3 9cbf
000000c0: 7457 6f3f 8a2d 0b3c 18b7 e6bd 7940 70bf
000000d0: bb7e 0dbe ded7 18be 3b41 ee3d da7b e4bd
000000e0: f8ca abbe 776f 91bf 509f 983f 0c00 e33e
000000f0: 3bfa f63b 4c55 823f 4eab 80bf 380f 3cbe
00000100: 54d0 6cbe 0d03 c9bd 7abc 86be 94e3 633f
00000110: 4413 24be 91d8 85be 874f f23e 4f92 393e
00000120: 9266 3abd 0c50 95bd d162 7dbd 3b43 6e3d
00000130: 4a2d aebe a7db 8d3f 2cf4 66bf dc59 363e
00000140: 22de b13f 31ea 8dbe 0fb6 123e bd5a 95bf
00000150: b5fd 90be 90ce ba3f 74d3 babf 1c88 cf3e
00000160: 65a8 c53e 345d b03e f478 84be d222 19bf
00000170: f602 633f 9f69 47bf b7f4 693f f695 3bbf
00000180: 4751 833f 1a74 103e 0d10 9bbd 602b 6dbf
00000190: 673e 39be d91b 4bbe 7a8b 593e 24cc 193e
000001a0: 6f4e 1a3c f765 143e d41b d3bd 0069 abbc
000001b0: 6be3 28be 637b 7a3f 88a7 86bf 8bdd b03e
000001c0: ca19 febd ad99 1b3e bd0f 0abe 6b46 8abd
000001d0: a8d5 9a3d 74b4 a2bd b8ae a43d 2365 173d
000001e0: c447 4fbd 932a 1d3e d834 72bd b8f5 f43d
000001f0: f4dd 2c3e 2c09 343e 592f 293c c841 a53d
-0.67447805 -0.6273437 0.64996034 0.5156086 -0.10452349 -0.15446863 0.020241361 -0.037129644
0.04392041 0.12461936 0.11637408 0.13790533 -0.12954961 -0.10497471 -0.16128518 0.028616529
-1.1198447 -0.40499425 0.36541012 1.0373853 -0.4734466 0.48415542 -0.31108433 0.48777622
0.2101034 -0.5091026 0.41479436 -0.08156307 -0.09199862 0.01848803 0.08277729 0.121314496
-0.023390172 0.14132178 0.10985656 -0.061935402 -0.88811696 -0.91464424 1.1200609 0.986498
-0.19925304 -0.24560854 0.08985921 -0.03212745 1.2481136 -0.28442463 0.42351362 -1.226183
0.9349282 0.008494744 -0.11265391 -0.9384838 -0.13817875 -0.14926097 0.116335355 -0.11156435
-0.3355329 -1.1362141 1.1923618 0.44335973 0.007537154 1.018228 -1.0052278 -0.1836518
-0.23126346 -0.09815035 -0.2631567 0.8901913 -0.16022974 -0.2614179 0.473263 0.18122219
-0.045507975 -0.07290658 -0.061861817 0.058169585 -0.34018928 1.1082658 -0.90216327 0.17807716
1.3895915 -0.27717736 0.14327262 -1.1668316 -0.28318563 1.4594288 -1.459578 0.4053353
0.38605037 0.34446108 -0.2587353 -0.59818757 0.88676393 -0.7789554 0.9138903 -0.732757
1.0259179 0.14106789 -0.07571421 -0.9264431 -0.18090211 -0.19834842 0.21244612 0.1501928
0.009418114 0.14492022 -0.10308042 -0.020924091 -0.16493003 0.97844523 -1.0519876 0.34544024
-0.124072626 0.15195341 -0.13482566 -0.067517124 0.07560283 -0.07944575 0.080411375 0.036961686
-0.05060555 0.15348272 -0.059132427 0.1196093 0.16881543 0.17581624 0.01032623 0.080691874
