model_dir/model_auto_park_auto_park_model_20.pt (torch, 2143 bytes, 4 tensors)

model.0.weight f4 [20, 2]
0	0xbfa4d79e	-1.2878301
1	0xbe84c4be	-0.25931352
2	0xbf5a827b	-0.8535535
3	0xbf169e2c	-0.588351
4	0x3f236630	0.638278
5	0x3e2186b3	0.1577404
6	0x3e5f1e4c	0.21788901
7	0xbed49690	-0.4152112
8	0xbf168e06	-0.5881046
9	0xbea040a9	-0.31299332
10	0xbf6e4a53	-0.9308216
11	0xbe4b3176	-0.19843087
12	0xc024024d	-2.5626404
13	0xbee7ffe1	-0.45312408
14	0xbfaa3a20	-1.3298988
15	0x3f468a19	0.7755447
16	0x3fcccd1e	1.6000097
17	0x3f7a517d	0.9778059
18	0x3fc72d55	1.5560709
19	0x3fd1d65c	1.6393542
20	0xbf9ab07d	-1.208511
21	0x3febcb78	1.8421469
22	0xbea1c928	-0.31598783
23	0xbed8afdd	-0.42321673
24	0x3f5620e1	0.8364392
25	0xbfdc8dcf	-1.7230777
26	0x3f0ded86	0.55440557
27	0xc01905a5	-2.3909695
28	0x3ede50fe	0.43421167
29	0xbf11c2e8	-0.5693803
30	0x3e61f9ff	0.22068022
31	0xbf178ec4	-0.5920222
32	0xbe9f1ce5	-0.31076732
33	0x3f4a90d8	0.79127264
34	0x3eb7b5b4	0.35880816
35	0x3e8aa559	0.27079275
36	0x3e0c4676	0.13698754
37	0x3e3cc77a	0.1843547
38	0xbecdf4ee	-0.4022593
39	0x3f048fb0	0.5178175

model.0.bias f4 [20]
0	0x3ea88ff2	0.32922322
1	0x3ed3a7d6	0.41338986
2	0xbf19aae4	-0.60026383
3	0xbf32cab1	-0.6984053
4	0xbec8dae4	-0.392295
5	0x3e65131f	0.22370575
6	0x3f3f950c	0.748368
7	0x3f129c94	0.5727017
8	0x3f534552	0.8252765
9	0x3f6c4294	0.9228909
10	0x3f55eddc	0.8356607
11	0xbefa7852	-0.48919922
12	0x3f4ddad3	0.80412024
13	0x3f6a119e	0.9143313
14	0xbf155e97	-0.5834746
15	0xbed473ae	-0.41494507
16	0x3e9a6cdd	0.3016118
17	0xbeaebd71	-0.34128907
18	0xbe95ae2c	-0.29234445
19	0xbe877492	-0.26456124

model.2.weight f4 [4, 20]
0	0x3f6034a8	0.8758035
1	0x3f4b80a8	0.7949319
2	0xbc3a40af	-0.011367961
3	0x3dbee04e	0.093201265
4	0xbe0062f1	-0.12537743
5	0x3ee32828	0.44366574
6	0x3fc73325	1.5562483
7	0x3e84e0f0	0.25952864
8	0xbfaadc3d	-1.3348461
9	0xbfc93395	-1.5718867
10	0xbeaca273	-0.3371769
11	0x3e63adb1	0.22234227
12	0x3ea77da9	0.3271306
13	0x3f613c1c	0.87982345
14	0xbe3ce32e	-0.18446037
15	0x3d919f1c	0.07110426
16	0xbe832c15	-0.2561957
17	0xbdf78372	-0.12085618
18	0x3e082ebf	0.13299082
19	0x3d65e8d9	0.056130264
20	0xbf22a6fa	-0.63536036
21	0xbda50fcd	-0.080596544
22	0xbd940864	-0.07228163
23	0x3daad972	0.08342256
24	0x3e2f387b	0.1711139
25	0xbefadefb	-0.48998246
26	0xbf718859	-0.94348675
27	0xbf8cb179	-1.099166
28	0x3eafc98d	0.3433346
29	0xbd718b8d	-0.058970977
30	0xbfbc08c4	-1.4690175
31	0x3e1f9fb5	0.15588267
32	0x3f9db81b	1.232181
33	0x3fd5031b	1.6641573
34	0xbcf54b9c	-0.02994328
35	0xbdb5f9cb	-0.08885535
36	0xbf0e1408	-0.55499315
37	0x3db64709	0.08900268
38	0xbe54a931	-0.20767666
39	0xbe07293d	-0.13199325
40	0x3ec18a0a	0.37800628
41	0x3da6882a	0.0813144
42	0xbd93c93c	-0.07216117
43	0x3d4c86f5	0.049933393
44	0xbd36fb2b	-0.044673126
45	0x3e156a51	0.14591338
46	0x3f8ac733	1.0842041
47	0x3f83dd7b	1.0301965
48	0xbec6d7d1	-0.3883653
49	0xbd1d733c	-0.038439974
50	0x3fd2bd8c	1.6464095
51	0xbd277141	-0.04087949
52	0xbfbd1cb2	-1.4774382
53	0xbfc03e4b	-1.501901
54	0xbe3dc0c2	-0.18530563
55	0xbdf71718	-0.12064952
56	0x3f023d2f	0.5087461
57	0x3d9513de	0.0727918
58	0xbda3503d	-0.079742886
59	0x3def43ad	0.1168283
60	0xbf194cf8	-0.5988307
61	0xbf32de49	-0.6987043
62	0xbe58eb51	-0.21183516
63	0xbe52cb20	-0.20585299
64	0xbda8a8e7	-0.082353406
65	0xbee27af7	-0.4423444
66	0xbfc56fb4	-1.5424714
67	0xbea02ac4	-0.31282628
68	0x3fa44db2	1.2836211
69	0x3fd4390e	1.6579912
70	0x3eb63883	0.3558999
71	0x3d4da965	0.050210375
72	0xbf0f6bdf	-0.56023973
73	0xbf5bffbf	-0.8593711
74	0x3dc04f13	0.09390082
75	0xbc60b76f	-0.013715609
76	0x3e9070c9	0.28211048
77	0xbccb742c	-0.024835669
78	0xbd6d3c5c	-0.05791889
79	0x3dae2484	0.085030586

model.2.bias f4 [4]
0	0xbe84b75e	-0.25921148
1	0x3e3d8b07	0.18510066
2	0xbe675866	-0.22592315
3	0x3e1e45ee	0.15456364
