model_dir/VertCAS_6.pt (torch, 8207 bytes, 8 tensors)

_initializer_W0 f4 [21, 4]
000000 72 0a 82 41 72 a7 f0 bf af 42 81 c0 45 9d 99 be
       16.2551 -1.88011 -4.03939 -0.300028
000010 eb 1c 5f 40 10 1f 0c bf a4 70 51 c1 36 ae 33 3f
       3.48614 -0.547349 -13.09 0.701877
000020 4b ab 89 bf 7e a9 a1 c0 16 a4 99 bf 43 58 09 3f
       -1.07554 -5.05194 -1.20032 0.536503
000030 91 7e 78 c1 d4 9a 6c c0 d8 81 d5 40 41 61 20 be
       -15.5309 -3.69695 6.6721 -0.156621
000040 72 c4 cc c0 47 72 17 40 32 c9 22 c0 3b 70 aa 3f
       -6.39898 2.36635 -2.54353 1.33155
000050 94 d9 30 40 99 2a 02 40 15 8c f1 40 c2 dd 4d 3f
       2.76328 2.03385 7.54835 0.804165
000060 d5 78 6c 41 5c 77 45 40 25 e9 48 c0 ac 8e bc 3d
       14.7795 3.08541 -3.13923 0.092069
000070 f1 80 0d 41 50 8a 22 3f 59 6e 8b 40 13 bb 2a 3f
       8.84398 0.634923 4.35722 0.666917
000080 47 c6 5a 3e 37 31 89 bc ab b0 49 be fc 56 cb be
       0.213647 -0.0167471 -0.196963 -0.397148
000090 b0 03 3b 41 f5 84 a3 40 f8 53 29 40 22 a5 39 be
       11.6884 5.10998 2.64575 -0.181294
0000a0 e7 00 12 41 09 50 f7 bf ed d3 29 40 9e 99 34 bf
       9.12522 -1.93213 2.65356 -0.705469
0000b0 a5 66 e7 bf 0a 4b 81 40 da 72 07 41 8f 34 e8 3e
       -1.80782 4.04041 8.46554 0.453526
0000c0 09 f9 5c 41 64 06 32 c0 d7 2f 7c 40 ad 4e b6 3e
       13.8108 -2.78164 3.94042 0.356069
0000d0 9d 80 5b c1 ee 08 6d c0 88 4b 06 41 20 35 57 3d
       -13.7189 -3.70367 8.39344 0.0525409
0000e0 b4 93 41 3c 2b fc b1 3e 8e 02 b4 bd 5d 51 ea be
       0.011815 0.347627 -0.0878955 -0.457652
0000f0 5c ac 74 40 81 3e 59 40 d0 b3 9d 3f 4c 53 44 be
       3.82302 3.39444 1.23205 -0.191724
000100 de 76 9c c0 96 5e 37 bf 9b fe 99 40 9a b3 e6 3e
       -4.88951 -0.716287 4.81233 0.450589
000110 c7 68 85 be 99 28 32 3e 8d 26 07 be 46 94 86 be
       -0.260565 0.173983 -0.131983 -0.26285
000120 ed 64 20 c0 bb b8 c1 bf 1a d1 10 c1 36 74 0f 3f
       -2.50616 -1.51345 -9.05105 0.560367
000130 20 63 79 c1 16 35 1a 40 1f f4 02 c0 30 f2 b2 bd
       -15.5867 2.40949 -2.04615 -0.087376
000140 cb b9 78 c0 d0 ed cb c0 41 d4 4f 40 af 08 a6 be
       -3.88634 -6.37278 3.24733 -0.324285

_initializer_B0 f4 [21]
000000 51 bd 9d bf 9d 85 a5 3f 21 93 12 40 aa 45 ac be
       -1.23234 1.29314 2.29023 -0.336469
000010 b1 a4 c4 be 95 d4 ed 3f 32 f7 aa 3d 34 d7 e5 3f
       -0.384069 1.85805 0.0834793 1.79563
000020 f7 ad 8e be 9a 69 c1 bd 24 76 52 bd 74 d1 4c 3f
       -0.278671 -0.0944397 -0.0513822 0.800071
000030 5e be 55 3e 56 2c 4e 3f 9a 3f f6 be 68 e8 37 40
       0.208734 0.805364 -0.480954 2.87356
000040 a9 87 c4 3f 9b 72 75 be 8d d1 ca 3f 77 eb 06 3d
       1.53539 -0.239695 1.58452 0.0329394
000050 da 20 23 3e
       0.159305

_initializer_W1 f4 [9, 21]
000000 c1 1c 35 c0 28 0a 22 c0 71 c9 0f 40 4f 40 d3 bf
       -2.82988 -2.53187 2.24667 -1.6504
000010 42 78 34 bf 9b 1b cb 3f 83 6e db 40 ee 7c 13 c0
       -0.70496 1.58678 6.85724 -2.3045
000020 2e 2b 23 bd 2a a9 0f 40 47 8f 2b 40 33 dc 28 40
       -0.0398361 2.2447 2.68062 2.63844
000030 87 fe 57 40 23 bb 72 3f 19 ab dd be 90 88 3d c0
       3.37491 0.948168 -0.432946 -2.96146
000040 c0 ec 9e bf 25 5c a0 be 44 dd 37 40 62 e7 0c 41
       -1.2416 -0.313203 2.87288 8.80649
000050 50 e2 f3 bd f4 37 8b c0 0a 11 8a 40 d3 87 46 c0
       -0.119084 -4.35058 4.31458 -3.10204
000060 75 3c 14 c0 fd f6 a4 c1 1f f4 e8 bf bb 61 5f 40
       -2.31619 -20.6206 -1.81995 3.49034
000070 b9 1e 80 3d 4c 71 35 3e 5d 8c 09 3f b3 5f e7 be
       0.0625586 0.17719 0.537298 -0.451902
000080 19 7d bb 3d 02 82 93 40 df 4f b3 40 4f a2 0f 3d
       0.0915472 4.60962 5.6035 0.0350669
000090 ac 00 33 3f f8 53 ab bf 6d a0 ca 3d 6a f6 d7 c0
       0.699229 -1.3385 0.0989388 -6.74883
0000a0 be 9f 39 c1 ef fe 06 c1 b1 4e 35 be cf 15 55 3e
       -11.6015 -8.43724 -0.177058 0.208091
0000b0 d1 47 9f 3d 3d 49 4e 40 6e 34 48 3f 2f fc e0 3d
       0.0777737 3.22322 0.78205 0.109856
0000c0 68 79 a8 c0 60 e5 2b c1 8a 5a 2a 3e 22 c3 74 c0
       -5.26482 -10.7435 0.166361 -3.82441
0000d0 aa 65 97 3f 6b 9f 40 c0 58 a8 4c c1 d3 c1 02 40
       1.18279 -3.00973 -12.7911 2.04308
0000e0 8d d2 15 3e bf 10 e2 be b4 ca ec 3e 7a a6 8f be
       0.146311 -0.441534 0.462484 -0.280567
0000f0 a1 b9 8e 3f 7f fa 37 3f 1d 38 0b c0 2b c1 09 c1
       1.11504 0.718666 -2.1753 -8.60966
000100 c9 1f cc bf 98 fa 91 bf 2b 30 74 bf be f9 11 bf
       -1.59472 -1.14046 -0.95386 -0.570217
000110 49 ba 96 bf a4 53 09 c0 ef 38 a9 bf 59 8b b7 be
       -1.17756 -2.14573 -1.32205 -0.358485
000120 f4 32 9e bf d4 e8 3a bd 62 69 78 bf 05 51 bb bf
       -1.23593 -0.0456322 -0.970358 -1.46341
000130 5b 99 9c bf 34 9c da be 5e 68 36 c0 c5 55 8d bf
       -1.22343 -0.426973 -2.85012 -1.10418
000140 fe 61 fb be 69 e4 7f bf 76 51 74 bf 7f bf 4c bf
       -0.490982 -0.999579 -0.954368 -0.799797
000150 da fe f8 c0 f0 8a d4 bf f3 ab 9d bf c0 3e 22 bf
       -7.78111 -1.66049 -1.23181 -0.63377
000160 ea 08 68 bf 86 38 2a bf 6c 21 f0 bf eb a8 9e bf
       -0.906386 -0.664925 -1.87602 -1.23953
000170 f8 34 57 be 84 0c 70 bf 87 f9 d2 bd d3 30 38 bf
       -0.210163 -0.937691 -0.103015 -0.719495
000180 ea 04 a4 bf 60 ea c7 bf 97 3c 96 be 68 96 2a c0
       -1.2814 -1.56184 -0.293431 -2.66543
000190 08 e6 14 bf e0 68 ef be da 8f b8 bf 02 9b 77 bf
       -0.581635 -0.467597 -1.44189 -0.967209
0001a0 c7 63 8a bf a9 9f f9 40 a9 4d 06 40 72 fd 1b be
       -1.08117 7.80074 2.09849 -0.152334
0001b0 9f 3c 8a c0 d4 d4 48 40 74 98 33 bf 1f 85 bd c0
       -4.3199 3.13799 -0.701545 -5.9225
0001c0 31 40 da 3e f3 90 d9 be 0c 1f 47 40 b6 d6 b7 bf
       0.426271 -0.424934 3.11127 -1.43624
0001d0 b9 53 ba bf f8 e1 3c 3f 79 01 8a 3f 59 35 98 be
       -1.45568 0.737823 1.07817 -0.297282
0001e0 b8 92 dd 3f 10 5d f8 3f dc 49 84 be 33 50 6b c0
       1.73104 1.94034 -0.258376 -3.67677
0001f0 82 a8 d7 c0 2b 87 fe bf b0 ac ae c0 bf 43 bd 3f
       -6.73932 -1.9885 -5.45858 1.47863
000200 57 e8 83 3e 84 9e 29 41 05 32 23 3f 07 ce 32 c1
       0.257632 10.6012 0.637482 -11.1753
000210 e8 f6 18 c1 85 b6 c5 40 93 39 96 be b6 04 a7 c1
       -9.56028 6.17853 -0.293408 -20.8773
000220 3f d7 f9 c1 ba e6 1f 41 f2 52 1b c1 b5 9a 0d c1
       -31.2301 9.99383 -9.70775 -8.85027
000230 c0 b2 c2 be a3 cc 96 3f 43 ff 94 3f 30 9f 94 be
       -0.38027 1.17812 1.16404 -0.290277
000240 af b5 2b bf 28 0a 1c c0 49 47 01 3f 44 8b 67 41
       -0.670741 -2.43812 0.504994 14.4715
000250 f0 85 28 c1 68 08 e7 3e 83 c0 7d c1 01 35 98 40
       -10.5327 0.451236 -15.8595 4.75647
000260 1c 5d 5d 3f db c4 41 40 3b c2 99 3f ce 6f 48 3e
       0.864702 3.02764 1.20124 0.195739
000270 39 d6 cf c0 4b c8 38 c1 87 6b 39 bf 4b 1f aa bf
       -6.4949 -11.5489 -0.724297 -1.32908
000280 55 6a 12 40 69 c7 bd be d2 8c 2d 40 f8 8a 1e bf
       2.28774 -0.370662 2.71172 -0.619308
000290 86 04 cc be 3e b3 87 40 3b 70 5e c1 eb ad 69 40
       -0.398472 4.24063 -13.9024 3.65124
0002a0 8a b0 43 c1 7b 88 5c 40 36 cd 2d c0 ba 49 c9 40
       -12.2306 3.44583 -2.71565 6.29025
0002b0 5c 57 dc be a8 18 33 40 15 1d 5a c1 e0 d6 89 40
       -0.430354 2.79838 -13.6321 4.30748
0002c0 b6 f6 96 3e c7 ba 12 c0 54 63 a2 c1 f3 c8 43 c0
       0.294851 -2.29265 -20.2985 -3.05914
0002d0 12 f7 0c c1 71 8f 17 c1 9b e3 2c be df 1a d0 3f
       -8.81032 -9.47252 -0.168837 1.62582
0002e0 33 33 55 40 09 18 dd bd 38 84 96 bf 81 cf 83 c0
       3.33125 -0.107956 -1.17591 -4.11908
0002f0 8a ab 89 40
       4.30219

_initializer_B1 f4 [9]
000000 92 3f 14 c0 7a 36 31 40 a0 df 47 3e 29 5c 4f 3e
       -2.31638 2.76895 0.195189 0.2025
000010 2e 01 18 bd aa 65 ef 3f 81 5f 0b 3f ae f0 8a 3f
       -0.0371105 1.87029 0.544426 1.08547
000020 25 40 bd bf
       -1.47852

weight f4 [21, 4]
000000 72 0a 82 41 72 a7 f0 bf af 42 81 c0 45 9d 99 be
       16.2551 -1.88011 -4.03939 -0.300028
000010 eb 1c 5f 40 10 1f 0c bf a4 70 51 c1 36 ae 33 3f
       3.48614 -0.547349 -13.09 0.701877
000020 4b ab 89 bf 7e a9 a1 c0 16 a4 99 bf 43 58 09 3f
       -1.07554 -5.05194 -1.20032 0.536503
000030 91 7e 78 c1 d4 9a 6c c0 d8 81 d5 40 41 61 20 be
       -15.5309 -3.69695 6.6721 -0.156621
000040 72 c4 cc c0 47 72 17 40 32 c9 22 c0 3b 70 aa 3f
       -6.39898 2.36635 -2.54353 1.33155
000050 94 d9 30 40 99 2a 02 40 15 8c f1 40 c2 dd 4d 3f
       2.76328 2.03385 7.54835 0.804165
000060 d5 78 6c 41 5c 77 45 40 25 e9 48 c0 ac 8e bc 3d
       14.7795 3.08541 -3.13923 0.092069
000070 f1 80 0d 41 50 8a 22 3f 59 6e 8b 40 13 bb 2a 3f
       8.84398 0.634923 4.35722 0.666917
000080 47 c6 5a 3e 37 31 89 bc ab b0 49 be fc 56 cb be
       0.213647 -0.0167471 -0.196963 -0.397148
000090 b0 03 3b 41 f5 84 a3 40 f8 53 29 40 22 a5 39 be
       11.6884 5.10998 2.64575 -0.181294
0000a0 e7 00 12 41 09 50 f7 bf ed d3 29 40 9e 99 34 bf
       9.12522 -1.93213 2.65356 -0.705469
0000b0 a5 66 e7 bf 0a 4b 81 40 da 72 07 41 8f 34 e8 3e
       -1.80782 4.04041 8.46554 0.453526
0000c0 09 f9 5c 41 64 06 32 c0 d7 2f 7c 40 ad 4e b6 3e
       13.8108 -2.78164 3.94042 0.356069
0000d0 9d 80 5b c1 ee 08 6d c0 88 4b 06 41 20 35 57 3d
       -13.7189 -3.70367 8.39344 0.0525409
0000e0 b4 93 41 3c 2b fc b1 3e 8e 02 b4 bd 5d 51 ea be
       0.011815 0.347627 -0.0878955 -0.457652
0000f0 5c ac 74 40 81 3e 59 40 d0 b3 9d 3f 4c 53 44 be
       3.82302 3.39444 1.23205 -0.191724
000100 de 76 9c c0 96 5e 37 bf 9b fe 99 40 9a b3 e6 3e
       -4.88951 -0.716287 4.81233 0.450589
000110 c7 68 85 be 99 28 32 3e 8d 26 07 be 46 94 86 be
       -0.260565 0.173983 -0.131983 -0.26285
000120 ed 64 20 c0 bb b8 c1 bf 1a d1 10 c1 36 74 0f 3f
       -2.50616 -1.51345 -9.05105 0.560367
000130 20 63 79 c1 16 35 1a 40 1f f4 02 c0 30 f2 b2 bd
       -15.5867 2.40949 -2.04615 -0.087376
000140 cb b9 78 c0 d0 ed cb c0 41 d4 4f 40 af 08 a6 be
       -3.88634 -6.37278 3.24733 -0.324285

bias f4 [21]
000000 51 bd 9d bf 9d 85 a5 3f 21 93 12 40 aa 45 ac be
       -1.23234 1.29314 2.29023 -0.336469
000010 b1 a4 c4 be 95 d4 ed 3f 32 f7 aa 3d 34 d7 e5 3f
       -0.384069 1.85805 0.0834793 1.79563
000020 f7 ad 8e be 9a 69 c1 bd 24 76 52 bd 74 d1 4c 3f
       -0.278671 -0.0944397 -0.0513822 0.800071
000030 5e be 55 3e 56 2c 4e 3f 9a 3f f6 be 68 e8 37 40
       0.208734 0.805364 -0.480954 2.87356
000040 a9 87 c4 3f 9b 72 75 be 8d d1 ca 3f 77 eb 06 3d
       1.53539 -0.239695 1.58452 0.0329394
000050 da 20 23 3e
       0.159305

weight f4 [9, 21]
000000 c1 1c 35 c0 28 0a 22 c0 71 c9 0f 40 4f 40 d3 bf
       -2.82988 -2.53187 2.24667 -1.6504
000010 42 78 34 bf 9b 1b cb 3f 83 6e db 40 ee 7c 13 c0
       -0.70496 1.58678 6.85724 -2.3045
000020 2e 2b 23 bd 2a a9 0f 40 47 8f 2b 40 33 dc 28 40
       -0.0398361 2.2447 2.68062 2.63844
000030 87 fe 57 40 23 bb 72 3f 19 ab dd be 90 88 3d c0
       3.37491 0.948168 -0.432946 -2.96146
000040 c0 ec 9e bf 25 5c a0 be 44 dd 37 40 62 e7 0c 41
       -1.2416 -0.313203 2.87288 8.80649
000050 50 e2 f3 bd f4 37 8b c0 0a 11 8a 40 d3 87 46 c0
       -0.119084 -4.35058 4.31458 -3.10204
000060 75 3c 14 c0 fd f6 a4 c1 1f f4 e8 bf bb 61 5f 40
       -2.31619 -20.6206 -1.81995 3.49034
000070 b9 1e 80 3d 4c 71 35 3e 5d 8c 09 3f b3 5f e7 be
       0.0625586 0.17719 0.537298 -0.451902
000080 19 7d bb 3d 02 82 93 40 df 4f b3 40 4f a2 0f 3d
       0.0915472 4.60962 5.6035 0.0350669
000090 ac 00 33 3f f8 53 ab bf 6d a0 ca 3d 6a f6 d7 c0
       0.699229 -1.3385 0.0989388 -6.74883
0000a0 be 9f 39 c1 ef fe 06 c1 b1 4e 35 be cf 15 55 3e
       -11.6015 -8.43724 -0.177058 0.208091
0000b0 d1 47 9f 3d 3d 49 4e 40 6e 34 48 3f 2f fc e0 3d
       0.0777737 3.22322 0.78205 0.109856
0000c0 68 79 a8 c0 60 e5 2b c1 8a 5a 2a 3e 22 c3 74 c0
       -5.26482 -10.7435 0.166361 -3.82441
0000d0 aa 65 97 3f 6b 9f 40 c0 58 a8 4c c1 d3 c1 02 40
       1.18279 -3.00973 -12.7911 2.04308
0000e0 8d d2 15 3e bf 10 e2 be b4 ca ec 3e 7a a6 8f be
       0.146311 -0.441534 0.462484 -0.280567
0000f0 a1 b9 8e 3f 7f fa 37 3f 1d 38 0b c0 2b c1 09 c1
       1.11504 0.718666 -2.1753 -8.60966
000100 c9 1f cc bf 98 fa 91 bf 2b 30 74 bf be f9 11 bf
       -1.59472 -1.14046 -0.95386 -0.570217
000110 49 ba 96 bf a4 53 09 c0 ef 38 a9 bf 59 8b b7 be
       -1.17756 -2.14573 -1.32205 -0.358485
000120 f4 32 9e bf d4 e8 3a bd 62 69 78 bf 05 51 bb bf
       -1.23593 -0.0456322 -0.970358 -1.46341
000130 5b 99 9c bf 34 9c da be 5e 68 36 c0 c5 55 8d bf
       -1.22343 -0.426973 -2.85012 -1.10418
000140 fe 61 fb be 69 e4 7f bf 76 51 74 bf 7f bf 4c bf
       -0.490982 -0.999579 -0.954368 -0.799797
000150 da fe f8 c0 f0 8a d4 bf f3 ab 9d bf c0 3e 22 bf
       -7.78111 -1.66049 -1.23181 -0.63377
000160 ea 08 68 bf 86 38 2a bf 6c 21 f0 bf eb a8 9e bf
       -0.906386 -0.664925 -1.87602 -1.23953
000170 f8 34 57 be 84 0c 70 bf 87 f9 d2 bd d3 30 38 bf
       -0.210163 -0.937691 -0.103015 -0.719495
000180 ea 04 a4 bf 60 ea c7 bf 97 3c 96 be 68 96 2a c0
       -1.2814 -1.56184 -0.293431 -2.66543
000190 08 e6 14 bf e0 68 ef be da 8f b8 bf 02 9b 77 bf
       -0.581635 -0.467597 -1.44189 -0.967209
0001a0 c7 63 8a bf a9 9f f9 40 a9 4d 06 40 72 fd 1b be
       -1.08117 7.80074 2.09849 -0.152334
0001b0 9f 3c 8a c0 d4 d4 48 40 74 98 33 bf 1f 85 bd c0
       -4.3199 3.13799 -0.701545 -5.9225
0001c0 31 40 da 3e f3 90 d9 be 0c 1f 47 40 b6 d6 b7 bf
       0.426271 -0.424934 3.11127 -1.43624
0001d0 b9 53 ba bf f8 e1 3c 3f 79 01 8a 3f 59 35 98 be
       -1.45568 0.737823 1.07817 -0.297282
0001e0 b8 92 dd 3f 10 5d f8 3f dc 49 84 be 33 50 6b c0
       1.73104 1.94034 -0.258376 -3.67677
0001f0 82 a8 d7 c0 2b 87 fe bf b0 ac ae c0 bf 43 bd 3f
       -6.73932 -1.9885 -5.45858 1.47863
000200 57 e8 83 3e 84 9e 29 41 05 32 23 3f 07 ce 32 c1
       0.257632 10.6012 0.637482 -11.1753
000210 e8 f6 18 c1 85 b6 c5 40 93 39 96 be b6 04 a7 c1
       -9.56028 6.17853 -0.293408 -20.8773
000220 3f d7 f9 c1 ba e6 1f 41 f2 52 1b c1 b5 9a 0d c1
       -31.2301 9.99383 -9.70775 -8.85027
000230 c0 b2 c2 be a3 cc 96 3f 43 ff 94 3f 30 9f 94 be
       -0.38027 1.17812 1.16404 -0.290277
000240 af b5 2b bf 28 0a 1c c0 49 47 01 3f 44 8b 67 41
       -0.670741 -2.43812 0.504994 14.4715
000250 f0 85 28 c1 68 08 e7 3e 83 c0 7d c1 01 35 98 40
       -10.5327 0.451236 -15.8595 4.75647
000260 1c 5d 5d 3f db c4 41 40 3b c2 99 3f ce 6f 48 3e
       0.864702 3.02764 1.20124 0.195739
000270 39 d6 cf c0 4b c8 38 c1 87 6b 39 bf 4b 1f aa bf
       -6.4949 -11.5489 -0.724297 -1.32908
000280 55 6a 12 40 69 c7 bd be d2 8c 2d 40 f8 8a 1e bf
       2.28774 -0.370662 2.71172 -0.619308
000290 86 04 cc be 3e b3 87 40 3b 70 5e c1 eb ad 69 40
       -0.398472 4.24063 -13.9024 3.65124
0002a0 8a b0 43 c1 7b 88 5c 40 36 cd 2d c0 ba 49 c9 40
       -12.2306 3.44583 -2.71565 6.29025
0002b0 5c 57 dc be a8 18 33 40 15 1d 5a c1 e0 d6 89 40
       -0.430354 2.79838 -13.6321 4.30748
0002c0 b6 f6 96 3e c7 ba 12 c0 54 63 a2 c1 f3 c8 43 c0
       0.294851 -2.29265 -20.2985 -3.05914
0002d0 12 f7 0c c1 71 8f 17 c1 9b e3 2c be df 1a d0 3f
       -8.81032 -9.47252 -0.168837 1.62582
0002e0 33 33 55 40 09 18 dd bd 38 84 96 bf 81 cf 83 c0
       3.33125 -0.107956 -1.17591 -4.11908
0002f0 8a ab 89 40
       4.30219

bias f4 [9]
000000 92 3f 14 c0 7a 36 31 40 a0 df 47 3e 29 5c 4f 3e
       -2.31638 2.76895 0.195189 0.2025
000010 2e 01 18 bd aa 65 ef 3f 81 5f 0b 3f ae f0 8a 3f
       -0.0371105 1.87029 0.544426 1.08547
000020 25 40 bd bf
       -1.47852
