model_dir/VertCAS_8.pt (torch, 8207 bytes, 8 tensors)

_initializer_W0 f4 [21, 4]
00000000: 6900 dd40 1b63 27bd 26fc 9e3f a25d c93f
00000010: 1c99 9f3f cec2 8b40 57b2 4740 7a39 103f
00000020: be30 4540 af25 ae40 b246 a13f 809c f03e
00000030: a0ec 0141 3a23 5ac0 6614 6b40 5f41 babf
00000040: 226c 2841 8577 813f c03e ecc0 bdf2 2abd
00000050: eeb1 d43f fb3f 6dc0 dd44 35bf 8d98 69be
00000060: 3333 bb3f 3cda 90bf c6dc 2ec1 d652 483f
00000070: 93a9 2841 c8ea c2bf f6d1 3b40 9b3b 1ebf
00000080: c286 71c1 53d0 6dc0 20d2 4d40 005d 9fbd
00000090: 836c f9be 7380 a03e c8ae 79bd 4fac 433e
000000a0: 70ce 7fc1 edf0 6540 75ae c0be ac72 a13c
000000b0: c66d 95c1 24b9 4c40 b5c3 27c0 d42c 10be
000000c0: ad69 8fc1 390b efbf a627 bd40 965f a6be
000000d0: 7c9b aa40 5518 0d40 ca6d e3be c078 22c0
000000e0: 058c c6be f888 bd3d cc26 603e e065 c6be
000000f0: b29d ffbf 19ad 53be 3fc6 f440 499f 263f
00000100: 584a a2c1 9d2e 7fbf 33c4 a53f 07ce 993e
00000110: 11a0 10bd bb52 03bc 0c3c 8fbe d178 62be
00000120: e945 853e 1f2c bb3e f1bd bf3c 58e4 87be
00000130: bd1d 1fc0 0000 ccbf e605 f2c0 0a69 053f
00000140: 52b8 1b41 f300 763e b9c2 d640 431f 8c3e
6.9063 -0.040866 1.24207 1.57317 1.24686 4.36753 3.12026 0.563377
3.0811 5.4421 1.25997 0.469944 8.12027 -3.4084 3.67312 -1.45512
10.5264 1.01146 -7.38266 -0.0417354 1.66168 -3.70703 -0.708082 -0.228121
1.4625 -1.13166 -10.9289 0.782514 10.5414 -1.52279 2.93469 -0.618097
-15.0954 -3.71584 3.21595 -0.0778141 -0.487156 0.31348 -0.0609577 0.191087
-15.9879 3.59283 -0.376331 0.019708 -18.6786 3.1988 -2.62132 -0.140796
-17.9266 -1.86753 5.91109 -0.324948 5.33148 2.20461 -0.444197 -2.53862
-0.387787 0.0925464 0.218898 -0.387496 -1.997 -0.206715 7.6492 0.650868
-20.2863 -0.996805 1.29505 0.3004 -0.0353089 -0.00801533 -0.279755 -0.221164
0.260299 0.365571 0.023406 -0.265414 -2.48619 -1.59375 -7.56322 0.521134
9.7325 0.240238 6.71127 0.273676

_initializer_B0 f4 [21]
00000000: 6b46 623f 72a7 1640 76a7 d33e ebad f93e
00000010: bccc 04bf eacf 2840 083d 2940 f0fa 4cbd
00000020: 177d 0a3d 0937 05bf 3603 643f 5e75 6e3d
00000030: dac6 cfbe c6bf eb3f 8f51 bebe a27a bb3f
00000040: 1092 953f 077c 02bf dbdc b8be 959a a53f
00000050: c493 2d3f
0.883887 2.35397 0.413387 0.487655 -0.518749 2.63769 2.64435 -0.050044
0.0338107 -0.520371 0.890674 0.0582174 -0.405814 1.84179 -0.371716 1.46468
1.16852 -0.509705 -0.36106 1.29378 0.678036

_initializer_W1 f4 [9, 21]
00000000: d78a 263e 8e21 283f 87fe 0f40 b823 9cbf
00000010: 0e9e c1be 8bfc 6a3e ec16 213f 1006 d140
00000020: 17d9 3741 d8f5 abbe 5c1b 48c0 014d 5341
00000030: 29ae 6ac0 7992 34bf 1a4e 593e 9296 c23f
00000040: ef55 d1c0 67ba d73d a9de 92be b37a 573e
00000050: c89a 0d3f 0ce5 383f f2eb c93b bf64 33be
00000060: 6f81 0fc1 d235 8240 6f64 7240 8594 95c0
00000070: d330 3040 a60a 6cc1 7e1a 9fbe 1afa e1c0
00000080: a3bb 12c1 d2ba 1041 6536 6240 f20b a73e
00000090: 13d5 eb3e 2f89 533f 242b 6f3e 53e6 4b3d
000000a0: 056b 7cbf a0fd 843f a14a b0c0 e735 32c0
000000b0: 379a 00c2 b823 1ec0 4ed0 46bd 1241 a63c
000000c0: 2767 483d 7b54 65c2 4980 b23f 3cf8 c13e
000000d0: 02b7 3640 950d 4b3e b9fc 4d40 9e7b 3fc0
000000e0: 239e d43e 01c1 1ac0 40bd 613f e90e 8abe
000000f0: f582 bf3e 2d26 923f 0b41 debf f19d 383f
00000100: ca19 0e3f ff21 33c0 593b 003d 2c82 5940
00000110: 020e 9dbf d47f f63d 693a 1f40 9318 6dc1
00000120: 484e 963e 002f 30c2 4260 bcc1 1f4b cbbf
00000130: 69c8 24bf 2f30 9bbe aa71 6dc2 7dd0 db3f
00000140: 546e e2bd addb 00be 8dd1 16c0 4e0b 9a3f
00000150: 6892 54bf b3b5 86bf de1d a1be fe0f c0be
00000160: 6e13 2abf d7c0 8ebf 5053 8fbf 4a26 d7be
00000170: 9851 84bf 6135 96be 8e95 34bf 41d4 9dbf
00000180: 295c dfbf c1e1 75be d2fb 46be 4c37 d9bf
00000190: 40d9 80bf a06b 9fbe aeb8 48be 55a4 56c0
000001a0: bd52 a2bf bdc6 fe3f e5ed 883f 0187 b0bf
000001b0: e334 683f b988 c840 8ba6 5140 8dee 06c1
000001c0: a9d9 37c0 43ad 28c1 16ef 81bd 97a8 ae3f
000001d0: 2619 dbc0 865a 31c0 6005 6c3f 6a12 1cbe
000001e0: 2f18 1c3e 02d4 c03f ad3d 02bd 36e6 d5bd
000001f0: 8cd6 b340 849f 88be d387 debf ad34 7940
00000200: f174 00c1 471f 23be 57ec 7dc0 529d b63e
00000210: 7496 993c 5f47 91c2 46b1 8ec0 041e c0be
00000220: 01c1 2c3f b801 bec0 f7e4 1c41 0682 6cbf
00000230: b4bc bc3d ceaa 66c1 2d43 c940 5ef7 16bd
00000240: 6f10 5d3e 9b1e 703f 335c 0441 6171 8c3f
00000250: 2827 febf 9d85 d9bf 87a2 9240 c3d8 5240
00000260: 0dc5 693f 8c10 4440 c6a7 d1c0 9c8a 84c0
00000270: 863d 7dbe 6553 9a40 d105 03c1 2aa9 4cc1
00000280: 2c61 85be fd49 ac3e dc46 d33f 9bc9 8a40
00000290: 5af5 b1be 00a4 3bbd 51da f7c0 bada 3440
000002a0: 7b4d 8fbe f706 3340 0d6d 34bf dfbf 3ebd
000002b0: bc74 65c1 091b 14c0 9e41 8f3f b30c 76c1
000002c0: 2de0 0dc1 08e9 e13e 753c 8340 678f 14c1
000002d0: 8195 2141 4243 8f3e deae bfbe 0c92 8ebe
000002e0: 4a9a 2f3f e30b 89bc 2d05 04be 0612 9d40
000002f0: f44f 05c1
0.162639 0.656762 2.24991 -1.21984 -0.378159 0.229479 0.629256 6.53199
11.4905 -0.33586 -3.12667 13.2063 -3.66688 -0.70536 0.212212 1.52022
-6.54174 0.105336 -0.286855 0.210429 0.553143 0.722245 0.00616216 -0.175189
-8.9691 4.06907 3.78738 -4.67438 2.75298 -14.7526 -0.310749 -7.06178
-9.17081 9.04561 3.53457 0.326263 0.46061 0.826312 0.233563 0.0497802
-0.986008 1.03899 -5.50911 -2.78454 -32.1506 -2.47093 -0.0485385 0.0202947
0.0489265 -57.3325 1.39454 0.378847 2.85492 0.198294 3.21855 -2.99192
0.415269 -2.41803 0.881794 -0.269645 0.374046 1.14179 -1.73636 0.72116
0.555081 -2.79895 0.0313066 3.39857 -1.22699 0.120361 2.48794 -14.8185
0.293566 -44.0459 -23.547 -1.58823 -0.643683 -0.303102 -59.361 1.7173
-0.110562 -0.125838 -2.35654 1.20347 -0.830359 -1.05242 -0.314681 -0.375122
-0.664359 -1.11526 -1.11973 -0.420214 -1.03374 -0.293376 -0.705407 -1.23304
-1.745 -0.240119 -0.19432 -1.697 -1.00663 -0.311368 -0.196017 -3.35378
-1.26815 1.99044 1.06976 -1.37912 0.907057 6.26669 3.27579 -8.43324
-2.87266 -10.5423 -0.0634443 1.36452 -6.84682 -2.77115 0.921957 -0.152414
0.152436 1.50647 -0.0317971 -0.104443 5.61994 -0.266842 -1.73852 3.89384
-8.02855 -0.159299 -3.96755 0.356669 0.0187485 -72.6394 -4.45914 -0.375229
0.67482 -5.93771 9.8059 -0.923859 0.0921568 -14.4167 6.28945 -0.036857
0.215883 0.937967 8.27251 1.09721 -1.98557 -1.69939 4.58234 3.29448
0.913163 3.06351 -6.55173 -4.14192 -0.247305 4.82268 -8.18892 -12.7913
-0.260507 0.336502 1.6506 4.33711 -0.347575 -0.0458107 -7.7454 2.82585
-0.279888 2.7973 -0.704789 -0.0465697 -14.341 -2.31415 1.11919 -15.3781
-8.86723 0.441231 4.10113 -9.28501 10.099 0.27981 -0.374381 -0.278458
0.685948 -0.0167293 -0.128926 4.90845 -8.33202

_initializer_B1 f4 [9]
00000000: f112 c43e 2506 0d40 59da 113f bc06 29bf
00000010: cd23 9bbf a9f6 2140 d80d b3be 35b4 01bf
00000020: 3cfa 27bf
0.382957 2.2035 0.569738 -0.660259 -1.21203 2.53068 -0.349715 -0.506656
-0.656162

weight f4 [21, 4]
00000000: 6900 dd40 1b63 27bd 26fc 9e3f a25d c93f
00000010: 1c99 9f3f cec2 8b40 57b2 4740 7a39 103f
00000020: be30 4540 af25 ae40 b246 a13f 809c f03e
00000030: a0ec 0141 3a23 5ac0 6614 6b40 5f41 babf
00000040: 226c 2841 8577 813f c03e ecc0 bdf2 2abd
00000050: eeb1 d43f fb3f 6dc0 dd44 35bf 8d98 69be
00000060: 3333 bb3f 3cda 90bf c6dc 2ec1 d652 483f
00000070: 93a9 2841 c8ea c2bf f6d1 3b40 9b3b 1ebf
00000080: c286 71c1 53d0 6dc0 20d2 4d40 005d 9fbd
00000090: 836c f9be 7380 a03e c8ae 79bd 4fac 433e
000000a0: 70ce 7fc1 edf0 6540 75ae c0be ac72 a13c
000000b0: c66d 95c1 24b9 4c40 b5c3 27c0 d42c 10be
000000c0: ad69 8fc1 390b efbf a627 bd40 965f a6be
000000d0: 7c9b aa40 5518 0d40 ca6d e3be c078 22c0
000000e0: 058c c6be f888 bd3d cc26 603e e065 c6be
000000f0: b29d ffbf 19ad 53be 3fc6 f440 499f 263f
00000100: 584a a2c1 9d2e 7fbf 33c4 a53f 07ce 993e
00000110: 11a0 10bd bb52 03bc 0c3c 8fbe d178 62be
00000120: e945 853e 1f2c bb3e f1bd bf3c 58e4 87be
00000130: bd1d 1fc0 0000 ccbf e605 f2c0 0a69 053f
00000140: 52b8 1b41 f300 763e b9c2 d640 431f 8c3e
6.9063 -0.040866 1.24207 1.57317 1.24686 4.36753 3.12026 0.563377
3.0811 5.4421 1.25997 0.469944 8.12027 -3.4084 3.67312 -1.45512
10.5264 1.01146 -7.38266 -0.0417354 1.66168 -3.70703 -0.708082 -0.228121
1.4625 -1.13166 -10.9289 0.782514 10.5414 -1.52279 2.93469 -0.618097
-15.0954 -3.71584 3.21595 -0.0778141 -0.487156 0.31348 -0.0609577 0.191087
-15.9879 3.59283 -0.376331 0.019708 -18.6786 3.1988 -2.62132 -0.140796
-17.9266 -1.86753 5.91109 -0.324948 5.33148 2.20461 -0.444197 -2.53862
-0.387787 0.0925464 0.218898 -0.387496 -1.997 -0.206715 7.6492 0.650868
-20.2863 -0.996805 1.29505 0.3004 -0.0353089 -0.00801533 -0.279755 -0.221164
0.260299 0.365571 0.023406 -0.265414 -2.48619 -1.59375 -7.56322 0.521134
9.7325 0.240238 6.71127 0.273676

bias f4 [21]
00000000: 6b46 623f 72a7 1640 76a7 d33e ebad f93e
00000010: bccc 04bf eacf 2840 083d 2940 f0fa 4cbd
00000020: 177d 0a3d 0937 05bf 3603 643f 5e75 6e3d
00000030: dac6 cfbe c6bf eb3f 8f51 bebe a27a bb3f
00000040: 1092 953f 077c 02bf dbdc b8be 959a a53f
00000050: c493 2d3f
0.883887 2.35397 0.413387 0.487655 -0.518749 2.63769 2.64435 -0.050044
0.0338107 -0.520371 0.890674 0.0582174 -0.405814 1.84179 -0.371716 1.46468
1.16852 -0.509705 -0.36106 1.29378 0.678036

weight f4 [9, 21]
00000000: d78a 263e 8e21 283f 87fe 0f40 b823 9cbf
00000010: 0e9e c1be 8bfc 6a3e ec16 213f 1006 d140
00000020: 17d9 3741 d8f5 abbe 5c1b 48c0 014d 5341
00000030: 29ae 6ac0 7992 34bf 1a4e 593e 9296 c23f
00000040: ef55 d1c0 67ba d73d a9de 92be b37a 573e
00000050: c89a 0d3f 0ce5 383f f2eb c93b bf64 33be
00000060: 6f81 0fc1 d235 8240 6f64 7240 8594 95c0
00000070: d330 3040 a60a 6cc1 7e1a 9fbe 1afa e1c0
00000080: a3bb 12c1 d2ba 1041 6536 6240 f20b a73e
00000090: 13d5 eb3e 2f89 533f 242b 6f3e 53e6 4b3d
000000a0: 056b 7cbf a0fd 843f a14a b0c0 e735 32c0
000000b0: 379a 00c2 b823 1ec0 4ed0 46bd 1241 a63c
000000c0: 2767 483d 7b54 65c2 4980 b23f 3cf8 c13e
000000d0: 02b7 3640 950d 4b3e b9fc 4d40 9e7b 3fc0
000000e0: 239e d43e 01c1 1ac0 40bd 613f e90e 8abe
000000f0: f582 bf3e 2d26 923f 0b41 debf f19d 383f
00000100: ca19 0e3f ff21 33c0 593b 003d 2c82 5940
00000110: 020e 9dbf d47f f63d 693a 1f40 9318 6dc1
00000120: 484e 963e 002f 30c2 4260 bcc1 1f4b cbbf
00000130: 69c8 24bf 2f30 9bbe aa71 6dc2 7dd0 db3f
00000140: 546e e2bd addb 00be 8dd1 16c0 4e0b 9a3f
00000150: 6892 54bf b3b5 86bf de1d a1be fe0f c0be
00000160: 6e13 2abf d7c0 8ebf 5053 8fbf 4a26 d7be
00000170: 9851 84bf 6135 96be 8e95 34bf 41d4 9dbf
00000180: 295c dfbf c1e1 75be d2fb 46be 4c37 d9bf
00000190: 40d9 80bf a06b 9fbe aeb8 48be 55a4 56c0
000001a0: bd52 a2bf bdc6 fe3f e5ed 883f 0187 b0bf
000001b0: e334 683f b988 c840 8ba6 5140 8dee 06c1
000001c0: a9d9 37c0 43ad 28c1 16ef 81bd 97a8 ae3f
000001d0: 2619 dbc0 865a 31c0 6005 6c3f 6a12 1cbe
000001e0: 2f18 1c3e 02d4 c03f ad3d 02bd 36e6 d5bd
000001f0: 8cd6 b340 849f 88be d387 debf ad34 7940
00000200: f174 00c1 471f 23be 57ec 7dc0 529d b63e
00000210: 7496 993c 5f47 91c2 46b1 8ec0 041e c0be
00000220: 01c1 2c3f b801 bec0 f7e4 1c41 0682 6cbf
00000230: b4bc bc3d ceaa 66c1 2d43 c940 5ef7 16bd
00000240: 6f10 5d3e 9b1e 703f 335c 0441 6171 8c3f
00000250: 2827 febf 9d85 d9bf 87a2 9240 c3d8 5240
00000260: 0dc5 693f 8c10 4440 c6a7 d1c0 9c8a 84c0
00000270: 863d 7dbe 6553 9a40 d105 03c1 2aa9 4cc1
00000280: 2c61 85be fd49 ac3e dc46 d33f 9bc9 8a40
00000290: 5af5 b1be 00a4 3bbd 51da f7c0 bada 3440
000002a0: 7b4d 8fbe f706 3340 0d6d 34bf dfbf 3ebd
000002b0: bc74 65c1 091b 14c0 9e41 8f3f b30c 76c1
000002c0: 2de0 0dc1 08e9 e13e 753c 8340 678f 14c1
000002d0: 8195 2141 4243 8f3e deae bfbe 0c92 8ebe
000002e0: 4a9a 2f3f e30b 89bc 2d05 04be 0612 9d40
000002f0: f44f 05c1
0.162639 0.656762 2.24991 -1.21984 -0.378159 0.229479 0.629256 6.53199
11.4905 -0.33586 -3.12667 13.2063 -3.66688 -0.70536 0.212212 1.52022
-6.54174 0.105336 -0.286855 0.210429 0.553143 0.722245 0.00616216 -0.175189
-8.9691 4.06907 3.78738 -4.67438 2.75298 -14.7526 -0.310749 -7.06178
-9.17081 9.04561 3.53457 0.326263 0.46061 0.826312 0.233563 0.0497802
-0.986008 1.03899 -5.50911 -2.78454 -32.1506 -2.47093 -0.0485385 0.0202947
0.0489265 -57.3325 1.39454 0.378847 2.85492 0.198294 3.21855 -2.99192
0.415269 -2.41803 0.881794 -0.269645 0.374046 1.14179 -1.73636 0.72116
0.555081 -2.79895 0.0313066 3.39857 -1.22699 0.120361 2.48794 -14.8185
0.293566 -44.0459 -23.547 -1.58823 -0.643683 -0.303102 -59.361 1.7173
-0.110562 -0.125838 -2.35654 1.20347 -0.830359 -1.05242 -0.314681 -0.375122
-0.664359 -1.11526 -1.11973 -0.420214 -1.03374 -0.293376 -0.705407 -1.23304
-1.745 -0.240119 -0.19432 -1.697 -1.00663 -0.311368 -0.196017 -3.35378
-1.26815 1.99044 1.06976 -1.37912 0.907057 6.26669 3.27579 -8.43324
-2.87266 -10.5423 -0.0634443 1.36452 -6.84682 -2.77115 0.921957 -0.152414
0.152436 1.50647 -0.0317971 -0.104443 5.61994 -0.266842 -1.73852 3.89384
-8.02855 -0.159299 -3.96755 0.356669 0.0187485 -72.6394 -4.45914 -0.375229
0.67482 -5.93771 9.8059 -0.923859 0.0921568 -14.4167 6.28945 -0.036857
0.215883 0.937967 8.27251 1.09721 -1.98557 -1.69939 4.58234 3.29448
0.913163 3.06351 -6.55173 -4.14192 -0.247305 4.82268 -8.18892 -12.7913
-0.260507 0.336502 1.6506 4.33711 -0.347575 -0.0458107 -7.7454 2.82585
-0.279888 2.7973 -0.704789 -0.0465697 -14.341 -2.31415 1.11919 -15.3781
-8.86723 0.441231 4.10113 -9.28501 10.099 0.27981 -0.374381 -0.278458
0.685948 -0.0167293 -0.128926 4.90845 -8.33202

bias f4 [9]
00000000: f112 c43e 2506 0d40 59da 113f bc06 29bf
00000010: cd23 9bbf a9f6 2140 d80d b3be 35b4 01bf
00000020: 3cfa 27bf
0.382957 2.2035 0.569738 -0.660259 -1.21203 2.53068 -0.349715 -0.506656
-0.656162
