model_dir/VertCAS_7.onnx (onnx, 1432 bytes, 4 tensors)

W0 f4 [21, 4]
-15.3617 -2.31186 5.66435 -0.133662 -0.301038 0.404109 -0.0517816 -0.281247
2.42798 1.69318 1.73155 0.920895 0.331589 0.138417 -0.104837 -0.507814
-0.0507922 -0.362049 -0.250114 -0.0204768 -0.285335 -0.278979 0.164262 -0.163534
-11.5636 2.84884 -3.17579 0.0206439 19.821 -0.626148 -1.87189 0.142318
-1.54362 -1.48539 -8.28237 0.908375 -0.710165 -6.63092 6.74127 0.261793
-6.93742 -2.59245 -3.62448 0.805117 -3.37117 -0.977951 -8.36353 0.19326
2.61769 1.51525 8.78208 0.510678 14.9823 3.20274 -3.17105 0.0370953
1.37127 -2.0437 3.18001 -0.411862 -0.82598 0.81969 12.2384 0.595222
3.18816 2.73912 3.22045 0.912916 -1.0653 -2.31326 3.59973 0.485456
0.315606 -0.099294 -0.165369 -0.240735 0.408553 1.95771e-05 -0.044665 -0.143789
18.2762 -2.56005 2.09141 -0.134764
00000000: 86c9 75c1 84f5 13c0 5b42 b540 b1de 08be
00000010: a721 9abe 60e7 ce3e f118 54bd 9bff 8fbe
00000020: 0664 1b40 1fba d83f 6ea3 dd3f c6bf 6b3f
00000030: 09c6 a93e 30bd 0d3e c8b4 d6bd 1900 02bf
00000040: 7b0b 50bd 7d5e b9be f10e 80be f6be a7bc
00000050: 6e17 92be 56d6 8ebe 4c34 283e 7575 27be
00000060: 8104 39c1 6553 3640 2540 4bc0 651d a93c
00000070: 6891 9e41 3c4b 20bf 179a efbf cfbb 113e
00000080: 5795 c5bf 4221 bebf 9684 04c1 448b 683f
00000090: 60cd 35bf 7f30 d4c0 7cb8 d740 bb09 863e
000000a0: 58ff ddc0 b3ea 25c0 7bf7 67c0 261c 4e3f
000000b0: 40c1 57c0 ff5a 7abf 05d1 05c1 f3e5 453e
000000c0: 3c88 2740 b6f3 c13f 6683 0c41 cbbb 023f
000000d0: 80b7 6f41 b1f9 4c40 7cf2 4ac0 3ef1 173d
000000e0: c685 af3f fbcb 02c0 4985 4b40 93df d2be
000000f0: 6d73 53bf 34d7 513f 7dd0 4341 7860 183f
00000100: d00a 4c40 be4d 2f40 da1b 4e40 ddb4 693f
00000110: c05b 88bf 740c 14c0 fa61 6640 b08d f83e
00000120: 1c97 a13e a75a cbbd 7e56 29be 3c83 76be
00000130: dc2d d13e 8139 a437 a6f2 36bd 6c3d 13be
00000140: a835 9241 dcd7 23c0 a9d9 0540 93ff 09be

B0 f4 [21]
-0.595875 -0.433043 2.26039 -0.338235 -0.507836 -0.494616 0.0249045 1.35486
1.74764 1.54522 2.33334 0.752582 1.70721 -0.0358245 1.81114 1.16442
1.74002 1.23716 -0.292481 -0.275076 0.0686766
00000000: 448b 18bf d0b7 ddbe 3baa 1040 232d adbe
00000010: 8a01 02bf 4f3e fdbe 8604 cc3c 0d6c ad3f
00000020: abb2 df3f c5c9 c53f 7155 1540 37a9 403f
00000030: db85 da3f b6bc 12bd 6fd3 e73f b70b 953f
00000040: fab8 de3f 425b 9e3f 12c0 95be c3d6 8cbe
00000050: 51a6 8c3d

W1 f4 [9, 21]
-1.95444 -0.142768 -2.10736 -0.368228 -0.304245 0.365751 6.1239 -4.72077
1.01883 4.12975 0.154074 1.34464 1.22631 9.4789 -0.857613 0.283578
1.39329 -0.918281 -0.171623 -0.218359 8.18752 0.523539 -0.167607 1.1742
0.362875 0.184234 -0.40057 -21.5226 -0.22616 4.1478 3.83865 -10.8298
1.35173 -0.242968 3.52809 -1.56975 -0.419339 1.41732 -1.88561 0.048296
-0.188594 3.93945 6.17117 -0.159146 3.28941 -0.140128 -0.418403 -0.263785
-5.86756 -4.05003 0.145846 -5.91552 1.18713 2.1575 3.23106 0.671597
2.71142 -2.14233 -7.32832 1.97438 0.194545 -0.0435488 -6.27526 -0.687224
-0.287558 -1.72516 0.20964 -0.0764235 0.0822795 -3.36626 -0.604253 -1.15961
-0.679803 -0.754697 -1.88837 -1.00775 -1.0598 -0.404906 -1.40743 -0.538346
-0.460237 -0.0549416 -0.422645 -0.69316 -0.675121 -0.455893 -1.94676 0.117552
0.388836 0.26372 -2.97464 -0.253008 -0.431667 -1.1989 -0.872341 -2.23424
-0.675634 -1.15182 -0.384083 -0.854554 -1.28526 -0.968308 0.0886882 -0.313249
-0.677841 -8.54713 -0.0784231 0.449423 -0.254302 0.226546 -0.179841 -11.4587
0.441495 -14.0237 0.609117 2.82572 14.8255 -0.46084 -3.65286 0.614184
0.889768 0.649939 0.935902 -0.273348 -0.355944 -1.31038 1.61734 0.318262
1.46647 0.255068 -0.292532 0.38822 1.03708 4.00031 0.192002 -1.86328
-0.890292 0.488696 -3.8843 -7.81798 1.93517 2.52217 -0.253126 2.15177
-0.116919 0.108327 -5.66121 -9.54996 -0.201225 0.0621848 -0.460967 -0.0914492
0.0832539 -7.83761 4.09214 0.209189 0.71559 2.83827 -7.37836 -0.40162
-5.69425 -0.0611629 2.40133 -1.13394 -0.615146 0.0839409 -0.104854 -4.56611
9.79425 -0.388163 1.60666 0.234798 0.0364709 -0.194109 -5.92469 2.95242
0.867409 -4.48784 -0.256343 -0.403734 7.19395 -14.0734 1.37599 -10.9493
2.59585 2.64539 -0.171698 0.27609 -8.88935
00000000: 172b fabf c631 12be fcde 06c0 6188 bcbe
00000010: 00c6 9bbe b743 bb3e fdf6 c340 8c10 97c0
00000020: 0569 823f e926 8440 93c5 1d3e 2a1d ac3f
00000030: baf7 9c3f 93a9 1741 878c 5bbf 2331 913e
00000040: 5457 b23f 7714 6bbf f1bd 2fbe 8099 5fbe
00000050: 1500 0341 a706 063f 2ba1 2bbe 304c 963f
00000060: c1ca b93e d6a7 3c3e 8317 cdbe 492e acc1
00000070: 7d96 67be c7ba 8440 71ac 7540 dc46 2dc1
00000080: 7d05 ad3f 9acc 78be 3acc 6140 91ed c8bf
00000090: 9ab3 d6be be6a b53f ab5b f1bf 07d2 453d
000000a0: c91e 41be f31f 7c40 3a7a c540 2bf7 22be
000000b0: b285 5240 b77d 0fbe eb38 d6be d40e 87be
000000c0: 0dc3 bbc0 d999 81c0 a758 153e f14b bdc0
000000d0: e0f3 973f 7b14 0a40 b0c9 4e40 c8ed 2b3f
000000e0: e887 2d40 ef1b 09c0 9981 eac0 7cb8 fc3f
000000f0: ce36 473e 3a60 32bd eece c8c0 e9ed 2fbf
00000100: cd3a 93be 0bd2 dcbf deab 563e ed83 9cbd
00000110: 2882 a83d ce70 57c0 53b0 1abf 1a6e 94bf
00000120: 9207 2ebf d333 41bf 1cb6 f1bf f4fd 80bf
00000130: 87a7 87bf d74f cfbe ab26 b4bf 0bd1 09bf
00000140: 2fa4 ebbe 710a 61bd ed64 d8be ef72 31bf
00000150: bbd4 2cbf cf6a e9be 6f2f f9bf 1abf f03d
00000160: 8315 c73e 4f06 873e 8060 3ec0 448a 81be
00000170: 7503 ddbe 8e75 99bf bd51 5fbf cafd 0ec0
00000180: 5af6 2cbf d66e 93bf 87a6 c4be 0dc4 5abf
00000190: 6683 a4bf 08e3 77bf 29a2 b53d 2c62 a0be
000001a0: fd86 2dbf 0bc1 08c1 4a9c a0bd c51a e63e
000001b0: df33 82be adfb 673e 3d28 38be d656 37c1
000001c0: a20b e23e 1361 60c1 17ef 1b3f 99d8 3440
000001d0: 3f35 6d41 38f3 ebbe 75c8 69c0 2a3b 1d3f
000001e0: d6c7 633f 6762 263f 4697 6f3f 45f4 8bbe
000001f0: 4b3e b6be 88ba a7bf ff04 cf3f 3df3 a23e
00000200: 4ab5 bb3f 4698 823e c1c6 95be c6c4 c63e
00000210: 0abf 843f 8a02 8040 2c9c 443e f67f eebf
00000220: 2dea 63bf 5d36 fa3e 5f98 78c0 e42c fac0
00000230: a7b3 f73f 3c6b 2140 bb99 81be 9ab6 0940
00000240: 3b73 efbd 8cda dd3d a228 b5c0 a3cc 18c1
00000250: ed0d 4ebe 7db5 7e3d de03 ecbe b849 bbbd
00000260: 0581 aa3d b3cd fac0 d0f2 8240 a435 563e
00000270: e830 373f 37a6 3540 861b ecc0 23a1 cdbe
00000280: 4c37 b6c0 f385 7abd 64af 1940 f224 91bf
00000290: 357a 1dbf 35e9 ab3d b2bd d6bd 931d 92c0
000002a0: 3fb5 1c41 4dbd c6be 09a7 cd3f e36e 703e
000002b0: 8362 153d 82c4 46be 0f97 bdc0 73f4 3c40
000002c0: 840e 5e3f 639c 8fc0 643f 83be 39b6 cebe
000002d0: d734 e640 a52c 61c1 7120 b03f 5530 2fc1
000002e0: 6822 2640 124e 2940 9ad1 2fbe ab5b 8d3e
000002f0: c73a 0ec1

B1 f4 [9]
-1.69101 0.789727 3.20526 -0.359805 0.26394 1.67326 1.59999 0.550246
-0.606806
00000000: 0473 d8bf 8c2b 4a3f fb22 4d40 5c38 b8be
00000010: 2523 873e 622d d63f 79cc cc3f ecdc 0c3f
00000020: a357 1bbf
