model_dir/VertCAS_2.onnx (onnx, 1432 bytes, 4 tensors)

W0 f4 [21, 4]
-0.0218583 -0.306047 0.0413862 0.118635 -0.304615 -0.439588 -0.151885 0.0492771
4.20713 2.64741 2.47746 0.772983 13.6962 -2.17629 2.26883 -2.35744
2.66227 7.21315 0.952974 0.52178 -0.717604 4.69572 2.09817 -0.0527543
-2.95442 -2.96422 -5.28081 0.468591 14.0307 -3.77956 3.98597 1.59353
9.48667 2.13352 -1.88512 0.081487 0.144281 0.669434 5.33782 -0.253949
0.55917 6.0917 2.42729 -0.444518 -14.556 -1.85931 -3.21987 0.470057
-0.792144 -6.53201 6.08062 -0.107253 2.47495 0.991588 -2.54513 3.09466
-13.7457 2.4991 -2.26757 0.0223773 0.0677235 -0.180284 0.301643 0.0836973
-0.0871013 0.128049 -0.332117 0.181866 0.34338 -0.289919 0.0190002 -0.196987
-12.558 -1.86095 3.34868 -0.181618 -15.1715 -0.231166 2.29752 -0.396229
12.4094 0.680732 -5.96248 -0.541412
00000000: 2d10 b3bc 31b2 9cbe 9384 293d e8f6 f23d
00000010: 7ff6 9bbe ae11 e1be be87 1bbe c9d6 493d
00000020: cfa0 8640 2a6f 2940 b48e 1e40 37e2 453f
00000030: a323 5b41 5648 0bc0 8334 1140 4ce0 16c0
00000040: a262 2a40 20d2 e640 1bf6 733f 6093 053f
00000050: e5b4 37bf 5743 9640 6b48 0640 e514 58bd
00000060: 3815 3dc0 c8b5 3dc0 65fc a8c0 29eb ef3e
00000070: bf7d 6041 50e4 71c0 221a 7f40 cbf8 cb3f
00000080: 66c9 1741 978b 0840 9d4b f1bf a8e2 a63d
00000090: 66be 133e 0760 2b3f 6ccf aa40 9a05 82be
000000a0: c425 0f3f 35ef c240 b858 1b40 dd97 e3be
000000b0: 60e5 68c1 dffd edbf 5a12 4ec0 50ab f03e
000000c0: f3c9 4abf 3a06 d1c0 7094 c240 76a7 dbbd
000000d0: 9565 1e40 b6d8 7d3f 69e3 22c0 e90e 4640
000000e0: 63ee 5bc1 41f1 1f40 de1f 11c0 9950 b73c
000000f0: 9eb2 8a3d 5e9c 38be f470 9a3e 7d69 ab3d
00000100: 2b62 b2bd 471f 033e 3d0b aabe 153b 3a3e
00000110: 81cf af3e 4370 94be 4fa6 9b3c f6b6 49be
00000120: 91ed 48c1 9c33 eebf c650 5640 12fa 39be
00000130: 77be 72c1 c8b6 6cbe 910a 1340 87de cabe
00000140: e78c 4641 7444 2e3f a3cc bec0 fa99 0abf

B0 f4 [21]
-0.289774 -0.500879 1.9056 0.579107 0.339801 2.27453 2.11926 0.000199866
0.0690977 -1.2641 1.14775 0.479512 -1.42279 2.24277 0.125393 -0.271211
-0.454751 -0.508773 -0.371802 0.9929 0.887219
00000000: 425d 94be 9b39 00bf b3ea f33f 5b40 143f
00000010: 66fa ad3e e691 1140 f5a1 0740 1f93 5139
00000020: 1883 8d3d 07ce a1bf 79e9 923f 9982 f53e
00000030: fc1d b6bf 8b89 0f40 0667 003e 2bdc 8abe
00000040: 20d5 e8be f33e 02bf d55c bebe b22e 7e3f
00000050: c920 633f

W1 f4 [9, 21]
-0.432095 -0.225871 0.596104 -1.54814 1.25573 2.15485 2.11268 3.06204
5.94899 2.14148 -1.33709 1.94317 5.22362 -2.42109 4.51975 -0.0907839
-0.0721674 -0.182067 3.08434 -1.12505 -0.935839 0.285732 0.0259098 0.0502613
0.11557 0.461488 -2.58193 -3.35405 0.363373 -2.3984 1.96829 2.6885
0.759572 -3.55076 1.19283 -6.90679 0.113912 0.174492 0.19697 -5.46796
4.0016 4.02954 0.343663 0.181036 -10.3114 0.399038 -46.7445 5.77708
-0.148099 -4.13341 -3.22998 -4.90468 -4.15085 0.882983 6.03739 1.33426
-0.270431 -0.0187505 -0.191227 0.00656482 4.20143 -0.180658 0.193876 -0.445225
0.364765 1.12671 -0.734975 -4.51503 1.07002 0.688416 -3.47562 -0.630123
-38.2739 1.74737 -7.03712 -42.1757 2.95158 -12.3659 -0.00682428 -0.314932
-0.0990286 -6.41555 1.16802 -8.36251 -0.0606105 -0.436158 1.22759 10.3258
0.935788 0.619935 -0.0665244 -15.6658 -7.14795 -10.0511 -3.67697 -0.175042
-1.02477 0.545813 6.78149 0.118913 0.0769492 -0.276707 -4.91253 -3.60425
-0.694169 0.391392 -0.172027 -1.29359 -1.58687 -0.00736866 -1.20599 -2.07789
-1.45204 -2.98113 0.261708 -1.71999 -1.26087 -0.920293 -2.00097 -2.06442
0.162097 0.291873 0.0629688 -1.28397 -1.10557 -1.26772 -0.395154 0.204139
-1.18601 -1.30778 -0.0731356 -1.38515 -1.48406 -1.17221 -3.29296 -0.188039
-2.01791 -1.7109 -1.05781 -1.96727 -1.97079 -0.265299 0.431289 -0.0924167
-0.979502 -1.60332 -1.81137 0.422684 -0.339606 -1.80267 -1.25063 -0.404383
-1.11487 -1.67246 -1.02121 -3.1369 0.0393246 -1.5711 -1.88712 -0.842121
-1.95321 -1.64612 -0.329553 0.160638 0.132148 -1.46882 -1.2576 -1.45237
0.440144 0.445818 -1.7834 -1.33238 0.0893585 -0.885043 -1.97983 -1.04119
-3.02525 0.14689 -1.43042 -1.08669 -0.701765 -1.7559 -2.1336 0.306721
0.408605 -0.258338 -1.46664 -1.41958 -1.34328
00000000: 8e3b ddbe ba4a 67be 469a 183f 7429 c6bf
00000010: c3bb a03f 10e9 0940 2636 0740 77f8 4340
00000020: 205e be40 020e 0940 c425 abbf cbb9 f83f
00000030: e527 a740 23f3 1ac0 cba1 9040 e9ec b9bd
00000040: 80cc 93bd c66f 3abe d465 4540 a301 90bf
00000050: 2593 6fbf 774b 923e ca40 d43c cbde 4d3d
00000060: f7af ec3d 2848 ec3e 573e 25c0 c1a8 56c0
00000070: 070c ba3e 637f 19c0 edf0 fb3f 6210 2c40
00000080: 5073 423f a73f 63c0 a7ae 983f 6c04 ddc0
00000090: b24a e93d 08ae 323e 81b2 493e 87f9 aec0
000000a0: 1b0d 8040 fef1 8040 99f4 af3e 8061 393e
000000b0: 7ffb 24c1 b54e cc3e 5efa 3ac2 d7dd b840
000000c0: 44a7 17be e544 84c0 feb7 4ec0 23f3 9cc0
000000d0: c3d3 84c0 2d0b 623f 4d32 c140 08c9 aa3f
000000e0: ef75 8abe a69a 99bc 03d1 43be b41d d73b
000000f0: 1d72 8640 69fe 38be 6e87 463e 88f4 e3be
00000100: 7ac2 ba3e 0938 903f 5227 3cbf 207b 90c0
00000110: 6af6 883f 083c 303f 8f70 5ec0 be4f 21bf
00000120: 7918 19c2 d2a9 df3f 1630 e1c0 ebb3 28c2
00000130: b0e6 3c40 bada 45c1 369e dfbb c43e a1be
00000140: 82cf cabd 304c cdc0 ae81 953f d7cc 05c1
00000150: b742 78bd 1a50 dfbe ab21 9d3f 7a36 2541
00000160: cd8f 6f3f 0fb4 1e3f f23d 88bd 1ea7 7ac1
00000170: 02bc e4c0 4ed1 20c1 7a53 6bc0 363e 33be
00000180: aa2b 83bf 67ba 0b3f f701 d940 a988 f33d
00000190: 8b97 9d3d 8aac 8dbe 7233 9dc0 08ac 66c0
000001a0: 0fb5 31bf 8864 c83e d927 30be 5b94 a5bf
000001b0: 8e1e cbbf cd74 f1bb e15d 9abf 26fc 04c0
000001c0: 72dc b9bf d5ca 3ec0 97fe 853e a228 dcbf
000001d0: 3064 a1bf 5298 6bbf e40f 00c0 751f 04c0
000001e0: c2fc 253e 6170 953e c9f5 803d 2159 a4bf
000001f0: 5183 8dbf a644 a2bf a051 cabe d009 513e
00000200: 2dcf 97bf 5665 a7bf 1ec8 95bd 984c b1bf
00000210: aef5 bdbf fa0a 96bf dbbf 52c0 4c8d 40be
00000220: 7025 01c0 c5fe dabf 5166 87bf 81cf fbbf
00000230: d942 fcbf 45d5 87be e9d1 dc3e f844 bdbd
00000240: a5c0 7abf 9739 cdbf f9da e7bf 0a6a d83e
00000250: d6e0 adbe e4bd e6bf a514 a0bf 4a0b cfbe
00000260: 0fb4 8ebf 2b13 d6bf 02b7 82bf f8c2 48c0
00000270: d512 213d ce19 c9bf 268d f1bf 3e95 57bf
00000280: c902 fabf 0fb4 d2bf 2cbb a8be 4a7e 243e
00000290: ce51 073e 4b02 bcbf 09f9 a0bf 43e7 b9bf
000002a0: 8e5a e13e 4242 e43e 7446 e4bf 6e8b aabf
000002b0: 9701 b73d 2e92 62bf 126b fdbf b745 85bf
000002c0: b29d 41c0 556a 163e 0118 b7bf a818 8bbf
000002d0: dfa6 33bf 55c1 e0bf e78c 08c0 890a 9d3e
000002e0: ad34 d13e e144 84be dcba bbbf ccb4 b5bf
000002f0: 99f0 abbf

B1 f4 [9]
-1.29087 2.02641 0.405407 1.52425 0.205173 -0.0572459 -0.689812 -0.541517
-1.03316
00000000: 3a3b a5bf b4b0 0140 8291 cf3e a01a c33f
00000010: df18 523e ad7a 6abd 8597 30bf dca0 0abf
00000020: 963e 84bf
