model_dir/VertCAS_4.onnx (onnx, 1432 bytes, 4 tensors)

W0 f4 [21, 4]
-0.706012 -6.16123 6.25249 -0.174033 11.0506 4.56675 -4.90057 0.903716
0.112062 -0.365368 0.104713 0.199545 0.17925 -0.184624 0.15894 -0.0807048
-1.21201 5.42487 0.159313 0.62258 -0.330842 -0.136724 -0.17949 -0.36447
7.99374 4.77612 2.27847 -0.293025 -3.11414 -2.95726 1.91626 1.17119
-21.8045 -0.541594 3.36083 -0.182292 3.96772 0.69682 -14.4131 0.39237
-0.134287 0.267593 0.339616 -0.531799 0.0756288 -0.424251 -0.00231382 -0.211207
-1.03077 -1.55187 -10.2685 0.582844 14.7839 -0.757672 -3.22019 0.607566
0.0797409 0.0231018 0.121101 -0.466163 15.99 3.18431 -2.72328 0.0179579
-6.17714 -2.44523 7.53622 -0.123868 0.23083 0.156872 -0.176699 0.386589
-5.20092 -1.77374 -5.2264 0.728652 -0.0317933 0.402564 0.35335 0.102949
-16.0769 2.80441 -2.195 -0.0889765
00000000: 34bd 34bf cc28 c5c0 6614 c840 b535 32be
00000010: 42cf 3041 d122 9240 78d1 9cc0 ef59 673f
00000020: c380 e53d 8411 bbbe c573 d63d 8655 4c3e
00000030: 508d 373e 130e 3dbe 2bc1 223e 8f48 a5bd
00000040: 2523 9bbf 8998 ad40 f222 233e 6761 1f3f
00000050: 1f64 a9be 6001 0cbe 3acc 37be d09b babe
00000060: b8cc ff40 fad5 9840 74d2 1140 5f07 96be
00000070: 124e 47c0 bf43 3dc0 0248 f53f 8ee9 953f
00000080: 9e6f aec1 e8a5 0abf d717 5740 c1aa 3abe
00000090: 20ef 7d40 cc62 323f 0f9c 66c1 b8e4 c83e
000000a0: 8882 09be f301 893e 26e2 ad3e fb23 08bf
000000b0: 46e3 9a3d 6d37 d9be 75a3 17bb a646 58be
000000c0: 45f0 83bf ada3 c6bf c74b 24c1 4435 153f
000000d0: db8a 6c41 cbf6 41bf 9817 4ec0 7289 1b3f
000000e0: 324f a33d fc3f bd3c cd03 f83d ebac eebe
000000f0: 0ad7 7f41 bccb 4b40 384a 2ec0 721c 933c
00000100: 22ab c5c0 a67e 1cc0 b728 f140 82ae fdbd
00000110: b35e 6c3e 0ea3 203e 95f0 34be feee c53e
00000120: f06d a6c0 ea09 e3bf ab3e a7c0 f088 3a3f
00000130: b139 02bd de1c ce3e 4bea b43e edd6 d23d
00000140: 7e9d 80c1 747b 3340 e17a 0cc0 5039 b6bd

B0 f4 [21]
-1.49632 1.41466 -0.432141 -0.188091 2.22812 -0.338555 0.605718 1.68564
1.54452 1.41439 -0.337768 -0.279898 1.60967 1.99121 -0.273553 0.0435108
1.02465 -0.52122 2.06963 -0.493578 0.0482416
00000000: 6a87 bfbf 9413 b53f 9641 ddbe ed9a 40be
00000010: 8599 0e40 1557 adbe 5610 1b3f 0dc3 d73f
00000020: d5b2 c53f bb0a b53f edef acbe ca4e 8fbe
00000030: ab09 ce3f f8df fe3f 240f 8cbe 6138 323d
00000040: bb27 833f ad6e 05bf d174 0440 41b6 fcbe
00000050: fc98 453d

W1 f4 [9, 21]
7.54604 -3.99912 -0.268646 -0.346748 0.346299 -0.279873 1.6744 2.73342
-5.82534 -1.62393 -0.311859 -0.336879 2.02522 -2.19061 0.149523 9.67239
4.04231 0.385767 3.14068 -0.368729 10.7783 -18.1587 -1.88584 0.0241479
-0.346849 0.253573 -0.268241 1.96184 0.112265 -0.351043 6.45837 0.307603
-0.321493 -3.58529 1.80262 -0.170444 -1.49541 0.156838 -0.081478 -6.57695
0.362221 -4.2491 1.37997 7.43394 -0.078669 -0.396261 -8.86744 -0.273184
-26.1013 -0.067535 1.32282 -1.57315 0.251855 0.0622664 2.06271 -4.01016
-0.101323 -2.60279 3.01851 0.129614 1.49391 -0.274119 2.54378 -29.2718
2.71701 0.0425185 0.0908302 -3.09459 -0.390443 1.08306 -1.86303 2.60852
4.62031 0.234534 -0.0228413 -6.79272 5.00279 -0.349947 -5.87821 1.89939
0.305687 -0.374181 -0.0783563 -6.30319 -3.53587 -0.619449 -0.120463 -0.274443
-0.600497 0.0326808 -2.2368 -0.832871 -1.05336 -0.936471 -0.276758 -0.329273
-1.6367 -1.06878 0.305069 -1.31734 -2.94716 -0.305884 -1.04848 -0.409808
-0.697984 -46.3908 4.60335 -0.213611 -0.517421 1.41018 0.446261 -0.717524
-1.3018 1.48756 -8.40367 0.168745 0.100635 7.47321 1.89551 -0.00814587
-7.39403 -1.58342 0.39327 -2.5803 0.133062 -8.6099 10.5915 2.50553
0.361067 -0.350758 2.16488 -0.359233 -2.99994 0.207618 4.97583 0.248693
-0.351477 0.01962 0.817264 -1.62903 -0.341825 -4.93719 -6.80939 -0.0843579
-0.173625 0.428244 -10.6885 -2.82707 -0.305675 0.0955688 -0.152762 -1.10666
-0.168448 -1.84682 -0.942373 -0.973208 -0.902585 0.20796 -0.0905506 -1.72292
-0.564392 -0.305626 -1.36305 -2.77609 -0.230421 -1.50366 -0.1537 -1.0973
-2.9075 -1.13243 -0.345671 0.0659253 -0.742655 0.188108 -1.31596 -1.2079
-1.14139 -0.973686 0.202565 -0.0711985 -1.5708 -0.686218 0.257452 -0.970626
-2.69214 0.372016 -1.092 0.172509 -0.792562
00000000: 2979 f140 95f1 7fc0 f88b 89be f488 b1be
00000010: 1a4e b13e 844b 8fbe bd52 d63f 5af0 2e40
00000020: 2f69 bac0 f0dc cfbf fcab 9fbe 677b acbe
00000030: 349d 0140 f432 0cc0 8f1c 193e 1cc2 1a41
00000040: 9b5a 8140 4183 c53e e700 4940 0cca bcbe
00000050: eb73 2c41 0545 91c1 3563 f1bf d1d1 c53c
00000060: 3196 b1be 52d4 813e e256 89be 931d fb3f
00000070: 31eb e53d e8bb b3be f8aa ce40 247e 9d3e
00000080: bb9a a4be 6475 65c0 41bc e63f df88 2ebe
00000090: 9869 bfbf 249a 203e f0dd a6bd 6076 d2c0
000000a0: 0875 b93e a1f8 87c0 dba2 b03f d6e2 ed40
000000b0: 361d a1bd b9e2 cabe 09e1 0dc1 c6de 8bbe
000000c0: 76cf d0c1 ca4f 8abd 2a52 a93f fb5c c9bf
000000d0: 23f3 803e 0d0b 7f3d 7103 0440 3b53 80c0
000000e0: 6f82 cfbd 1d94 26c0 452f 4140 88b9 043e
000000f0: 7138 bf3f 5359 8cbe 4bcd 2240 a52c eac1
00000100: 7ee3 2d40 e127 2e3d 2f05 ba3d c30d 46c0
00000110: 25e8 c7be b6a1 8a3f c477 eebf fef1 2640
00000120: 94d9 9340 ae29 703e ae1d bbbc f65d d9c0
00000130: db16 a040 412c b3be 4c1a bcc0 361f f33f
00000140: 0283 9c3e a794 bfbe 4579 a0bd bcb3 c9c0
00000150: b24b 62c0 3694 1ebf 4eb5 f6bd cb83 8cbe
00000160: 2cba 19bf 4ddc 053d bb27 0fc0 0937 55bf
00000170: 80d4 86bf 90bc 6fbf 39b3 8dbe 7896 a8be
00000180: 637f d1bf c8cd 88bf 0132 9c3e 999e a8bf
00000190: 459e 3cc0 d49c 9cbe 9834 86bf 5bd2 d1be
000001a0: 14af 32bf 2e90 39c2 a54e 9340 d8bc 5abe
000001b0: b475 04bf c780 b43f 527c e43e a7af 37bf
000001c0: 62a1 a6bf 5e68 be3f 6f75 06c1 7dcb 2c3e
000001d0: b919 ce3d 8924 ef40 12a0 f23f 4176 05bc
000001e0: e59b ecc0 82ad cabf af5a c93e a323 25c0
000001f0: 6841 083e 27c2 09c1 c976 2941 9b5a 2040
00000200: c6dd b83e 8d96 b3be 658d 0a40 63ed b7be
00000210: 04ff 3fc0 d099 543e 003a 9f40 61a9 7e3e
00000220: cbf4 b3be 1fba a03c 3738 513f 0e84 d0bf
00000230: b003 afbe 76fd 9dc0 86e6 d9c0 d6c3 acbd
00000240: c1ca 31be cc42 db3e 1904 2bc1 b7ee 34c0
00000250: 6f81 9cbe 93b9 c33d a46d 1cbe 09a7 8dbf
00000260: a27d 2cbe 9964 ecbf 5b3f 71bf 2924 79bf
00000270: d00f 67bf 77f3 543e 9872 b9bd a488 dcbf
00000280: fe7b 10bf 037b 9cbe 6c78 aebf 75ab 31c0
00000290: 7cf3 6bbe ee77 c0bf 8863 1dbe 5474 8cbf
000002a0: 7b14 3ac0 77f3 90bf cafb b0be d803 873d
000002b0: a31e 3ebf 629f 403e 6171 a8bf 789c 9abf
000002c0: 1119 92bf 7c43 79bf 336d 4f3e 85d0 91bd
000002d0: f90f c9bf fcab 2fbf c0d0 833e f27a 78bf
000002e0: 064c 2cc0 e278 be3e a8c6 8bbf 33a6 303e
000002f0: 58e5 4abf

B1 f4 [9]
-0.890123 4.47093 -0.211848 0.220992 -0.411165 0.106838 0.212426 -0.268833
-0.818534
00000000: 1adf 63bf dc11 8f40 afee 58be ba4b 623e
00000010: 3884 d2be e2cd da3d 3486 593e 7ba4 89be
00000020: 728b 51bf
