model_dir/VCAS_256/VertCAS_1.onnx (onnx, 14597 bytes, 4 tensors)

W0 f4 [256, 4]
0	0x3b7d562d	0.00386561
1	0x3c8c323d	0.0171138
2	0x3d5e4367	0.0542635
3	0xbd9790ee	-0.0740069
4	0x3d917607	0.0710259
5	0xbce34e19	-0.0277472
6	0xbc337e47	-0.0109554
7	0xbd239d0e	-0.0399447
8	0xc0f2e8a7	-7.5909
9	0x3fc2d5d0	1.52215
10	0xbf7e94ee	-0.99446
11	0xbccc25de	-0.0249204
12	0x40e2ef9e	7.09175
13	0x3f2bcd57	0.671102
14	0xc05e5fd9	-3.4746
15	0x3ed6a401	0.41922
16	0xc0bc415f	-5.88298
17	0x4003bf9c	2.05857
18	0xbfc801f7	-1.56256
19	0x3f2c3244	0.672642
20	0x3d3a0514	0.045415
21	0x3e0e5d5b	0.139028
22	0x3c82433c	0.0159012
23	0xbd79317a	-0.0608382
24	0xc07ed0bb	-3.98149
25	0x3f3a9d84	0.728966
26	0xc05239ac	-3.28477
27	0xbf70506a	-0.938727
28	0x3f34e497	0.706613
29	0x3e21f8e4	0.158176
30	0xbf837319	-1.02695
31	0xbfc0d307	-1.50644
32	0xc0d06777	-6.51263
33	0xc00fc28f	-2.24625
34	0x3f7a8816	0.978639
35	0x3ebfba88	0.37447
36	0xbfa45d10	-1.28409
37	0x3e7528ae	0.239413
38	0x3f997ebb	1.19918
39	0x3cf754cb	0.0301918
40	0xc100e411	-8.05568
41	0x3f012f4d	0.504628
42	0x3f6dd713	0.929063
43	0xbf2fe197	-0.687036
44	0x3c227042	0.00991446
45	0xbda059a7	-0.078296
46	0xbdb18d4e	-0.0866953
47	0xbd8d3e19	-0.0689661
48	0xbd4887df	-0.0489577
49	0x3cb9d4a3	0.0226844
50	0x3d16c6b6	0.0368106
51	0xbe3335d2	-0.17501
52	0xbf002df1	-0.500701
53	0xc05519f8	-3.32971
54	0x4018b631	2.38612
55	0x3cd52165	0.0260169
56	0x40934396	4.602
57	0x3fb36849	1.40162
58	0xc08d2157	-4.41032
59	0xbed526d9	-0.416312
60	0xbfc85db7	-1.56536
61	0x3fb67bb3	1.42565
62	0x3f867621	1.05048
63	0x3eb86af4	0.360191
64	0x3baee977	0.00533789
65	0xba8adc92	-0.00105943
66	0x3d483c5f	0.0488857
67	0xbe247560	-0.160604
68	0x3f4fcb60	0.811697
69	0xbe996bdb	-0.299651
70	0xc008bc94	-2.13651
71	0x3d1a7f07	0.0377188
72	0xc11d6ae8	-9.8386
73	0xc0198280	-2.39859
74	0x409cf8cb	4.90537
75	0xbf939d5e	-1.15324
76	0xc064e9a3	-3.57676
77	0xbed83b60	-0.422328
78	0x40f41bda	7.6284
79	0xbf54e67d	-0.831642
80	0xc0b3d845	-5.62015
81	0x3f186141	0.595234
82	0x3f4cbaf9	0.799728
83	0xbf473e36	-0.778293
84	0x3f3843b3	0.719783
85	0xbeb5b09a	-0.354863
86	0x3e88d64d	0.26726
87	0x3e648cb5	0.223193
88	0x3fc75643	1.55732
89	0xbe5e6602	-0.217186
90	0xbfb94b49	-1.44761
91	0x3d61caf6	0.0551252
92	0xbccbd8b1	-0.0248836
93	0x3cb23897	0.0217555
94	0x3c03848f	0.00802721
95	0xbd78f6dc	-0.0607823
96	0xbf15fab9	-0.585857
97	0xbe44b76f	-0.192106
98	0x3e8675de	0.262618
99	0xbedce3bd	-0.431425
100	0xbcc8f176	-0.0245292
101	0xbc5ec22d	-0.0135961
102	0x3de0828c	0.109624
103	0x3c804fb1	0.015663
104	0xc0d1b329	-6.55312
105	0xbfc73a69	-1.55647
106	0x406008d9	3.50054
107	0xbe7ed890	-0.248873
108	0xbfc7ea60	-1.56184
109	0x3e808638	0.251024
110	0x3f9ab2c0	1.20858
111	0x3c927e1c	0.0178824
112	0x3de5ec3e	0.112267
113	0x3de7125e	0.112828
114	0xba894539	-0.00104729
115	0xbd6342fb	-0.0554838
116	0x3d9035a2	0.0704148
117	0x3d5e8a64	0.0543312
118	0x3c7a7222	0.015286
119	0x3c9e43b8	0.0193194
120	0x40ba0e6b	5.81426
121	0x3fe7bc2c	1.81043
122	0xc06c2268	-3.6896
123	0xbf16d3c8	-0.589169
124	0x3f8d6388	1.1046
125	0x3f3189f0	0.693511
126	0xc0af1c97	-5.47224
127	0xbf382dae	-0.719447
128	0x3d1f7fa8	0.0389401
129	0x3c21c790	0.00987424
130	0x3c839226	0.0160609
131	0xbe36f5cb	-0.178672
132	0x40a07cd9	5.01524
133	0x3fac0c74	1.34413
134	0xbf92c765	-1.14671
135	0xbd96b160	-0.0735805
136	0xbfef2c52	-1.86854
137	0x3d37d1c9	0.0448778
138	0x3f9f4bc7	1.2445
139	0x3d931a3e	0.0718274
140	0xbd669fc2	-0.0563047
141	0xbc9bb59e	-0.0190075
142	0x3e0f4f94	0.139952
143	0xbc5900b8	-0.0132448
144	0x3fd32f98	1.64989
145	0xbeef3fd9	-0.467284
146	0xc09a44bb	-4.82089
147	0xbf447464	-0.767401
148	0xbb8224b3	-0.00397166
149	0xbdaef178	-0.0854215
150	0x3cb856be	0.0225023
151	0x3dbb9deb	0.0916098
152	0x3d9935fc	0.07481
153	0xbf9e74d1	-1.23794
154	0xbf57838c	-0.841851
155	0x3e671690	0.225672
156	0x3d85ade7	0.0652731
157	0xbd1f23cd	-0.0388525
158	0xbd5f6754	-0.0545419
159	0xbe09667b	-0.13418
160	0x3dddc37a	0.108283
161	0xbd751d84	-0.0598426
162	0x3df6cacd	0.120504
163	0xbc949c3a	-0.0181409
164	0xbdd3fb7a	-0.103507
165	0x3d0788a5	0.0330893
166	0xbd41e68a	-0.047339
167	0xbe43315d	-0.190618
168	0x3d3ff1d8	0.0468615
169	0xbd7469ff	-0.0596714
170	0xbdb22cd9	-0.0869996
171	0xbc270883	-0.0101949
172	0xbda9c2b4	-0.0828909
173	0x3cd9bb28	0.0265785
174	0x3d32cdb3	0.0436532
175	0xbd5ebe9d	-0.054381
176	0xc0935f5b	-4.60539
177	0xc0004ae0	-2.00457
178	0xc00d3cb4	-2.20683
179	0xbea8198f	-0.32832
180	0x3f1906ab	0.597758
181	0xbf839970	-1.02812
182	0x4019d1a2	2.40342
183	0xbf7934ce	-0.973462
184	0x3f5e542e	0.868472
185	0xbe8788db	-0.264716
186	0xbff5eecc	-1.92135
187	0x3d6fac2b	0.0585138
188	0xc079e83e	-3.9048
189	0x3e0af4ae	0.135699
190	0x40b87dd4	5.76536
191	0x3f6d741d	0.927553
192	0xc0bc1d7e	-5.8786
193	0x400794d9	2.11846
194	0xc0116388	-2.2717
195	0xbb5a412a	-0.0033303
196	0xc02646f1	-2.59808
197	0x40548922	3.32087
198	0x3edb0058	0.427737
199	0x3f3650e7	0.712172
200	0xbebe3da3	-0.371564
201	0x3edbefd0	0.429564
202	0x401df4dc	2.46807
203	0x3ce2c3af	0.0276812
204	0xc0f87aa2	-7.76497
205	0x3fc8ac5c	1.56776
206	0xbf79ffa4	-0.976557
207	0xbd23b8f2	-0.0399713
208	0xbcec6d11	-0.0288606
209	0xbd424f9b	-0.0474392
210	0xbdcc8839	-0.0998692
211	0x3d379a1b	0.0448247
212	0xc01cde7f	-2.45108
213	0x3fbf90eb	1.49661
214	0xc0045a47	-2.06801
215	0x3fa3af64	1.27879
216	0xbebd9fd3	-0.37036
217	0xc09b1783	-4.84662
218	0xbe68ab50	-0.227216
219	0x3c322a1f	0.0108743
220	0xbc79ac94	-0.0152389
221	0x3d86bb48	0.0657869
222	0x3dc88b11	0.0979215
223	0x3daba16e	0.083804
224	0xbf978477	-1.18373
225	0xbdd92535	-0.106028
226	0x3e77ce96	0.241999
227	0xbe490929	-0.196324
228	0x3df6bd2b	0.120478
229	0xbe8118c2	-0.252142
230	0x3d63d7fc	0.0556259
231	0x3c73bfeb	0.0148773
232	0xbca27b8b	-0.0198343
233	0x3cba5ea1	0.0227502
234	0x3d90237f	0.0703802
235	0xbdd8c75c	-0.105849
236	0x3c9c57ba	0.0190848
237	0xbd77a94f	-0.0604642
238	0x392ea7af	0.000166564
239	0xbdfa97e1	-0.12236
240	0x3eff2389	0.498318
241	0xbe1fb481	-0.155962
242	0x4018b7aa	2.38621
243	0xc06d0cb3	-3.7039
244	0xbdba61ab	-0.0910066
245	0x3bb62f27	0.00555982
246	0x3cc7aa4e	0.0243732
247	0xbd8b2710	-0.0679456
248	0xc09644fa	-4.69592
249	0xbfacef35	-1.35105
250	0x4033984a	2.80617
251	0xbf026e01	-0.509491
252	0xbf939724	-1.15305
253	0x3fba7b5f	1.45689
254	0x3f9794d9	1.18423
255	0x3f217668	0.630713

B0 f4 [256]
0	0xbd338010	-0.0438233
1	0xbdc23a7a	-0.0948381
2	0x3b9d61fb	0.00480294
3	0x3e2455a8	0.160483
4	0xbd39e584	-0.0453849
5	0xbdcbac2e	-0.0994495
6	0x3f197321	0.599413
7	0x3f095db3	0.536586
8	0x3f23f280	0.640419
9	0x3ee2b3ab	0.442777
10	0x3e9442ea	0.289573
11	0xbe0bf402	-0.136673
12	0xbd6dd540	-0.0580647
13	0x3f17afc9	0.592526
14	0x3ee1fcf4	0.441383
15	0x3ee0d34a	0.439112
16	0xbd5a719b	-0.053331
17	0x3f37ad9f	0.717493
18	0x3e7e3609	0.248253
19	0x3d33af90	0.0438686
20	0x3ea268b2	0.317205
21	0xbe9a3a08	-0.301224
22	0x3ef94899	0.486882
23	0xbd0cdcf3	-0.0343904
24	0xbe85a48b	-0.261021
25	0xbdf8c650	-0.121472
26	0x3ed10b20	0.408288
27	0x3ee1d841	0.441103
28	0xbe212d77	-0.1574
29	0xbdd9a8ce	-0.106279
30	0x3eedd399	0.464505
31	0x3ee9a3d3	0.456328
32	0xbd08324e	-0.0332511
33	0x3d2da788	0.0423961
34	0x3ecbb4f6	0.397865
35	0xbe0fd977	-0.140478
36	0xbf98811b	-1.19144
37	0xbe075c8e	-0.132189
38	0x3ec7bb30	0.3901
39	0xbe12ed35	-0.143483
40	0xbe108bfc	-0.141159
41	0xbd7d404d	-0.0618289
42	0xbde709fa	-0.112812
43	0xbe006bbe	-0.125411
44	0x3f15373b	0.582874
45	0x3f3d2ddc	0.738981
46	0x3f207d2c	0.62691
47	0xbd9d735e	-0.0768802
48	0x3f1d62d0	0.614789
49	0xbe59d0ea	-0.212711
50	0x3f65f7c6	0.898312
51	0x3c320d99	0.0108675
52	0xbdce6a77	-0.100789
53	0xbf2bf402	-0.671692
54	0xc015e671	-2.34219
55	0xbe123290	-0.142771
56	0xbd1b4429	-0.0379068
57	0xbe04b557	-0.129598
58	0xbd900dd7	-0.0703389
59	0xbda71dbe	-0.0815997
60	0xbe259cd0	-0.161731
61	0xbd9be404	-0.0761185
62	0x3ebcf26b	0.369037
63	0x3ec1e4f7	0.3787
64	0xbd93a4de	-0.0720918
65	0x3f1dfeda	0.61717
66	0x3b9418a6	0.00451954
67	0x3ec789c6	0.389723
68	0x3eeeff7e	0.466793
69	0x3f3878fb	0.720596
70	0xbf6fa227	-0.936068
71	0x3e29cbab	0.165816
72	0x3e3ced91	0.1845
73	0x3f039aae	0.514079
74	0xbe82a023	-0.255128
75	0xbea60e0f	-0.324326
76	0xbb99b78c	-0.00469107
77	0xbe0336df	-0.128139
78	0x3f3f7e1c	0.748018
79	0x3e77e62e	0.242089
80	0xbdaef6a8	-0.0854314
81	0x3f4b2831	0.793582
82	0xbe3340d5	-0.175052
83	0xbfaa862f	-1.33222
84	0x3dd182aa	0.1023
85	0x3f0cca60	0.549963
86	0x3eb56d7f	0.354351
87	0x3c1808e0	0.00927946
88	0x3c0ceaca	0.0086009
89	0x3e98da1b	0.298539
90	0xbedb7931	-0.428659
91	0xbebee547	-0.372843
92	0x3f309f73	0.689933
93	0x3dc63e30	0.0967983
94	0xbdfe3eaf	-0.124143
95	0xbdd94424	-0.106087
96	0xbe10a958	-0.141271
97	0x3f0c1722	0.547228
98	0x3ee87bdd	0.45407
99	0x3f35d67c	0.710304
100	0xbe1089a0	-0.14115
101	0xbd6ca57a	-0.057775
102	0x3d81772e	0.0632156
103	0xbe644e94	-0.222956
104	0xbdb3d1e7	-0.0878027
105	0xbeaa0be5	-0.332122
106	0x3ecea7ce	0.403624
107	0xbe1760bf	-0.14783
108	0x3f02d1bf	0.511013
109	0x3e224dd3	0.1585
110	0xbddab863	-0.106797
111	0x3efb1099	0.490361
112	0xbfdb035c	-1.71104
113	0x3e8c7150	0.274302
114	0x3e9f060c	0.310593
115	0xbc456d5d	-0.01205
116	0xbd8b0c53	-0.0678946
117	0xbd93c7f1	-0.0721587
118	0x3c7726a8	0.0150849
119	0xbddaaef3	-0.106779
120	0x3ef87a07	0.485306
121	0xbd42afc3	-0.0475309
122	0xbe1470eb	-0.144962
123	0x3d864d14	0.0655767
124	0xbd931642	-0.0718198
125	0x3f590cb3	0.84785
126	0xbef575c0	-0.479414
127	0x3e000608	0.125023
128	0x3f3034a0	0.688303
129	0x3e8fe7e2	0.281066
130	0x3ec35958	0.381541
131	0x3d8cff22	0.068846
132	0xbe188659	-0.14895
133	0xbfa20903	-1.2659
134	0xbf2534ad	-0.645335
135	0x3e8b7b29	0.272424
136	0xbe0485e4	-0.129417
137	0x400de47a	2.21707
138	0xbf668683	-0.90049
139	0xbdea3f8a	-0.114379
140	0xbcd9a954	-0.02657
141	0xbf99ba5e	-1.201
142	0x3e9f7b5b	0.311488
143	0x3f1433b5	0.578914
144	0x3eec182f	0.461122
145	0x3f0d7b74	0.552665
146	0xbdb845a7	-0.0899766
147	0xbf333fb8	-0.700191
148	0x3eab9d3d	0.335184
149	0x3e8faa04	0.280594
150	0xbde954a8	-0.113931
151	0xbdb18556	-0.0866801
152	0xbefa4fec	-0.488891
153	0xbecea183	-0.403576
154	0xbe5ada34	-0.213723
155	0xbd4df4b5	-0.0502822
156	0x3d5ea4ec	0.0543565
157	0x3e7950fc	0.243473
158	0x3ca4921b	0.0200892
159	0xbdbfe74e	-0.0937029
160	0xbe5b40f6	-0.214115
161	0xbe369942	-0.178319
162	0x3f5ae89f	0.855112
163	0xbda83c0f	-0.0821458
164	0xbe0d2d88	-0.137869
165	0xbde5b0ff	-0.112154
166	0xbdd1cc96	-0.102441
167	0x3e994531	0.299356
168	0x3c018978	0.00790631
169	0x3c4a3b8d	0.0123433
170	0xbda917ff	-0.0825653
171	0xbd7b44e5	-0.061345
172	0x3cc1065b	0.0235626
173	0x3f0bdf09	0.546372
174	0x3ec2ba5a	0.380328
175	0x3e9a2270	0.301044
176	0x3d84284e	0.06453
177	0x3f51adc9	0.819058
178	0xbe9f95d5	-0.31169
179	0x3ecd3bd1	0.400847
180	0x3e8bb44e	0.27286
181	0xbe29a0ae	-0.165652
182	0x3e92fc8b	0.287083
183	0xbd45cbf2	-0.0482902
184	0x3e6a08c0	0.228549
185	0x3e483622	0.195519
186	0x3c9d514a	0.0192038
187	0xbdc84be4	-0.097801
188	0x3f35142b	0.707339
189	0x3e9d5476	0.307285
190	0x3f159e84	0.58445
191	0x3ee22d51	0.441752
192	0xbf879bbb	-1.05944
193	0xbfbc66e4	-1.47189
194	0x3f1446b7	0.579204
195	0x3f3469b6	0.704738
196	0xbe84ab82	-0.259121
197	0x3f2626a2	0.649027
198	0x3e852c38	0.260103
199	0xbdb87e1e	-0.0900843
200	0xbe6e0c5b	-0.232469
201	0x3e64e37a	0.223524
202	0x3c531628	0.0128837
203	0x3d3b11d4	0.0456713
204	0x3ece8c05	0.403412
205	0x3ec105e2	0.376998
206	0xbe68919f	-0.227118
207	0xbdb953f9	-0.0904922
208	0x3ec4a277	0.384052
209	0xbe0d4e90	-0.137995
210	0xbd5bc8b3	-0.0536582
211	0x3ec84381	0.39114
212	0xbd66db87	-0.0563617
213	0xbd552008	-0.0520325
214	0x3e666773	0.225004
215	0x3ea9e061	0.33179
216	0x3d9fb0ad	0.0779737
217	0x3f04df05	0.519028
218	0xbd96e603	-0.0736809
219	0x3c0caec5	0.00858659
220	0xbe8f0da6	-0.279401
221	0x3ee6d762	0.450862
222	0xbe4cee5b	-0.200128
223	0x3f15fefc	0.585922
224	0xbd2c1c03	-0.0420189
225	0x3ee491d1	0.446425
226	0xbeec575c	-0.461604
227	0xbdd49cf5	-0.103815
228	0x3f598601	0.849701
229	0xbd76904a	-0.0601962
230	0x3e9449dc	0.289626
231	0x3f34c847	0.706181
232	0xbe850397	-0.259793
233	0xbe37d3d4	-0.179519
234	0xbf69f7e8	-0.913939
235	0x3eab96d1	0.335135
236	0x3f35ea14	0.710603
237	0x3d5fc81c	0.0546342
238	0x3efccbe2	0.493743
239	0xbd8159d2	-0.0631596
240	0x3f812e73	1.00923
241	0xbf1a2fad	-0.60229
242	0x3e88e9f7	0.26741
243	0xbd449b55	-0.0479997
244	0xbe144b6f	-0.144819
245	0xbde0a06f	-0.109681
246	0xbed3e660	-0.413867
247	0x3d32e134	0.0436718
248	0xbe03f39d	-0.128859
249	0xbdf2a38c	-0.118476
250	0xbf46a748	-0.77599
251	0x3ea96feb	0.330932
252	0xbdb529bb	-0.0884585
253	0x3dba3d05	0.0909367
254	0x3de62802	0.112381
255	0xbe19a73b	-0.150052

W1 f4 [9, 256]
0	0xbd2cf0fa	-0.042222
1	0x3d032584	0.0320182
2	0x409cb3a7	4.89693
3	0xbf40c20d	-0.752961
4	0x40402047	3.00197
5	0x3e04302b	0.12909
6	0x3f0457f3	0.516967
7	0xbe54a44c	-0.207658
8	0xbf7a6b83	-0.978203
9	0x3e5e02eb	0.216808
10	0xc048068e	-3.1254
11	0x3dcce896	0.100053
12	0xbd6281d5	-0.0552996
13	0x3efda20e	0.495377
14	0xbf0bb203	-0.545685
15	0x3da808bb	0.0820479
16	0xbdb6dcbb	-0.0892882
17	0x3e831184	0.255993
18	0xc0380afa	-2.87567
19	0x3f59faec	0.851485
20	0xbfdc284e	-1.71998
21	0xbcc7e6ea	-0.0244021
22	0x3e41697f	0.188879
23	0x3d113be2	0.0354575
24	0xbdd63c32	-0.104607
25	0xbd982a06	-0.0742989
26	0xbdf9884c	-0.121842
27	0x3e6d9381	0.232008
28	0xbd502c68	-0.0508236
29	0xbd4768c5	-0.0486839
30	0x3e9425d0	0.289351
31	0x3cb23bbc	0.021757
32	0xbd3402d1	-0.043948
33	0x3ffc88f8	1.97293
34	0x3e5f416c	0.218023
35	0xbd8f3e7c	-0.0699434
36	0xbea2db1f	-0.318078
37	0x3bbda7ec	0.00578784
38	0xbdedd1e5	-0.116123
39	0xbc0d844d	-0.0086375
40	0x3e13d295	0.144358
41	0x3dd9d7fe	0.106369
42	0xbdd1ab08	-0.102377
43	0xbdf398e9	-0.118944
44	0xbdf3048a	-0.118661
45	0xbe7cde1a	-0.246941
46	0x3e66db0e	0.225445
47	0xbf70f94d	-0.941304
48	0xbff77510	-1.93326
49	0x3f6f1066	0.933844
50	0x3ec2c647	0.380419
51	0x401a4cad	2.41093
52	0xbcba7979	-0.022763
53	0x3d83e095	0.0643932
54	0x41dfe7d5	27.9882
55	0x3d5f257a	0.0544791
56	0xbe2914f5	-0.165119
57	0x3dbb1359	0.0913455
58	0xbdd3c148	-0.103396
59	0xbd4d0d7f	-0.0500617
60	0xbfd6cf42	-1.6782
61	0x3c23f2b9	0.0100066
62	0x3e2618ce	0.162204
63	0x3e866d7a	0.262554
64	0xbd229a29	-0.0396978
65	0x3e89715c	0.268443
66	0x3fc385c6	1.52752
67	0x3eb1b542	0.347086
68	0x3e5fd60f	0.21859
69	0x3ec242d0	0.379416
70	0xbf8cb7d4	-1.09936
71	0x3dce3476	0.100686
72	0x40045e35	2.06825
73	0x3f7d0eed	0.988509
74	0x3fb2f0ae	1.39797
75	0xc05bcb68	-3.43429
76	0xc0b4f473	-5.65484
77	0x3d0835fa	0.0332546
78	0xbedf88b9	-0.43659
79	0x3f0c11d3	0.547147
80	0x3c7005b7	0.0146498
81	0x3db3a57f	0.087718
82	0x40126cf4	2.2879
83	0x40c8e964	6.27849
84	0xbfa7b98c	-1.31035
85	0x3d6aace7	0.0572938
86	0x3fa8c155	1.3184
87	0x40961301	4.68982
88	0x4096e0b5	4.71493
89	0x3e3ababf	0.182353
90	0xbf803d47	-1.00187
91	0xbf661a1e	-0.898836
92	0x3d58b0d1	0.052903
93	0x3ef5ee78	0.480335
94	0x3d14420c	0.0361958
95	0xbd0c7899	-0.0342947
96	0xbdadb5e6	-0.0848196
97	0x3e66f2e9	0.225536
98	0x3f13de51	0.577611
99	0x3e865bc8	0.262419
100	0xbde650e7	-0.112459
101	0xbd97396d	-0.07384
102	0x40018740	2.02388
103	0xbc96eafe	-0.0184226
104	0x3d96593e	0.0734124
105	0xc009a733	-2.15083
106	0x3e82dafd	0.255577
107	0xbc9308bc	-0.0179485
108	0xbe56ca8a	-0.209757
109	0xbf9dde16	-1.23334
110	0x3e122ccb	0.142749
111	0xbf0e4788	-0.555779
112	0x404016c6	3.00139
113	0xbd3b3271	-0.0457024
114	0xbfb20c4a	-1.391
115	0x3fd8d552	1.69401
116	0x401eeeb7	2.48332
117	0xbc5c0cdc	-0.0134308
118	0x40158fef	2.33691
119	0xbdae5937	-0.0851311
120	0x3dd94856	0.106095
121	0xbd1d5c67	-0.0384182
122	0x3cfce605	0.0308714
123	0x40b405e6	5.62572
124	0x40983871	4.75689
125	0x3ea884a5	0.329137
126	0x401fd1cc	2.49718
127	0x3dac262e	0.0840572
128	0x3cd7b7ad	0.0263327
129	0xc0b0d441	-5.52591
130	0x3e7c857f	0.246603
131	0x3e85da27	0.26143
132	0xbdd57abc	-0.104238
133	0x40a5c582	5.18036
134	0x409143fe	4.53955
135	0xbd9813e6	-0.0742567
136	0xbcd43328	-0.0259033
137	0x3fa77bf2	1.30847
138	0xc1731d7e	-15.1947
139	0xbd957f4b	-0.0729967
140	0x405abd3c	3.4178
141	0x4176f8a1	15.4357
142	0x3f74bdcb	0.956021
143	0x3f03d2a6	0.514933
144	0x3e5e0eb6	0.216853
145	0xbea22e3c	-0.316759
146	0xbd7bbbce	-0.0614584
147	0x3ecffc54	0.406222
148	0x3f6ec615	0.93271
149	0x4045b2ff	3.08905
150	0xc02b6c37	-2.67848
151	0xbd9828a9	-0.0742963
152	0x40cb3e6c	6.35137
153	0x402eb5dd	2.72985
154	0x3fb27621	1.39423
155	0x3c8b9b3f	0.0170418
156	0x406b96fb	3.68109
157	0x3e22784b	0.158662
158	0x40753d5c	3.83187
159	0x4050501e	3.25489
160	0xbeefee0b	-0.468613
161	0xbdbef30a	-0.093237
162	0x3e60257d	0.218893
163	0xbbc91f59	-0.00613777
164	0x3dbdf945	0.0927606
165	0xbdcc30d3	-0.0997025
166	0x3d62b71a	0.0553504
167	0xc01d3919	-2.45661
168	0x3fdb46dc	1.7131
169	0x4049f6a9	3.15568
170	0x3d409968	0.0470213
171	0xbd8f1e16	-0.0698816
172	0x403df972	2.96835
173	0x3e990c0b	0.29892
174	0xbfccffeb	-1.60156
175	0x404533b1	3.08128
176	0xbefa0e41	-0.48839
177	0x3e9f2c52	0.310885
178	0x40074b73	2.11398
179	0x3e809e34	0.251207
180	0xbf744cbe	-0.954296
181	0xbd972abf	-0.073812
182	0xc0a2b3bc	-5.08444
183	0xbf8fd46b	-1.12367
184	0xbfa4d6a1	-1.2878
185	0x3fa4c3a0	1.28722
186	0x4086c62a	4.21169
187	0xbc44b755	-0.0120066
188	0xc01ba027	-2.43165
189	0x3e4da2f9	0.200817
190	0xbf3257a8	-0.69665
191	0x3db35bf0	0.0875777
192	0xbe091a76	-0.13389
193	0x3f83f823	1.03101
194	0x3ea7b246	0.327532
195	0xc019f01c	-2.40528
196	0xc012d6cb	-2.29436
197	0xbe736b90	-0.237715
198	0x40131a22	2.29847
199	0xbccedd48	-0.025252
200	0x401761bb	2.36534
201	0x3e81068a	0.252003
202	0x408e079e	4.43843
203	0x3fae57a8	1.36205
204	0x3f9813fd	1.18811
205	0xbe88f755	-0.267512
206	0xbfa0e4b8	-1.25698
207	0x3da524f6	0.0806369
208	0xbff6934b	-1.92637
209	0x3d897255	0.0671126
210	0x3e2e3c53	0.170152
211	0xbf315012	-0.692628
212	0x3e1ec52a	0.155049
213	0xbd88e912	-0.0668508
214	0xbecd0efe	-0.400505
215	0x3f08128c	0.531533
216	0xbe4cb8e1	-0.199924
217	0xbecce960	-0.400218
218	0xbcc1c5d3	-0.0236539
219	0xc0a7f045	-5.24808
220	0x401a8e8a	2.41495
221	0xbf2da2b6	-0.678264
222	0x3ff520b0	1.91506
223	0xbf5d130e	-0.863572
224	0x40a1eb31	5.05996
225	0xbf33e73a	-0.702747
226	0xbeb7255f	-0.357707
227	0xbd76778b	-0.0601726
228	0xbf9067e0	-1.12817
229	0x4006ede5	2.10827
230	0x3e9a28bb	0.301092
231	0x3eb5ed8d	0.355328
232	0xc04d753a	-3.21028
233	0xbe166be8	-0.146896
234	0xc06d40a3	-3.70707
235	0x3e476d55	0.194753
236	0xbfd208af	-1.64089
237	0xbe8d93e6	-0.276519
238	0x3e98fc2f	0.298799
239	0xbdc303f6	-0.0952224
240	0xbf65a4ad	-0.897044
241	0x3fe5104d	1.78956
242	0x3e042bb6	0.129073
243	0xbd49363f	-0.049124
244	0x3d8b3c16	0.0679857
245	0xbacf1fb8	-0.00158023
246	0x3f62b325	0.885546
247	0x4003bf72	2.05856
248	0xbb81440d	-0.00394488
249	0xbcd1dc6c	-0.0256178
250	0xc0d85586	-6.76044
251	0x3f939d5e	1.15324
252	0xbda6d7c0	-0.0814662
253	0x3fe6742a	1.80042
254	0x3f93de40	1.15522
255	0x3d277524	0.0408832

B1 f4 [9]
0	0xbe39ff0d	-0.181637
1	0x3fa8ae53	1.31782
2	0x3f0da71a	0.553331
3	0x3ea83793	0.328549
4	0x3f0e7675	0.556495
5	0x3e9173da	0.284087
6	0xbf1b7f28	-0.607409
7	0x3ec1f05f	0.378787
8	0xbf5f76a3	-0.872904
