model_dir/VCAS_21/VertCAS_9.onnx (onnx, 1432 bytes, 4 tensors)

W0 f4 [21, 4]
-0.0793303 0.022115 0.225292 0.263569 -5.92924 0.960849 10.3723 0.628618
14.6726 -2.91074 -6.76544 0.709495 17.5355 0.250918 -8.5563 0.496374
0.0903755 0.400085 0.156151 0.00834864 3.16831 2.88799 3.24881 0.802775
-0.877592 -4.63372 -0.772504 0.156029 16.6923 3.7016 -3.6365 0.0669617
2.49758 2.04306 0.356759 -0.104352 17.1439 -2.92341 2.55149 -0.0632321
-0.572015 2.80114 -4.73041 0.231365 -0.00543096 0.180316 -0.328942 0.0623222
0.240144 1.45597 -10.2198 -0.239899 -9.36964 2.72722 -2.58009 -0.296345
-0.318594 -6.18369 -4.47308 2.0785 -11.5622 0.525781 -3.26628 0.0723754
0.245957 1.05216 10.2032 0.842843 16.1759 -0.280606 0.646527 -0.065507
-14.346 -3.17485 5.32297 0.196405 0.111923 -0.0847325 0.00450398 -0.519556
-3.11361 -2.96673 -4.46459 0.35184
00000000: ed77 a2bd 842a b53c f2b2 663e 84f2 863e
00000010: 56bc bdc0 33fa 753f f1f4 2541 1ced 203f
00000020: f8c2 6a41 9049 3ac0 7c7e d8c0 77a1 353f
00000030: b448 8c41 5378 803e 9be6 08c1 bc24 fe3e
00000040: ca16 b93d f1d7 cc3e 0ce6 1f3e bcc8 083c
00000050: 97c5 4a40 d4d4 3840 81ec 4f40 aa82 4d3f
00000060: dfa9 60bf 6f47 94c0 d2c2 45bf 11c6 1f3e
00000070: d589 8541 04e7 6c40 6abc 68c0 3723 893d
00000080: 5ad8 1f40 7fc1 0240 1ea9 b63e 80b6 d5bd
00000090: b526 8941 2619 3bc0 9d4b 2340 d57f 81bd
000000a0: 936f 12bf e145 3340 855f 97c0 f2ea 6c3e
000000b0: 32f6 b1bb c2a4 383e 166b a8be 9045 7f3d
000000c0: 4fe8 753e 3a5d ba3f 4d84 23c1 15a8 75be
000000d0: 0cea 15c1 c68a 2e40 3220 25c0 88ba 97be
000000e0: c11e a3be cae0 c5c0 7923 8fc0 2506 0540
000000f0: c5fe 38c1 9599 063f bb0a 51c0 8e39 943d
00000100: 27dc 7b3e 2ead 863f 4f40 2341 8fc4 573f
00000110: 3e68 8141 97ab 8fbe cb82 253f 8928 86bd
00000120: 3789 65c1 be30 4bc0 c555 aa40 641e 493e
00000130: e337 e53d 3c88 adbd 1f96 933b 9f01 05bf
00000140: 6345 47c0 e8de 3dc0 ecdd 8ec0 5f24 b43e

B0 f4 [21]
-0.403266 1.58338 2.03366 0.517964 -0.309643 1.92514 2.19063 -0.059098
2.00209 -0.0178788 3.45053 -0.340773 -0.0866186 -0.0435531 2.96758 0.415085
2.29146 -0.315329 -0.562415 -0.0741086 0.51809
00000000: e278 cebe 32ac ca3f 7c27 0240 4a99 043f
00000010: 8789 9ebe fd6a f63f 4833 0c40 bf10 72bd
00000020: 3e22 0040 9076 92bc 7cd5 5c40 cc79 aebe
00000030: 1865 b1bd bc64 32bd d5ec 3d40 0586 d43e
00000040: 48a7 1240 cd72 a1be 6efa 0fbf 40c6 97bd
00000050: 8ca1 043f

W1 f4 [9, 21]
-0.171868 -0.349561 -0.84507 -2.28285 -0.195471 1.28645 1.65504 8.66913
-1.43792 9.48531 -1.92378 -0.199646 1.6751 4.02946 0.56853 4.57261
1.33445 -3.39081 -1.2601 -0.258841 2.59904 -0.124914 -0.508475 -1.49492
2.24299 0.223023 -0.131978 -3.31297 1.38711 0.0473914 5.36174 -0.508603
-0.13877 0.117207 -19.9964 -1.49587 -13.8935 1.15167 3.38893 -2.44817
0.104022 -14.8661 -0.161618 3.84526 -1.97419 3.46543 0.219485 -6.29069
-2.54451 -4.55081 1.45044 -1.0209 5.82922 -0.0789333 -1.88288 -7.9277
-0.557764 1.7983 -4.06438 -46.9817 4.2566 0.0569941 2.00344 -0.0296834
-1.2503 -1.17859 -0.555972 -0.343945 -0.364613 -0.879465 -1.50427 -0.458962
-1.10437 -0.833448 0.314776 -0.0163555 -0.896395 -0.651298 -1.2194 -2.42366
-0.777363 -0.84572 -0.116666 -0.524844 -0.0348218 2.0616 -33.5011 -0.328265
-0.289161 1.22022 -0.388739 -26.3343 -0.241448 -22.2981 -0.478334 0.279628
-34.941 1.23746 -1.04288 2.68541 -3.45773 -1.36724 2.03446 -0.317042
-2.76735 -0.0716304 -1.175 -8.99415 -1.59054 0.128036 -0.135945 2.55046
-0.603736 0.47427 0.707243 0.710141 0.202764 13.9179 -8.07381 4.4391
-29.1646 1.53041 6.55531 -12.3674 0.263631 -2.72005 -0.4063 10.526
1.37814 2.86343 -0.233434 0.431818 -0.118825 -9.62689 4.07987 -5.84981
2.07477 0.16941 -2.44177 -2.73105 -0.752673 -2.44838 -13.4068 -15.1746
3.07695 0.0493581 0.250755 0.218812 1.14399 1.79059 -9.90429 -0.476293
-1.52472 2.12294 -2.36046 -0.692328 -11.2591 0.8436 0.134735 12.624
0.37234 4.57801 -21.1014 0.371794 13.3151 -13.42 -0.278353 -5.07886
0.425146 -5.13518 5.19576 3.69195 -0.176944 2.74261 -0.42754 -9.53316
1.24316 -7.98192 0.670981 -0.109493 -5.48048 1.66528 -1.76151 1.15193
1.79852 -19.7811 5.09902 -0.304392 -1.62968
00000000: 2afe 2fbe a9f9 b2be 8256 58bf 371a 12c0
00000010: 8d29 48be 65aa a43f 5ad8 d33f c2b4 0a41
00000020: c30d b8bf d4c3 1741 6c3e f6bf 0070 4cbe
00000030: ad69 d63f 56f1 8040 2f8b 113f d252 9240
00000040: 42cf aa3f 0803 59c0 f54a a1bf cf86 84be
00000050: ac56 2640 e9d2 ffbd 6b2b 02bf 8a59 bfbf
00000060: 268d 0f40 2460 643e 3e25 07be b307 54c0
00000070: d28c b13f 7c1d 423d 6093 ab40 ce33 02bf
00000080: b919 0ebe 390a f03d a1f8 9fc1 ab78 bfbf
00000090: c74b 5ec1 ec69 933f 3be4 5840 d1ae 1cc0
000000a0: 7d09 d53d 8cdb 6dc1 307f 25be bd18 7640
000000b0: 42b2 fcbf 9bc9 5d40 adc0 603e 554d c9c0
000000c0: 40d9 22c0 3ca0 91c0 05a8 b93f daac 82bf
000000d0: f888 ba40 c8a7 a1bd 3602 f1bf b8af fdc0
000000e0: 9fc9 0ebf b22e e63f 670f 82c0 43ed 3bc2
000000f0: 1136 8840 a572 693d 5c38 0040 9a2a f3bc
00000100: d509 a0bf 0adc 96bf 2e54 0ebf 8f19 b0be
00000110: 8eae babe 9e24 61bf eb8b c0bf 11fd eabe
00000120: ff5b 8dbf d95c 55bf 522a a13e f8fb 85bc
00000130: 257a 65bf 77bb 26bf 4d15 9cbf 3f1d 1bc0
00000140: 4301 47bf 1b81 58bf 95ee eebd 2d5c 06bf
00000150: 4ea1 0ebd 41f1 0340 2001 06c2 5a12 a8be
00000160: e90c 94be 2b30 9c3f cc08 c7be a5ac d2c1
00000170: 253e 77be 8262 b2c1 32e8 f4be 672b 8f3e
00000180: 96c3 0bc2 1765 9e3f 187d 85bf c2dd 2b40
00000190: 734b 5dc0 b801 afbf 9834 0240 5453 a2be
000001a0: 431c 31c0 f6b2 92bd 6666 96bf 0ae8 0fc1
000001b0: d196 cbbf df1b 033e 2b35 0bbe bd3a 2340
000001c0: 718e 1abf 84d3 f23e e10d 353f cdcb 353f
000001d0: 5ea1 4f3e b8af 5e41 532e 01c1 1b0d 8e40
000001e0: 1a51 e9c1 7ae4 c33f 19c5 d140 dfe0 45c1
000001f0: a4fa 863e 4d15 2ec0 8e06 d0be 7f6a 2841
00000200: e466 b03f 7042 3740 5309 6fbe 4017 dd3e
00000210: 865a f3bd be07 1ac1 4c8e 8240 a531 bbc0
00000220: 08c9 0440 d179 2d3e f645 1cc0 86c9 2ec0
00000230: 2daf 40bf 42b2 1cc0 4182 56c1 29cb 72c1
00000240: c0ec 4440 b82b 4a3d f662 803e 4110 603e
00000250: 446e 923f 0e32 e53f f977 1ec1 addc f3be
00000260: 062a c3bf 40de 0740 c711 17c0 683c 31bf
00000270: 4625 34c1 2bf6 573f f9f7 093e e7fb 4941
00000280: 59a3 be3e 0f7f 9240 abcf a8c1 c85b be3e
00000290: a60a 5541 52b8 56c1 4984 8ebe 0586 a2c0
000002a0: bdac d93e 6553 a4c0 aa43 a640 e948 6c40
000002b0: cf30 35be ec86 2f40 86e6 dabe d387 18c1
000002c0: de1f 9f3f e36b ffc0 69c5 2b3f de3d e0bd
000002d0: 1860 afc0 e527 d53f 2979 e1bf 7172 933f
000002e0: e735 e63f b13f 9ec1 2c2b a340 45d9 9bbe
000002f0: 5b99 d0bf

B1 f4 [9]
-0.743127 2.77921 -0.340848 -0.661146 -0.303633 1.30037 2.10591 -0.00122664
0.169
00000000: 923d 3ebf 94de 3140 a183 aebe dd40 29bf
00000010: c975 9bbe 8672 a63f 3bc7 0640 35c7 a0ba
00000020: 560e 2d3e
