model_dir/VCAS_21/VertCAS_1.pt (torch, 8207 bytes, 8 tensors)

_initializer_W0 f4 [21, 4]
-0.35225 0.136867 -0.421791 -0.42665 0.241582 0.0532116 -0.369594 -0.332809
18.9087 -1.16552 0.623937 -0.105331 -15.4897 -4.42612 4.68565 -0.129804
-8.53226 -6.34231 -0.793013 0.333303 -0.629201 -0.851286 -7.7389 0.513462
-16.8395 1.93484 -2.00494 -0.00458116 0.191368 -0.263522 0.40689 -0.389391
-0.108079 -0.154841 0.385073 0.238111 -0.280039 -0.135985 0.304436 0.366419
-17.2575 -3.61988 9.77003 -0.129281 -14.669 1.39539 1.8166 0.43907
0.814242 1.2285 1.01585 -1.04818 -13.8674 2.68077 -1.9025 -0.217417
14.9953 -0.579637 4.68644 0.210459 15.0521 1.68489 -9.16428 -0.199991
-1.81533 -0.139634 9.16187 0.535097 -15.4847 0.262201 -3.8342 0.0988313
-0.168773 0.272604 -0.292672 0.164327 17.0942 4.41626 -2.74701 -0.139516
11.3171 -3.1803 2.34585 -0.65452
00000000: 1d5a b4be dd26 0c3e fdf4 d7be de71 dabe
00000010: 4661 773e 68f4 593d 6d3b bdbe f165 aabe
00000020: 0545 9741 c22f 95bf 56ba 1f3f c8b7 d7bd
00000030: d0d5 77c1 c6a2 8dc0 d8f0 9540 57eb 04be
00000040: 2384 08c1 34f4 cac0 e602 4bbf b1a6 aa3e
00000050: 5113 21bf e1ed 59bf 12a5 f7c0 3f72 033f
00000060: 4cb7 86c1 d6a8 f73f f050 00c0 8e1d 96bb
00000070: f9f5 433e 5bec 86be e353 d03e 425e c7be
00000080: 8658 ddbd a48e 1ebe 4a28 c53e 5fd3 733e
00000090: 4661 8fbe a73f 0bbe 09df 9b3e 459b bb3e
000000a0: 5c0f 8ac1 1dac 67c0 0b52 1c41 3d62 04be
000000b0: 39b4 6ac1 249c b23f 5986 e83f c8cd e03e
000000c0: 2a72 503f 7d3f 9d3f 5f07 823f c32a 86bf
000000d0: dfe0 5dc1 bc91 2b40 1f85 f3bf 90a2 5ebe
000000e0: c0ec 6f41 1763 14bf 51f7 9540 9082 573e
000000f0: 67d5 7041 7aaa d73f e4a0 12c1 71ca 4cbe
00000100: bc5c e8bf 37fc 0ebe 0597 1241 1efc 083f
00000110: 55c1 77c1 363f 863e 8863 75c0 1168 ca3d
00000120: d4d2 2cbe c092 8b3e 1bd9 95be 5645 283e
00000130: ecc0 8841 0052 8d40 03cf 2fc0 48dd 0ebe
00000140: d712 3541 098a 4bc0 6822 1640 9f8e 27bf

_initializer_B0 f4 [21]
-0.460714 -0.493496 0.96596 -0.297659 0.553744 2.60339 0.863535 -0.510895
-0.471565 -0.548034 0.977821 1.46329 2.6339 0.02047 0.644817 1.20368
2.84063 0.634017 -0.355759 0.396776 0.00545917
00000000: b5e2 ebbe 82ab fcbe 2849 773f c366 98be
00000010: 2bc2 0d3f f19d 2640 a110 5d3f 04ca 02bf
00000020: f870 f1be f54b 0cbf 7a52 7a3f 164d bb3f
00000030: d191 2840 b4b0 a73c ba12 253f 3012 9a3f
00000040: e2cc 3540 f04e 223f 0b26 b6be 3926 cb3e
00000050: d6e2 b23b

_initializer_W1 f4 [9, 21]
0.193892 -0.168269 -5.42568 0.0844409 3.47032 0.779663 -4.67442 -0.295183
-0.183677 -0.0359367 -1.77275 -2.35202 -0.580653 11.3686 3.29349 -1.34384
2.72109 3.72882 -0.0707114 6.63804 4.6912 -0.332878 -0.147926 0.412216
-15.0589 -31.2778 -11.0866 6.66135 0.0701636 -0.348188 -0.00527864 -1.07992
-2.73577 3.76354 -10.9086 1.4627 8.8132 1.67965 -10.3595 0.143287
-2.50179 -4.57523 -0.403649 -0.333814 4.46012 0.392008 -2.54131 1.74082
0.466242 -0.42621 -0.23762 0.27916 7.65209 0.693566 3.49684 -2.99508
-1.6499 -0.784437 -10.1827 1.5128 0.082227 -14.6141 -13.2037 -0.0320489
0.256719 5.438 -13.5053 0.792673 3.21493 5.14282 0.0486674 0.021514
-0.20508 5.44685 2.48983 -1.1875 -11.6584 -3.42811 -7.76284 -1.75274
-8.68435 -0.464458 6.97335 0.0984485 0.435933 -0.278719 3.51659 16.0214
-4.16777 -0.67946 4.12653 -0.214809 -0.373501 -0.358403 -12.5074 4.93148
0.558767 -7.04563 -4.13044 4.4021 2.65792 -0.92245 0.183402 -14.6831
-5.59695 -0.209721 -0.118749 -0.917671 -0.788016 -0.0476413 -2.64705 -0.397143
0.346745 0.0680442 -0.0665696 -1.20333 -0.756732 -1.06595 -1.13694 -0.795592
-1.41439 -1.69841 -1.84965 0.164238 -1.22777 -1.68779 0.246431 0.425193
-0.644084 -0.738502 -0.257791 -2.75062 -0.476222 -0.391217 0.30444 0.392238
-1.59933 -0.791076 -1.29634 -1.36336 -0.73661 -1.14174 -1.20572 -1.49314
0.309884 -1.20494 -1.27965 -0.37702 -0.0166684 -0.266246 -1.14922 0.0637282
-2.89395 -0.922653 -0.149873 -0.331062 0.201512 -1.65436 -0.306259 -1.65271
-1.20168 -0.593829 -1.39928 -1.11365 -1.38977 -0.206355 -1.4943 -0.99512
-0.277365 0.397214 -0.471093 -1.0982 -0.207685 -2.78715 -0.888013 0.281618
0.0183888 -0.00102781 -1.22683 -0.707277 -1.08909 -0.695333 -0.788521 -1.21965
-1.52153 -1.78287 -0.214941 -1.61862 -1.2954
00000000: a08b 463e b54e 2cbe 2c9f adc0 5aef ac3d
00000010: b919 5e40 ff97 473f d994 95c0 3a22 97be
00000020: d315 3cbe 5c32 13bd 79e9 e2bf 7f87 16c0
00000030: ada5 14bf c9e5 3541 8ac8 5240 f302 acbf
00000040: 5726 2e40 fda4 6e40 23d1 90bd d36a d440
00000050: 4f1e 9640 fc6e aabe ea79 17be fa0d d33e
00000060: 41f1 70c1 ef38 fac1 b762 31c1 c729 d540
00000070: efb1 8f3d b345 b2be 71f8 acbb d23a 8abf
00000080: db16 2fc0 d7dd 7040 a089 2ec1 c139 bb3f
00000090: de02 0d41 c5fe d63f 83c0 25c1 d4b9 123e
000000a0: 541d 20c0 4968 92c0 15ab cebe abe9 aabe
000000b0: 4eb9 8e40 46b5 c83e d3a4 22c0 31d3 de3f
000000c0: 45b7 ee3e 3238 dabe a852 73be 0fee 8e3e
000000d0: ecdd f440 8b8d 313f 3acc 5f40 64af 3fc0
000000e0: ec2f d3bf ddd0 48bf 57ec 22c1 6ea3 c13f
000000f0: a166 a83d 5bd3 69c1 5b42 53c1 b545 03bd
00000100: ac70 833e 1904 ae40 b515 58c1 9eec 4a3f
00000110: 6ac1 4d40 fb91 a440 7857 473d 213e b03c
00000120: 7e00 52be 984c ae40 6059 1f40 0000 98bf
00000130: ce88 3ac1 2766 5bc0 2f69 f8c0 c959 e0bf
00000140: 19f3 0ac1 70cd edbe af25 df40 5e9f c93d
00000150: 9c32 df3e 42b4 8ebe d00f 6140 d42b 8041
00000160: 5f5e 85c0 17f1 2dbf 890c 8440 e4f6 5bbe
00000170: 863b bfbe 9980 b7be 4f1e 48c1 afce 9d40
00000180: 5b0b 0f3f cd75 e1c0 912c 84c0 01de 8c40
00000190: 5c1b 2a40 af25 6cbf bccd 3b3e faed 6ac1
000001a0: 371a b3c0 1ac1 56be ad32 f3bd 7dec 6abf
000001b0: 6bbb 49bf 8623 43bd 4469 29c0 5456 cbbe
000001c0: 9088 b13e c25a 8b3d a455 88bd b806 9abf
000001d0: 30b9 41bf 0d71 88bf 4087 91bf ebab 4bbf
000001e0: bb0a b5bf 8065 d9bf 55c1 ecbf 022e 283e
000001f0: 9127 9dbf 8109 d8bf 6858 7c3e e6b2 d93e
00000200: b0e2 24bf 780e 3dbf 2ffd 83be 280a 30c0
00000210: 5fd3 f3be 984d c8be 8fdf 9b3e 6bd3 c83e
00000220: d8b6 ccbf f583 4abf 78ee a5bf 9582 aebf
00000230: 7992 3cbf 8924 92bf 0855 9abf 361f bfbf
00000240: 1ea9 9e3e 793b 9abf 92cb a3bf c408 c1be
00000250: 2b8c 88bc 6551 88be a419 93bf ee83 823d
00000260: 7a36 39c0 fd32 6cbf 4f78 19be f580 a9be
00000270: 2959 4e3e 12c2 d3bf fbcd 9cbe 008c d3bf
00000280: a6d0 99bf 2d05 18bf 9b1b b3bf 158c 8ebf
00000290: fce3 b1bf ba4e 53be 3945 bfbf 2fc0 7ebf
000002a0: c902 8ebe a25f cb3e 1a33 f1be d191 8cbf
000002b0: 60ab 54be aa60 32c0 d254 63bf 3c30 903e
000002c0: 1ca4 963c 95b7 86ba c408 9dbf 1b10 35bf
000002d0: 4d67 8bbf 5801 32bf 83dc 49bf 7e1d 9cbf
000002e0: 7fc1 c2bf 1635 e4bf 7e19 5cbe f12e cfbf
000002f0: abcf a5bf

_initializer_B1 f4 [9]
-0.355766 3.13811 4.17279 -0.83638 0.509772 -0.648486 -1.14819 -1.17037
-0.709691
00000000: f626 b6be cbd6 4840 7f87 8540 001d 56bf
00000010: 6b80 023f 2e03 26bf e4f7 92bf afce 95bf
00000020: 4fae 35bf

weight f4 [21, 4]
-0.35225 0.136867 -0.421791 -0.42665 0.241582 0.0532116 -0.369594 -0.332809
18.9087 -1.16552 0.623937 -0.105331 -15.4897 -4.42612 4.68565 -0.129804
-8.53226 -6.34231 -0.793013 0.333303 -0.629201 -0.851286 -7.7389 0.513462
-16.8395 1.93484 -2.00494 -0.00458116 0.191368 -0.263522 0.40689 -0.389391
-0.108079 -0.154841 0.385073 0.238111 -0.280039 -0.135985 0.304436 0.366419
-17.2575 -3.61988 9.77003 -0.129281 -14.669 1.39539 1.8166 0.43907
0.814242 1.2285 1.01585 -1.04818 -13.8674 2.68077 -1.9025 -0.217417
14.9953 -0.579637 4.68644 0.210459 15.0521 1.68489 -9.16428 -0.199991
-1.81533 -0.139634 9.16187 0.535097 -15.4847 0.262201 -3.8342 0.0988313
-0.168773 0.272604 -0.292672 0.164327 17.0942 4.41626 -2.74701 -0.139516
11.3171 -3.1803 2.34585 -0.65452
00000000: 1d5a b4be dd26 0c3e fdf4 d7be de71 dabe
00000010: 4661 773e 68f4 593d 6d3b bdbe f165 aabe
00000020: 0545 9741 c22f 95bf 56ba 1f3f c8b7 d7bd
00000030: d0d5 77c1 c6a2 8dc0 d8f0 9540 57eb 04be
00000040: 2384 08c1 34f4 cac0 e602 4bbf b1a6 aa3e
00000050: 5113 21bf e1ed 59bf 12a5 f7c0 3f72 033f
00000060: 4cb7 86c1 d6a8 f73f f050 00c0 8e1d 96bb
00000070: f9f5 433e 5bec 86be e353 d03e 425e c7be
00000080: 8658 ddbd a48e 1ebe 4a28 c53e 5fd3 733e
00000090: 4661 8fbe a73f 0bbe 09df 9b3e 459b bb3e
000000a0: 5c0f 8ac1 1dac 67c0 0b52 1c41 3d62 04be
000000b0: 39b4 6ac1 249c b23f 5986 e83f c8cd e03e
000000c0: 2a72 503f 7d3f 9d3f 5f07 823f c32a 86bf
000000d0: dfe0 5dc1 bc91 2b40 1f85 f3bf 90a2 5ebe
000000e0: c0ec 6f41 1763 14bf 51f7 9540 9082 573e
000000f0: 67d5 7041 7aaa d73f e4a0 12c1 71ca 4cbe
00000100: bc5c e8bf 37fc 0ebe 0597 1241 1efc 083f
00000110: 55c1 77c1 363f 863e 8863 75c0 1168 ca3d
00000120: d4d2 2cbe c092 8b3e 1bd9 95be 5645 283e
00000130: ecc0 8841 0052 8d40 03cf 2fc0 48dd 0ebe
00000140: d712 3541 098a 4bc0 6822 1640 9f8e 27bf

bias f4 [21]
-0.460714 -0.493496 0.96596 -0.297659 0.553744 2.60339 0.863535 -0.510895
-0.471565 -0.548034 0.977821 1.46329 2.6339 0.02047 0.644817 1.20368
2.84063 0.634017 -0.355759 0.396776 0.00545917
00000000: b5e2 ebbe 82ab fcbe 2849 773f c366 98be
00000010: 2bc2 0d3f f19d 2640 a110 5d3f 04ca 02bf
00000020: f870 f1be f54b 0cbf 7a52 7a3f 164d bb3f
00000030: d191 2840 b4b0 a73c ba12 253f 3012 9a3f
00000040: e2cc 3540 f04e 223f 0b26 b6be 3926 cb3e
00000050: d6e2 b23b

weight f4 [9, 21]
0.193892 -0.168269 -5.42568 0.0844409 3.47032 0.779663 -4.67442 -0.295183
-0.183677 -0.0359367 -1.77275 -2.35202 -0.580653 11.3686 3.29349 -1.34384
2.72109 3.72882 -0.0707114 6.63804 4.6912 -0.332878 -0.147926 0.412216
-15.0589 -31.2778 -11.0866 6.66135 0.0701636 -0.348188 -0.00527864 -1.07992
-2.73577 3.76354 -10.9086 1.4627 8.8132 1.67965 -10.3595 0.143287
-2.50179 -4.57523 -0.403649 -0.333814 4.46012 0.392008 -2.54131 1.74082
0.466242 -0.42621 -0.23762 0.27916 7.65209 0.693566 3.49684 -2.99508
-1.6499 -0.784437 -10.1827 1.5128 0.082227 -14.6141 -13.2037 -0.0320489
0.256719 5.438 -13.5053 0.792673 3.21493 5.14282 0.0486674 0.021514
-0.20508 5.44685 2.48983 -1.1875 -11.6584 -3.42811 -7.76284 -1.75274
-8.68435 -0.464458 6.97335 0.0984485 0.435933 -0.278719 3.51659 16.0214
-4.16777 -0.67946 4.12653 -0.214809 -0.373501 -0.358403 -12.5074 4.93148
0.558767 -7.04563 -4.13044 4.4021 2.65792 -0.92245 0.183402 -14.6831
-5.59695 -0.209721 -0.118749 -0.917671 -0.788016 -0.0476413 -2.64705 -0.397143
0.346745 0.0680442 -0.0665696 -1.20333 -0.756732 -1.06595 -1.13694 -0.795592
-1.41439 -1.69841 -1.84965 0.164238 -1.22777 -1.68779 0.246431 0.425193
-0.644084 -0.738502 -0.257791 -2.75062 -0.476222 -0.391217 0.30444 0.392238
-1.59933 -0.791076 -1.29634 -1.36336 -0.73661 -1.14174 -1.20572 -1.49314
0.309884 -1.20494 -1.27965 -0.37702 -0.0166684 -0.266246 -1.14922 0.0637282
-2.89395 -0.922653 -0.149873 -0.331062 0.201512 -1.65436 -0.306259 -1.65271
-1.20168 -0.593829 -1.39928 -1.11365 -1.38977 -0.206355 -1.4943 -0.99512
-0.277365 0.397214 -0.471093 -1.0982 -0.207685 -2.78715 -0.888013 0.281618
0.0183888 -0.00102781 -1.22683 -0.707277 -1.08909 -0.695333 -0.788521 -1.21965
-1.52153 -1.78287 -0.214941 -1.61862 -1.2954
00000000: a08b 463e b54e 2cbe 2c9f adc0 5aef ac3d
00000010: b919 5e40 ff97 473f d994 95c0 3a22 97be
00000020: d315 3cbe 5c32 13bd 79e9 e2bf 7f87 16c0
00000030: ada5 14bf c9e5 3541 8ac8 5240 f302 acbf
00000040: 5726 2e40 fda4 6e40 23d1 90bd d36a d440
00000050: 4f1e 9640 fc6e aabe ea79 17be fa0d d33e
00000060: 41f1 70c1 ef38 fac1 b762 31c1 c729 d540
00000070: efb1 8f3d b345 b2be 71f8 acbb d23a 8abf
00000080: db16 2fc0 d7dd 7040 a089 2ec1 c139 bb3f
00000090: de02 0d41 c5fe d63f 83c0 25c1 d4b9 123e
000000a0: 541d 20c0 4968 92c0 15ab cebe abe9 aabe
000000b0: 4eb9 8e40 46b5 c83e d3a4 22c0 31d3 de3f
000000c0: 45b7 ee3e 3238 dabe a852 73be 0fee 8e3e
000000d0: ecdd f440 8b8d 313f 3acc 5f40 64af 3fc0
000000e0: ec2f d3bf ddd0 48bf 57ec 22c1 6ea3 c13f
000000f0: a166 a83d 5bd3 69c1 5b42 53c1 b545 03bd
00000100: ac70 833e 1904 ae40 b515 58c1 9eec 4a3f
00000110: 6ac1 4d40 fb91 a440 7857 473d 213e b03c
00000120: 7e00 52be 984c ae40 6059 1f40 0000 98bf
00000130: ce88 3ac1 2766 5bc0 2f69 f8c0 c959 e0bf
00000140: 19f3 0ac1 70cd edbe af25 df40 5e9f c93d
00000150: 9c32 df3e 42b4 8ebe d00f 6140 d42b 8041
00000160: 5f5e 85c0 17f1 2dbf 890c 8440 e4f6 5bbe
00000170: 863b bfbe 9980 b7be 4f1e 48c1 afce 9d40
00000180: 5b0b 0f3f cd75 e1c0 912c 84c0 01de 8c40
00000190: 5c1b 2a40 af25 6cbf bccd 3b3e faed 6ac1
000001a0: 371a b3c0 1ac1 56be ad32 f3bd 7dec 6abf
000001b0: 6bbb 49bf 8623 43bd 4469 29c0 5456 cbbe
000001c0: 9088 b13e c25a 8b3d a455 88bd b806 9abf
000001d0: 30b9 41bf 0d71 88bf 4087 91bf ebab 4bbf
000001e0: bb0a b5bf 8065 d9bf 55c1 ecbf 022e 283e
000001f0: 9127 9dbf 8109 d8bf 6858 7c3e e6b2 d93e
00000200: b0e2 24bf 780e 3dbf 2ffd 83be 280a 30c0
00000210: 5fd3 f3be 984d c8be 8fdf 9b3e 6bd3 c83e
00000220: d8b6 ccbf f583 4abf 78ee a5bf 9582 aebf
00000230: 7992 3cbf 8924 92bf 0855 9abf 361f bfbf
00000240: 1ea9 9e3e 793b 9abf 92cb a3bf c408 c1be
00000250: 2b8c 88bc 6551 88be a419 93bf ee83 823d
00000260: 7a36 39c0 fd32 6cbf 4f78 19be f580 a9be
00000270: 2959 4e3e 12c2 d3bf fbcd 9cbe 008c d3bf
00000280: a6d0 99bf 2d05 18bf 9b1b b3bf 158c 8ebf
00000290: fce3 b1bf ba4e 53be 3945 bfbf 2fc0 7ebf
000002a0: c902 8ebe a25f cb3e 1a33 f1be d191 8cbf
000002b0: 60ab 54be aa60 32c0 d254 63bf 3c30 903e
000002c0: 1ca4 963c 95b7 86ba c408 9dbf 1b10 35bf
000002d0: 4d67 8bbf 5801 32bf 83dc 49bf 7e1d 9cbf
000002e0: 7fc1 c2bf 1635 e4bf 7e19 5cbe f12e cfbf
000002f0: abcf a5bf

bias f4 [9]
-0.355766 3.13811 4.17279 -0.83638 0.509772 -0.648486 -1.14819 -1.17037
-0.709691
00000000: f626 b6be cbd6 4840 7f87 8540 001d 56bf
00000010: 6b80 023f 2e03 26bf e4f7 92bf afce 95bf
00000020: 4fae 35bf
