model_dir/VCAS_21/VertCAS_3.onnx (onnx, 1432 bytes, 4 tensors)

W0 f4 [21, 4]
-9.01096 -0.0404301 1.64079 -0.0592412 12.5838 -2.91523 1.73925 3.30175
13.8588 -2.48266 4.54722 1.38845 -4.32452 -4.14901 2.90218 -0.266777
2.71441 2.18779 4.79104 0.17097 0.152557 0.174404 0.243115 -0.482533
-11.7549 -2.32194 7.2109 -0.485681 0.0435143 -0.131046 0.133053 -0.417623
-9.13758 2.43301 -2.63466 1.36689 -6.35302 -2.11348 0.418184 0.358349
0.236803 -0.103637 -0.45492 0.133132 -7.1776 -6.02207 -1.82936 -0.556987
1.38191 1.46982 -0.236951 1.91382 13.2585 -2.41328 1.90907 -0.447368
16.9011 5.08357 -5.38517 -0.103677 -8.0728 0.488286 -4.04439 0.779715
1.03447 0.63228 -0.441249 0.297539 -10.2012 -0.0556922 0.346992 -0.0359201
0.334938 5.22173 0.822581 -0.0505262 -0.422473 0.509536 0.421902 -1.42075
-4.7328 -0.179094 -4.79018 1.88653
00000000: e42c 10c1 089a 25bd 6805 d23f e7a6 72bd
00000010: 3f57 4941 2193 3ac0 be9f de3f df4f 5340
00000020: a5bd 5d41 e7e3 1ec0 d482 9140 bbb8 b13f
00000030: 7862 8ac0 b1c4 84c0 51bd 3940 ff96 88be
00000040: e5b8 2d40 c004 0c40 3350 9940 c212 2f3e
00000050: e737 1c3e f696 323e 23f3 783e 910e f7be
00000060: 1214 3cc1 aa9a 14c0 b1bf e640 2eab f8be
00000070: 0d3c 323d ec30 06be 0c3f 083e afd2 d5be
00000080: 8733 12c1 70b6 1b40 459e 28c0 40f6 ae3f
00000090: f14b cbc0 4243 07c0 371c d63e 8579 b73e
000000a0: 7c7c 723e a33f d4bd 46eb e8be c153 083e
000000b0: e6ae e5c0 ccb4 c0c0 7828 eabf b396 0ebf
000000c0: 6de2 b03f 1023 bc3f 48a3 72be 0ef8 f43f
000000d0: d122 5441 2e73 1ac0 685c f43f 6b0d e5be
000000e0: 7435 8741 9bac a240 5053 acc0 9b54 d4bd
000000f0: 302a 01c1 9f00 fa3e a56b 81c0 679b 473f
00000100: 8369 843f 1add 213f 64eb e1be 0857 983e
00000110: 1d38 23c1 811d 64bd efa8 b13e f420 13bd
00000120: fe7c ab3e 6a18 a740 ab94 523f 90f4 4ebd
00000130: 624e d8be f470 023f 8a03 d83e 23db b5bf
00000140: 1973 97c0 6b64 37be 2849 99c0 d179 f13f

B0 f4 [21]
-0.407107 -0.593699 0.0424119 0.0523877 1.87642 -0.23895 0.829788 -0.341132
-0.031109 0.659552 -0.501485 -0.625332 1.46473 0.129697 -0.375245 -0.76456
2.70513 0.327216 -0.33348 1.16034 0.964759
00000000: 5470 d0be a8fc 17bf 1ab8 2d3d 7c94 563d
00000010: 882e f03f 4faf 74be fd6c 543f daa8 aebe
00000020: 4dd8 febc 66d8 283f 5261 00bf c215 20bf
00000030: 467c bb3f 4acf 043e 1d20 c0be 34ba 43bf
00000040: da20 2d40 db88 a73e e4bd aabe 0586 943f
00000050: 72fa 763f

W1 f4 [9, 21]
-4.42149 -1.2597 3.97307 -0.0125409 2.02215 -0.265507 -0.304765 0.405157
2.65119 0.446695 -0.080825 1.96662 -0.999907 5.82883 1.92088 0.172027
-1.68371 5.94542 -0.310323 -0.754943 0.904648 -4.60908 -0.266203 3.4184
-7.77365 -0.0523607 -0.0444699 3.27777 0.163809 -3.05378 -8.66611 -0.312087
-1.30739 1.43202 0.973069 3.7484 -25.1149 -2.23338 2.77947 -0.888043
-0.794444 -5.04065 5.98668 -1.28904 0.969189 -1.00863 -4.13111 0.168929
2.2048 -0.0129066 -1.18415 -1.1928 0.147504 0.506097 0.959927 -5.00419
-6.31933 1.83873 1.39551 -3.64346 2.90093 0.843387 0.776434 -6.91391
8.5505 -4.8775 -5.84129 0.946014 -0.127636 1.55967 0.0028441 -8.91029
3.74738 -0.0683048 -16.56 -0.575966 2.16302 -0.504423 -17.6889 -0.108794
-3.95056 -2.11664 1.82585 -6.7765 21.1631 0.28591 -7.08575 12.7556
1.11518 0.12672 -11.3452 0.151763 -0.487105 1.66034 0.305629 -6.0551
1.88406 -12.3999 -10.6068 -5.75734 1.35036 -5.89677 -11.8963 0.584672
1.32123 -1.03033 -0.28506 -0.543362 -0.84285 -0.602123 -0.197431 -0.538945
-0.0983736 -0.571368 -1.02001 -0.435195 -0.0377678 -0.895717 -0.5252 -0.250347
0.041192 -6.07726 -1.10546 -2.94684 -0.535344 -0.603854 -0.884287 -0.157726
-1.03775 -0.657497 -1.06244 -0.294567 -0.879956 -0.0913523 -0.533817 -0.697414
0.346778 0.0311812 -1.31895 -1.16774 -0.249516 -0.304272 -5.29471 -1.05865
-2.01964 -0.147807 -0.601872 -1.07354 -0.632278 -0.437509 -0.581257 -1.00165
0.0075704 -0.625856 0.314525 -0.354383 -1.21882 0.217515 0.113799 -0.677122
-0.943833 -0.470002 -0.0158532 -5.50848 -0.75169 -2.466 -0.684121 -0.849738
-0.532062 -0.170814 -1.05304 -0.673841 -1.09204 -0.0762568 -0.671951 -0.257957
-0.857548 -1.12111 0.17863 -0.291042 -1.15443 -0.71792 -0.365907 0.225655
-5.43146 -0.938868 -2.36741 -0.610264 -0.869013
00000000: d97c 8dc0 d93d a1bf c746 7e40 5978 4dbc
00000010: e86a 0140 89f0 87be 280a 9cbe bd70 cf3e
00000020: 19ad 2940 35b5 e43e 9487 a5bd 34ba fb3f
00000030: e8f9 7fbf c685 ba40 65df f53f d927 303e
00000040: cf83 d7bf e140 be40 a8e2 9ebe f243 41bf
00000050: 0397 673f 957d 93c0 c24b 88be 11c7 5a40
00000060: bec1 f8c0 2c78 56bd 1226 36bd fcc6 5140
00000070: 8cbd 273e 2271 43c0 63a8 0ac1 dec9 9fbe
00000080: 8e58 a7bf 6e4c b73f 0d1b 793f c9e5 6f40
00000090: 51eb c8c1 b3ef 0ec0 d6e2 3140 c956 63bf
000000a0: af60 4bbf 014d a1c0 e292 bf40 43ff a4bf
000000b0: c51c 783f ca1a 81bf 0e32 84c0 b9fb 2c3e
000000c0: 711b 0d40 3476 53bc 3a92 97bf acad 98bf
000000d0: 4a0b 173e 938f 013f c7bd 753f 5322 a0c0
000000e0: f437 cac0 815b eb3f 12a0 b23f 732e 69c0
000000f0: d6a8 3940 36e8 573f 61c4 463f c03e ddc0
00000100: d9ce 0841 7b14 9cc0 d9eb bac0 f92d 723f
00000110: 03b3 02be 44a3 c73f 1464 3a3b 8c90 0ec1
00000120: 13d5 6f40 63e3 8bbd e17a 84c1 8272 13bf
00000130: eb6e 0a40 de21 01bf de82 8dc1 64cf debd
00000140: fad5 7cc0 0877 07c0 74b5 e93f 17d9 d8c0
00000150: 074e a941 cc62 923e 77be e2c0 f016 4c41
00000160: 38be 8e3f e3c2 013e f085 35c1 c367 1b3e
00000170: d465 f9be 0586 d43f 677b 9c3e 61c3 c1c0
00000180: e128 f13f fe65 46c1 74b5 29c1 213c b8c0
00000190: 99d8 ac3f 57b2 bcc0 3f57 3ec1 10ad 153f
000001a0: 111e a93f dae1 83bf 62f3 91be c619 0bbf
000001b0: 05c5 57bf bc24 1abf 5a2b 4abe 4df8 09bf
000001c0: 1978 c9bd 2c45 12bf b08f 82bf e1d1 debe
000001d0: 69b2 1abd b64d 65bf 8273 06bf 7b2d 80be
000001e0: f1b8 283d ea78 c2c0 b77f 8dbf 0799 3cc0
000001f0: 4e0c 09bf 2d96 1abf a260 62bf ed82 21be
00000200: fed4 84bf b951 28bf 09fe 87bf 7cd1 96be
00000210: cc44 61bf ea16 bbbd 3ba8 08bf b989 32bf
00000220: e38c b13e b76f ff3c 5bd3 a8bf 8178 95bf
00000230: 1f81 7fbe 8ac9 9bbe 446e a9c0 d881 87bf
00000240: c841 01c0 b85a 17be 4914 1abf c269 89bf
00000250: f9dc 21bf 2e01 e0be 42cd 14bf 1136 80bf
00000260: 1e11 f83b 1938 20bf 6c09 a13e b071 b5be
00000270: 4b02 9cbf 41bc 5e3e 730f e93d de57 2dbf
00000280: 0a9f 71bf 1aa4 f0be 92de 81bc 7845 b0c0
00000290: c16e 40bf f2d2 1dc0 8e22 2fbf 6e88 59bf
000002a0: 3735 08bf dde9 2ebe 04ca 86bf d880 2cbf
000002b0: f7c7 8bbf 862c 9cbd fb04 2cbf f112 84be
000002c0: 4488 5bbf 8880 8fbf c8ea 363e 7503 95be
000002d0: 5dc4 93bf 9bc9 37bf 2a58 bbbe 1b12 673e
000002e0: 85ce adc0 a759 70bf a583 17c0 433a 1cbf
000002f0: a377 5ebf

B1 f4 [9]
-1.70936 -1.2161 1.31576 0.809685 1.00233 -0.00114282 -1.25346 -0.804668
0.0148607
00000000: 4fcc dabf 2aa9 9bbf d36a a83f 8447 4f3f
00000010: 594c 803f adca 95ba 6171 a0bf b9fe 4dbf
00000020: 4b7a 733c
