model_dir/VCAS_21/VertCAS_5.pt (torch, 8207 bytes, 8 tensors)

_initializer_W0 f4 [21, 4]
-13.237 2.58349 -2.21622 0.00936631 0.17636 -0.303603 -0.312959 0.06486
15.3531 4.72497 -8.12525 -0.21446 -6.48452 -4.78081 -6.11862 -0.0746848
0.213162 -0.416741 0.224706 0.25456 3.51369 1.44026 6.24089 0.603459
-5.10323 -2.16941 -2.42442 0.66089 -9.47719 -2.21679 9.55841 -0.0746657
0.111356 0.59531 7.95603 0.547262 -11.4437 -3.92527 -2.42793 -0.442333
8.7906 -3.6937 2.5486 0.593206 -20.9245 -1.73446 1.65118 0.996502
-9.04554 4.52027 -5.53879 -0.337448 -15.628 0.705524 0.559308 0.21547
-0.179617 0.227441 0.00918359 0.287782 12.592 3.31704 -3.47574 -0.0645705
-12.4461 0.273877 -1.28843 0.0526903 -4.63221 2.75626 -4.24579 -0.512662
0.419608 0.302679 0.180882 -0.289909 -0.0309193 -0.0511013 -0.155206 -0.409196
-1.5386 4.81068 -1.85411 0.996639
00000000: c1ca 53c1 e657 2540 8cd6 0dc0 2775 193c
00000010: b797 343e da71 9bbe 293c a0be 52d5 843d
00000020: 4ca6 7541 f432 9740 0601 02c1 679b 5bbe
00000030: 3081 cfc0 65fc 98c0 bccb c3c0 58f4 98bd
00000040: 2447 5a3e 145f d5be 5419 663e b055 823e
00000050: 4ce0 6040 715a b83f 5fb5 c740 4a7c 1a3f
00000060: a94d a3c0 9dd7 0ac0 b329 1bc0 1630 293f
00000070: 92a2 17c1 e3df 0dc0 3fef 1841 55ea 98bd
00000080: 9d0e e43d 3c66 183f cc97 fe40 5d19 0c3f
00000090: 6519 37c1 a037 7bc0 3563 1bc0 7979 e2be
000000a0: 4ca6 0c41 9565 6cc0 431c 2340 59dc 173f
000000b0: 6065 a7c1 c902 debf de59 d33f c11a 7f3f
000000c0: 88ba 10c1 0da6 9040 c53d b1c0 fcc5 acbe
000000d0: 4a0c 7ac1 399d 343f cf2e 0f3f 2ba4 5c3e
000000e0: 85ed 37be 4be6 683e c576 163c 2a58 933e
000000f0: d578 4941 624a 5440 8672 5ec0 8a3d 84bd
00000100: 3a23 47c1 9b39 8c3e 46eb a4bf c9d1 573d
00000110: 103b 94c0 9066 3040 83dd 87c0 d13d 03bf
00000120: dcd6 d63e bef8 9a3e 2239 393e f46e 94be
00000130: 794a fdbc 994f 51bd 52ee 1ebe 2382 d1be
00000140: d8f0 c4bf 17f1 9940 7a53 edbf bc23 7f3f

_initializer_B0 f4 [21]
-0.00524256 -0.467758 0.77569 -0.0934819 -0.534676 2.39201 1.78472 0.719345
1.23756 1.10822 -0.0251445 0.8025 0.751549 -1.15266 -0.518359 -0.203822
-0.125463 2.05807 -0.449288 -0.185069 2.59022
00000000: c8c9 abbb fa7d efbe 9f93 463f 7073 bfbd
00000010: 87e0 08bf b116 1940 b471 e43f fe26 383f
00000020: 5e68 9e3f 27da 8d3f d7fb cdbc a470 4d3f
00000030: 8465 403f 5d8a 93bf 2db3 04bf b7b6 50be
00000040: 5f79 00be 6bb7 0340 1409 e6be ba82 3dbe
00000050: 2ac6 2540

_initializer_W1 f4 [9, 21]
9.0493 -0.345674 1.00704 2.5406 -0.292574 2.67163 1.56748 -1.7977
2.36536 0.467688 1.01377 -1.81269 -1.44684 -2.6448 -0.164863 7.39347
8.10359 -2.18209 -0.267472 -0.336325 -2.83237 -1.38984 -0.317212 3.61273
-31.0499 -0.448009 1.11541 -9.90612 -0.122348 -0.74342 3.80295 1.86621
0.241228 -4.99918 -37.9344 0.194967 -0.0648765 -52.4007 -0.0934393 -0.478337
0.057665 1.30056 0.164385 0.28295 1.12095 2.02744 -0.268781 -7.6629
0.259474 7.20306 -0.25708 1.55064 -8.91561 -0.331113 -2.72675 -0.38568
0.379484 -8.49028 -3.37101 1.99794 -0.401724 0.217177 1.78133 -2.42805
-0.115396 -0.857733 -1.45586 0.258308 -2.31151 -1.51833 -1.61287 -1.23603
-0.936569 -0.654006 -1.18405 -0.654665 -0.617073 0.105524 -2.45506 -0.74026
-1.26548 0.258082 0.239268 -1.0525 -3.30308 -0.386953 1.59029 2.85659
0.0774906 0.556046 -2.19746 4.27206 -5.25261 0.42619 -6.86384 -0.0531534
1.46799 9.08589 -0.0774871 -12.8064 -4.03918 0.4696 -0.377256 0.208056
2.72093 -16.8821 -0.357422 -12.1551 -6.01415 0.193752 0.568088 1.62167
-1.65847 -1.52816 -4.85499 1.97887 -0.933614 2.96159 5.54482 -0.351496
6.22129 -11.3363 3.89394 -0.338012 0.203609 2.89278 -13.8523 0.132213
2.64114 -4.05647 0.340199 -3.26983 0.866603 -9.7333 6.48691 2.25276
1.46719 7.1319 5.10703 12.5951 -0.263452 -9.33657 -4.35321 1.14324
-0.420333 0.297286 -1.29525 -1.72353 0.44636 -0.469207 -1.80114 -0.0180538
-2.56355 -1.61343 -1.49423 -1.5024 -0.927965 -0.454147 -0.599997 -1.03161
-0.502612 0.157636 -2.91241 -1.17576 -0.860055 -0.0473848 0.393673 -1.19937
-2.0546 -0.0710797 -0.915935 -2.00644 -0.109935 -2.83175 -1.06663 -1.91335
-1.72823 -0.805583 -0.520672 -0.977051 -0.481045 -0.791649 -0.348104 -3.189
-0.872761 -1.47112 0.257311 -0.0662132 -0.796229
00000000: efc9 1041 2ffc b0be b0e6 803f 3199 2240
00000010: 42cc 95be fcfb 2a40 2fa3 c83f 091b e6bf
00000020: 0f62 1740 cd74 ef3e 37c3 813f 3a06 e8bf
00000030: 0e32 b9bf 6744 29c0 d9d1 28be 4e97 ec40
00000040: 4ea8 0141 5da7 0bc0 17f2 88be ca32 acbe
00000050: 8d45 35c0 47e6 b1bf 9c69 a2be f836 6740
00000060: 3266 f8c1 7061 e5be c1c5 8e3f 787f 1ec1
00000070: 9791 fabd c650 3ebf 8863 7340 f8df ee3f
00000080: 7904 773e 48f9 9fc0 d3bc 17c2 6ea5 473e
00000090: f8dd 84bd 519a 51c2 1b5d bfbd 96e8 f4be
000000a0: 2332 6c3d c078 a63f 8b54 283e d3de 903e
000000b0: 4a7b 8f3f 94c1 0140 aa9d 89be 7a36 f5c0
000000c0: c7d9 843e 787f e640 fd9f 83be 5f7b c63f
000000d0: 57a6 0ec1 a587 a9be 1283 2ec0 d977 c5be
000000e0: ba4b c23e 30d8 07c1 a1be 57c0 7fbc ff3f
000000f0: c5ae cdbe a663 5e3e 9f02 e43f 2c65 1bc0
00000100: bd54 ecbd 6494 5bbf 9f59 babf f240 843e
00000110: c8ef 13c0 a358 c2bf 8672 cebf 3b36 9ebf
00000120: fcc2 6fbf f06c 27bf f38e 97bf 2098 27bf
00000130: 7ff8 1dbf f81c d83d b41f 1dc0 ae81 3dbf
00000140: 40fb a1bf 5323 843e ac02 753e 52b8 86bf
00000150: aa65 53c0 b41e c6be 9f8e cb3f 5fd2 3640
00000160: 64b3 9e3d 0859 0e3f 2fa3 0cc0 b7b4 8840
00000170: 6215 a8c0 9335 da3e 94a4 dbc0 61b7 59bd
00000180: 19e7 bb3f ce5f 1141 8fb1 9ebd 04e7 4cc1
00000190: f640 81c0 696f f03e b327 c1be a20c 553e
000001a0: b823 2e40 8a0e 87c1 0400 b7be 4a7b 42c1
000001b0: eb73 c0c0 ed66 463e 376e 113f e292 cf3f
000001c0: bf48 d4bf bf9a c3bf 145c 9bc0 9d4b fd3f
000001d0: 5401 6fbf b18a 3d40 2a6f b140 49f7 b3be
000001e0: cf14 c740 7c61 35c1 5036 7940 e90f adbe
000001f0: e17e 503e 4f23 3940 05a3 5dc1 d862 073e
00000200: 7008 2940 9ace 81c0 902e ae3e e544 51c0
00000210: b2d9 5d3f 99bb 1bc1 c494 cf40 382d 1040
00000220: e2cc bb3f 8638 e440 ca6c a340 8885 4941
00000230: 2ee3 86be 9762 15c1 7f4d 8bc0 b055 923f
00000240: e335 d7be df35 983e c1ca a5bf a29c dcbf
00000250: 4c89 e43e e63b f0be c18b e6bf 90e5 93bc
00000260: 3411 24c0 e084 cebf ee42 bfbf a54e c0bf
00000270: 1d8f 6dbf f585 e8be 6799 19bf cc0b 84bf
00000280: 2eab 00bf 556b 213e ed64 3ac0 4e7f 96bf
00000290: 912c 5cbf 9016 42bd 828f c93e f584 99bf
000002a0: 917e 03c0 3c92 91bd b77a 6abf 8369 00c0
000002b0: 9a25 e1bd 643b 35c0 5587 88bf a7e8 f4bf
000002c0: a436 ddbf b03a 4ebf c34a 05bf 0420 7abf
000002d0: 884b f6be 82a9 4abf b03a b2be 9318 4cc0
000002e0: 446d 5fbf a94d bcbf 44be 833e c99a 87bd
000002f0: aad5 4bbf

_initializer_B1 f4 [9]
0.9783 0.347592 -0.87825 -0.620301 0.238997 1.96556 -1.20542 -0.42551
0.168031
00000000: de71 7a3f 94f7 b13e fed4 60bf 0ccc 1ebf
00000010: a1bb 743e 7897 fb3f 344b 9abf 72dc d9be
00000020: 5210 2c3e

weight f4 [21, 4]
-13.237 2.58349 -2.21622 0.00936631 0.17636 -0.303603 -0.312959 0.06486
15.3531 4.72497 -8.12525 -0.21446 -6.48452 -4.78081 -6.11862 -0.0746848
0.213162 -0.416741 0.224706 0.25456 3.51369 1.44026 6.24089 0.603459
-5.10323 -2.16941 -2.42442 0.66089 -9.47719 -2.21679 9.55841 -0.0746657
0.111356 0.59531 7.95603 0.547262 -11.4437 -3.92527 -2.42793 -0.442333
8.7906 -3.6937 2.5486 0.593206 -20.9245 -1.73446 1.65118 0.996502
-9.04554 4.52027 -5.53879 -0.337448 -15.628 0.705524 0.559308 0.21547
-0.179617 0.227441 0.00918359 0.287782 12.592 3.31704 -3.47574 -0.0645705
-12.4461 0.273877 -1.28843 0.0526903 -4.63221 2.75626 -4.24579 -0.512662
0.419608 0.302679 0.180882 -0.289909 -0.0309193 -0.0511013 -0.155206 -0.409196
-1.5386 4.81068 -1.85411 0.996639
00000000: c1ca 53c1 e657 2540 8cd6 0dc0 2775 193c
00000010: b797 343e da71 9bbe 293c a0be 52d5 843d
00000020: 4ca6 7541 f432 9740 0601 02c1 679b 5bbe
00000030: 3081 cfc0 65fc 98c0 bccb c3c0 58f4 98bd
00000040: 2447 5a3e 145f d5be 5419 663e b055 823e
00000050: 4ce0 6040 715a b83f 5fb5 c740 4a7c 1a3f
00000060: a94d a3c0 9dd7 0ac0 b329 1bc0 1630 293f
00000070: 92a2 17c1 e3df 0dc0 3fef 1841 55ea 98bd
00000080: 9d0e e43d 3c66 183f cc97 fe40 5d19 0c3f
00000090: 6519 37c1 a037 7bc0 3563 1bc0 7979 e2be
000000a0: 4ca6 0c41 9565 6cc0 431c 2340 59dc 173f
000000b0: 6065 a7c1 c902 debf de59 d33f c11a 7f3f
000000c0: 88ba 10c1 0da6 9040 c53d b1c0 fcc5 acbe
000000d0: 4a0c 7ac1 399d 343f cf2e 0f3f 2ba4 5c3e
000000e0: 85ed 37be 4be6 683e c576 163c 2a58 933e
000000f0: d578 4941 624a 5440 8672 5ec0 8a3d 84bd
00000100: 3a23 47c1 9b39 8c3e 46eb a4bf c9d1 573d
00000110: 103b 94c0 9066 3040 83dd 87c0 d13d 03bf
00000120: dcd6 d63e bef8 9a3e 2239 393e f46e 94be
00000130: 794a fdbc 994f 51bd 52ee 1ebe 2382 d1be
00000140: d8f0 c4bf 17f1 9940 7a53 edbf bc23 7f3f

bias f4 [21]
-0.00524256 -0.467758 0.77569 -0.0934819 -0.534676 2.39201 1.78472 0.719345
1.23756 1.10822 -0.0251445 0.8025 0.751549 -1.15266 -0.518359 -0.203822
-0.125463 2.05807 -0.449288 -0.185069 2.59022
00000000: c8c9 abbb fa7d efbe 9f93 463f 7073 bfbd
00000010: 87e0 08bf b116 1940 b471 e43f fe26 383f
00000020: 5e68 9e3f 27da 8d3f d7fb cdbc a470 4d3f
00000030: 8465 403f 5d8a 93bf 2db3 04bf b7b6 50be
00000040: 5f79 00be 6bb7 0340 1409 e6be ba82 3dbe
00000050: 2ac6 2540

weight f4 [9, 21]
9.0493 -0.345674 1.00704 2.5406 -0.292574 2.67163 1.56748 -1.7977
2.36536 0.467688 1.01377 -1.81269 -1.44684 -2.6448 -0.164863 7.39347
8.10359 -2.18209 -0.267472 -0.336325 -2.83237 -1.38984 -0.317212 3.61273
-31.0499 -0.448009 1.11541 -9.90612 -0.122348 -0.74342 3.80295 1.86621
0.241228 -4.99918 -37.9344 0.194967 -0.0648765 -52.4007 -0.0934393 -0.478337
0.057665 1.30056 0.164385 0.28295 1.12095 2.02744 -0.268781 -7.6629
0.259474 7.20306 -0.25708 1.55064 -8.91561 -0.331113 -2.72675 -0.38568
0.379484 -8.49028 -3.37101 1.99794 -0.401724 0.217177 1.78133 -2.42805
-0.115396 -0.857733 -1.45586 0.258308 -2.31151 -1.51833 -1.61287 -1.23603
-0.936569 -0.654006 -1.18405 -0.654665 -0.617073 0.105524 -2.45506 -0.74026
-1.26548 0.258082 0.239268 -1.0525 -3.30308 -0.386953 1.59029 2.85659
0.0774906 0.556046 -2.19746 4.27206 -5.25261 0.42619 -6.86384 -0.0531534
1.46799 9.08589 -0.0774871 -12.8064 -4.03918 0.4696 -0.377256 0.208056
2.72093 -16.8821 -0.357422 -12.1551 -6.01415 0.193752 0.568088 1.62167
-1.65847 -1.52816 -4.85499 1.97887 -0.933614 2.96159 5.54482 -0.351496
6.22129 -11.3363 3.89394 -0.338012 0.203609 2.89278 -13.8523 0.132213
2.64114 -4.05647 0.340199 -3.26983 0.866603 -9.7333 6.48691 2.25276
1.46719 7.1319 5.10703 12.5951 -0.263452 -9.33657 -4.35321 1.14324
-0.420333 0.297286 -1.29525 -1.72353 0.44636 -0.469207 -1.80114 -0.0180538
-2.56355 -1.61343 -1.49423 -1.5024 -0.927965 -0.454147 -0.599997 -1.03161
-0.502612 0.157636 -2.91241 -1.17576 -0.860055 -0.0473848 0.393673 -1.19937
-2.0546 -0.0710797 -0.915935 -2.00644 -0.109935 -2.83175 -1.06663 -1.91335
-1.72823 -0.805583 -0.520672 -0.977051 -0.481045 -0.791649 -0.348104 -3.189
-0.872761 -1.47112 0.257311 -0.0662132 -0.796229
00000000: efc9 1041 2ffc b0be b0e6 803f 3199 2240
00000010: 42cc 95be fcfb 2a40 2fa3 c83f 091b e6bf
00000020: 0f62 1740 cd74 ef3e 37c3 813f 3a06 e8bf
00000030: 0e32 b9bf 6744 29c0 d9d1 28be 4e97 ec40
00000040: 4ea8 0141 5da7 0bc0 17f2 88be ca32 acbe
00000050: 8d45 35c0 47e6 b1bf 9c69 a2be f836 6740
00000060: 3266 f8c1 7061 e5be c1c5 8e3f 787f 1ec1
00000070: 9791 fabd c650 3ebf 8863 7340 f8df ee3f
00000080: 7904 773e 48f9 9fc0 d3bc 17c2 6ea5 473e
00000090: f8dd 84bd 519a 51c2 1b5d bfbd 96e8 f4be
000000a0: 2332 6c3d c078 a63f 8b54 283e d3de 903e
000000b0: 4a7b 8f3f 94c1 0140 aa9d 89be 7a36 f5c0
000000c0: c7d9 843e 787f e640 fd9f 83be 5f7b c63f
000000d0: 57a6 0ec1 a587 a9be 1283 2ec0 d977 c5be
000000e0: ba4b c23e 30d8 07c1 a1be 57c0 7fbc ff3f
000000f0: c5ae cdbe a663 5e3e 9f02 e43f 2c65 1bc0
00000100: bd54 ecbd 6494 5bbf 9f59 babf f240 843e
00000110: c8ef 13c0 a358 c2bf 8672 cebf 3b36 9ebf
00000120: fcc2 6fbf f06c 27bf f38e 97bf 2098 27bf
00000130: 7ff8 1dbf f81c d83d b41f 1dc0 ae81 3dbf
00000140: 40fb a1bf 5323 843e ac02 753e 52b8 86bf
00000150: aa65 53c0 b41e c6be 9f8e cb3f 5fd2 3640
00000160: 64b3 9e3d 0859 0e3f 2fa3 0cc0 b7b4 8840
00000170: 6215 a8c0 9335 da3e 94a4 dbc0 61b7 59bd
00000180: 19e7 bb3f ce5f 1141 8fb1 9ebd 04e7 4cc1
00000190: f640 81c0 696f f03e b327 c1be a20c 553e
000001a0: b823 2e40 8a0e 87c1 0400 b7be 4a7b 42c1
000001b0: eb73 c0c0 ed66 463e 376e 113f e292 cf3f
000001c0: bf48 d4bf bf9a c3bf 145c 9bc0 9d4b fd3f
000001d0: 5401 6fbf b18a 3d40 2a6f b140 49f7 b3be
000001e0: cf14 c740 7c61 35c1 5036 7940 e90f adbe
000001f0: e17e 503e 4f23 3940 05a3 5dc1 d862 073e
00000200: 7008 2940 9ace 81c0 902e ae3e e544 51c0
00000210: b2d9 5d3f 99bb 1bc1 c494 cf40 382d 1040
00000220: e2cc bb3f 8638 e440 ca6c a340 8885 4941
00000230: 2ee3 86be 9762 15c1 7f4d 8bc0 b055 923f
00000240: e335 d7be df35 983e c1ca a5bf a29c dcbf
00000250: 4c89 e43e e63b f0be c18b e6bf 90e5 93bc
00000260: 3411 24c0 e084 cebf ee42 bfbf a54e c0bf
00000270: 1d8f 6dbf f585 e8be 6799 19bf cc0b 84bf
00000280: 2eab 00bf 556b 213e ed64 3ac0 4e7f 96bf
00000290: 912c 5cbf 9016 42bd 828f c93e f584 99bf
000002a0: 917e 03c0 3c92 91bd b77a 6abf 8369 00c0
000002b0: 9a25 e1bd 643b 35c0 5587 88bf a7e8 f4bf
000002c0: a436 ddbf b03a 4ebf c34a 05bf 0420 7abf
000002d0: 884b f6be 82a9 4abf b03a b2be 9318 4cc0
000002e0: 446d 5fbf a94d bcbf 44be 833e c99a 87bd
000002f0: aad5 4bbf

bias f4 [9]
0.9783 0.347592 -0.87825 -0.620301 0.238997 1.96556 -1.20542 -0.42551
0.168031
00000000: de71 7a3f 94f7 b13e fed4 60bf 0ccc 1ebf
00000010: a1bb 743e 7897 fb3f 344b 9abf 72dc d9be
00000020: 5210 2c3e
