model_dir/VCAS_32/VertCAS_1_old.pt (torch, 10127 bytes, 8 tensors)

_initializer_W0 f4 [32, 4]
00000000: 5227 4941 2979 95bd 6cec 0ec0 2a4c a93b
00000010: 2c02 1d41 105d 8340 9ace 18c0 de35 adbd
00000020: 15e3 1c40 b714 c6bd 0877 a5c0 4f23 253f
00000030: 9790 5541 a73f 6940 bbd0 36c0 ec34 72be
00000040: 6805 a040 75b0 eebf ddea aa40 dfe0 bfbf
00000050: c251 debf 5c5a d4c0 0bb5 b23f 8613 a23d
00000060: cd58 a8bf bfd4 3540 7ea8 50bf 1591 b93f
00000070: 1b2f 5cc1 a818 2140 d15c f3bf 5ea3 a03d
00000080: 20d2 30c1 02bc 0dc0 cae0 fb40 a453 b3bf
00000090: 92ec 3d3f 58e2 e53f 1d38 97bf 37a8 6d3f
000000a0: 8fa9 fb3d 2e07 b5bd cb68 043e 13b9 c8be
000000b0: 5d5c 9c41 058b 4f40 2dec 0cc1 cb69 133f
000000c0: 5f40 2fbe 0cc8 a6be 8c69 e63d aa9a 403e
000000d0: 7d40 303e 3be3 abbe 105a 6fbd 75b0 1ebe
000000e0: cf83 25c0 0d1a 26c0 e882 2cc0 d9b1 b5bf
000000f0: 9279 e83f 77a1 8840 8748 b2bc b763 ba3e
00000100: 0918 7d3e 0abb 183e f4a3 713e 9f3c a4be
00000110: f706 6941 9912 853f 7f13 e5c0 ad2f 8ebf
00000120: 8195 3b41 5760 32c0 020e 6740 df36 4f3f
00000130: 38f3 0a41 45d8 683f 36c8 72c0 020e 993f
00000140: 3dac 8ac1 d26f 9fbf 003a 3840 fbe6 36bf
00000150: 0877 ce40 7992 0c3f aca8 93c0 9ab2 a33e
00000160: 06bb 09c0 f20c 1ebf 1b81 adc0 27c0 50bd
00000170: 4d9f c5be fc3e 37bd 8f53 443e 2ca5 423c
00000180: df89 15c1 54e3 5fc0 8290 0040 cb4b 4ebf
00000190: fc1d 92c0 5de1 8dbf 9f71 acc0 54e1 cf3e
000001a0: 3277 17c0 af0b 233f a27f e840 0305 463f
000001b0: 1b65 ddbd a58c 33bd 5be9 453e 69ad 883e
000001c0: 787a 2241 8846 57be 1fd7 8a40 c5a9 bebe
000001d0: 707c 15c1 2f6e 3340 43ad f13f b16b 3b3e
000001e0: 36ea 45c0 2e02 83be d853 05c1 dbfa c1be
000001f0: ce6f 68be 4b6a 82bd 4eef e2bd 5eda 00be
12.5721 -0.072985 -2.23318 0.00516655 9.81303 4.10511 -2.38761 -0.0845754
2.45136 -0.0967192 -5.17078 0.64507 13.3478 3.64451 -2.85649 -0.23653
5.00066 -1.86476 5.34117 -1.49905 -1.73687 -6.63603 1.39615 0.0791388
-1.31521 2.84111 -0.815071 1.44974 -13.7615 2.51713 -1.90127 0.0784366
-11.0513 -2.2146 7.87119 -1.40099 0.741891 1.79597 -1.1814 0.928348
0.122882 -0.0883926 0.129306 -0.392037 19.5451 3.24286 -8.80766 0.575833
-0.171144 -0.325745 0.112506 0.18809 0.172121 -0.335718 -0.0584355 -0.15497
-2.58617 -2.59534 -2.69549 -1.41949 1.81621 4.26971 -0.0217631 0.364042
0.247162 0.149151 0.235977 -0.320775 14.5642 1.03963 -7.15863 -1.11083
11.724 -2.78713 3.61023 0.809431 8.68438 0.90955 -3.79347 1.19574
-17.3341 -1.2456 2.87854 -0.714462 6.45203 0.54911 -4.61434 0.319722
-2.15204 -0.617385 -5.42201 -0.0509645 -0.385981 -0.0447378 0.191725 0.0118802
-9.34616 -3.49825 2.00882 -0.805844 -4.56616 -1.10844 -5.38887 0.406016
-2.36665 0.636897 7.26558 0.773514 -0.108103 -0.0438353 0.193273 0.266948
10.1549 -0.21023 4.33876 -0.372389 -9.34288 2.8036 1.8881 0.183028
-3.09242 -0.255876 -8.33297 -0.378867 -0.226989 -0.0636793 -0.110808 -0.125833

_initializer_B0 f4 [32]
00000000: 7b49 9f3f 7e74 e63f 2ee7 c23f 46d2 ee3d
00000010: 488a c03f f088 263f 0421 b93f de21 a43a
00000020: 65fc 9f3f ac1c d63f a7ae 9cbe d95e 0b3f
00000030: 5a49 d3be d8b7 abbe dd98 d63f a5dc ad3e
00000040: 5a48 70be 2bfb 4ebe 115c 403c 2029 a63f
00000050: 0af4 e93f 7311 a73f 5b42 fa3f 2062 abbe
00000060: b4e3 1a3f d7a3 b83f a8c6 1140 3106 9ebe
00000070: fdf5 2e3f e04a d23f 9a96 303f 4488 83be
1.24443 1.80043 1.52268 0.116612 1.50422 0.650527 1.44632 0.00125223
1.24989 1.67275 -0.30602 0.544416 -0.412669 -0.335387 1.67654 0.339574
-0.234651 -0.20213 0.0117407 1.29813 1.82776 1.30522 1.95515 -0.334733
0.605037 1.4425 2.27775 -0.308641 0.683441 1.64291 0.689798 -0.256899

_initializer_W1 f4 [9, 32]
00000000: 008c 47c0 793f 5ebe 07b1 873f 0950 1e41
00000010: d07d 293f d218 cd3f f1bd ffbe 711b 3741
00000020: e8f5 07be 9830 fa3d 097c bf3d d179 41c0
00000030: d83f 89bd 44f9 52be 207f 093f 21b0 1440
00000040: 46b6 43be d521 77c0 8065 eb40 dd7c 53bf
00000050: d881 67c0 74b5 893f 1075 e33f 7b58 bebd
00000060: 8a1f 2540 e3c2 f53f bf9e 7f3f 6761 9fbe
00000070: 5873 a03f 7138 13bf fbad bd3e 656d 833e
00000080: 8db4 d43f 17bc 0240 9560 e0c0 c095 9ac0
00000090: 31eb 9d3f 8290 2ec0 66da fe3f 4f1e 4ec1
000000a0: 66bc edbd eb56 1f40 40bd 69be 5f0c c640
000000b0: bec1 27be 295f 30be aa7d e440 6003 fabe
000000c0: 1211 3ebe fc23 67bc c7f4 76c0 b83b 5b40
000000d0: a515 13bf c4b1 acc0 34d7 dec0 a230 83bc
000000e0: 1ff4 02c1 986c 18bf 61fa 1a3f afb2 d6be
000000f0: f354 833f 3aae 62bf 43e7 21c0 3eed 983e
00000100: a6b7 3b3f f8df 4640 562a 68be 2bd9 0ec1
00000110: 99d3 d8c0 003a b4bf d3de 7640 1fba 54c0
00000120: 0e04 1341 55fb 3a40 02a0 e53c 91ed 34c0
00000130: b343 ac3e b918 abbe 93c3 8f3e 8c4a 5fc1
00000140: 6f17 953d 2d21 8bbf d1cb b8bf 1aa3 ddbf
00000150: c3d3 4940 c9c8 d1bf f051 6f3e 3150 633c
00000160: b296 9c3d eae7 cd3f a4c2 04c1 800b 8abe
00000170: f3e5 3940 be87 41c0 1040 a63f 3560 98be
00000180: b01b a540 4564 5240 0248 0140 8750 e0c0
00000190: 0fd6 e7be 022b 7b40 21c9 6c3f 96b2 7dc1
000001a0: 7765 3bbf f5d9 453f 336b 89be be93 08c1
000001b0: b953 a23e ddef d0bd 1956 0fc0 3c14 11c0
000001c0: 616e 87be a1f8 5941 350c d7c0 6458 6f40
000001d0: a435 7ebf ddb5 0440 153c 5d3f 7aa5 5cbe
000001e0: 1add 05c0 9739 aac0 7b83 a33f 528e 53bd
000001f0: 94de 033f e162 f93f 4434 0fc1 2062 b3be
00000200: 342c 763e 9c16 38c0 03b5 b83d 1b12 5bc0
00000210: c5c9 1d40 622d 20c0 363c 85bf 63d1 dfc0
00000220: d460 b5c0 a488 9cbf a532 a5be 2c7d d540
00000230: d3f9 203e 7d24 753e 1d3e 113f 9c88 5a3f
00000240: 4c33 8d3e 3119 18c1 758e d53f a660 ddbe
00000250: e308 0041 1877 733f ae2a 1bbf 4b41 a2bd
00000260: 1d8f 01c0 6b11 713e 7fde 803f b665 403e
00000270: 8d97 fcc0 b515 4f40 815b 1b40 1005 b33e
00000280: e7fb a9be 9528 33bf fa0b c5be 13b8 89c0
00000290: a77a fabe 266e cdbe 234a 73bf 19e7 8bc0
000002a0: 0938 04c0 9ed1 aebe 44e3 c4bd 8142 6dbe
000002b0: 21d5 c63d 5c72 fcbd aa9b 13bf 6cea 34bf
000002c0: b427 ac3d 9c8c aabe 51db 6abf daaa 38bf
000002d0: 7897 7bbe 1c99 3fbf 5b5f 80bf 41d5 68be
000002e0: 5f08 7dbf b6b9 a9bf 9cbf 69be 93c6 283e
000002f0: c955 fcbe 7975 4ebf 672c 3ebf 2271 1f3e
00000300: a989 96be d861 78bf 7576 f2be e0b9 a3c0
00000310: 107a 3ebf e6b2 1dbf 8880 03bf 1765 8ec0
00000320: 4209 0fc0 cb83 48bf 1399 793e f436 76be
00000330: 7d7a 87bd f0f9 a13e 7bd7 00bf 69c6 86bf
00000340: ace2 e5be bc24 26bf 404f 57bf 4700 0fbf
00000350: c348 27bf 40bd 69be 573d 30bf 02b7 1ebe
00000360: f965 5cbf 2237 cbbf 7903 c4be 276c ffbd
00000370: 1a33 c9be 23be 33be b2d5 21bf 69de b63d
00000380: 69c6 72be b893 10bf d32e cebe 8e92 a1c0
00000390: 50a9 2ebf 1894 f9be 2e57 17bf 7e57 64c0
000003a0: 84d8 fdbf e15f 28bf c496 96be 730e 1ebe
000003b0: 92ff ae3c 3a77 3b3e e7ab 18bf b30a 13bf
000003c0: 3fc4 66bd 2ae2 8cbe 234c 6dbf fe0b acbe
000003d0: 0e31 f6be 8a3d dcbe 8a06 19bf 0e65 68be
000003e0: 42b5 d9be 7cf2 fcbf dbf9 16bf d266 06bd
000003f0: aeef 5bbf 1783 57bf e4d7 33bf 5516 253e
-3.11792 -0.217039 1.06009 9.89454 0.662076 1.60232 -0.499496 11.4442
-0.132774 0.122163 0.0934983 -3.02306 -0.0670163 -0.206029 0.537096 2.32325
-0.191125 -3.86144 7.35614 -0.826124 -3.6173 1.07585 1.77701 -0.0929422
2.58005 1.92001 0.998516 -0.31129 1.25352 -0.57508 0.370468 0.256694
1.66176 2.04273 -7.01179 -4.83078 1.23374 -2.72757 1.99104 -12.8824
-0.116082 2.48968 -0.228261 6.18901 -0.163825 -0.172238 7.14034 -0.488307
-0.185612 -0.0141077 -3.85869 3.42552 -0.574549 -5.3967 -6.96377 -0.0160144
-8.1846 -0.595407 0.605383 -0.419332 1.02603 -0.885471 -2.52974 0.298685
0.733271 3.10742 -0.226724 -8.92802 -6.77583 -1.40802 3.85735 -3.32386
9.18849 2.92159 0.0280304 -2.827 0.336454 -0.334173 0.280789 -13.9557
0.0727986 -1.08695 -1.44372 -1.73154 3.15355 -1.63894 0.233711 0.0138741
0.0764593 1.60864 -8.29752 -0.269619 2.90466 -3.02391 1.29883 -0.297609
5.15963 3.28737 2.02002 -7.00983 -0.452805 3.9245 0.924944 -15.8561
-0.732017 0.772857 -0.268396 -8.53607 0.317045 -0.10202 -2.23963 -2.26686
-0.264514 13.6232 -6.72024 3.73977 -0.993006 2.0736 0.864198 -0.215475
-2.09162 -5.31953 1.27745 -0.0516494 0.515115 1.94833 -8.95026 -0.350358
0.240403 -2.87638 0.090189 -3.42298 2.46544 -2.50277 -1.0409 -6.99431
-5.66807 -1.22292 -0.322652 6.67153 0.157203 0.239397 0.567354 0.853647
0.275782 -9.50615 1.66841 -0.432378 8.00217 0.951036 -0.60612 -0.0792261
-2.02436 0.235418 1.00679 0.187888 -7.8935 3.2357 2.42746 0.349648
-0.332 -0.699838 -0.384857 -4.30372 -0.489217 -0.401231 -0.95035 -4.37196
-2.06592 -0.341443 -0.0961366 -0.231699 0.0970862 -0.123265 -0.576594 -0.706702
0.0840601 -0.333104 -0.917409 -0.721357 -0.245695 -0.74843 -1.00291 -0.227376
-0.988409 -1.32598 -0.22827 0.16482 -0.492842 -0.80648 -0.742865 0.155705
-0.294019 -0.970243 -0.47356 -5.11644 -0.74405 -0.616011 -0.51368 -4.44984
-2.23494 -0.783261 0.243748 -0.240444 -0.0661516 0.31636 -0.503288 -1.05293
-0.448995 -0.648998 -0.841053 -0.558598 -0.653454 -0.228261 -0.688436 -0.154995
-0.860931 -1.58762 -0.382839 -0.124718 -0.392968 -0.17553 -0.632167 0.0892914
-0.237085 -0.564754 -0.402701 -5.04914 -0.682271 -0.487458 -0.591174 -3.56784
-1.98317 -0.657713 -0.294119 -0.154352 0.0213621 0.183072 -0.596373 -0.574382
-0.0563395 -0.275163 -0.926943 -0.336029 -0.480843 -0.430157 -0.597756 -0.226948
-0.425211 -1.97615 -0.58975 -0.0328129 -0.859126 -0.841844 -0.702513 0.161218

_initializer_B1 f4 [9]
00000000: c53d 4ebf ab09 4a40 e63f 4e40 1e36 6dbf
00000010: 5ad8 83bf 6b66 cdbd 6934 9e3d 08e7 dbbe
00000020: 1a14 7dbf
-0.80563 3.15684 3.22265 -0.926607 -1.03004 -0.100293 0.0772484 -0.429497
-0.988588

weight f4 [32, 4]
00000000: 5227 4941 2979 95bd 6cec 0ec0 2a4c a93b
00000010: 2c02 1d41 105d 8340 9ace 18c0 de35 adbd
00000020: 15e3 1c40 b714 c6bd 0877 a5c0 4f23 253f
00000030: 9790 5541 a73f 6940 bbd0 36c0 ec34 72be
00000040: 6805 a040 75b0 eebf ddea aa40 dfe0 bfbf
00000050: c251 debf 5c5a d4c0 0bb5 b23f 8613 a23d
00000060: cd58 a8bf bfd4 3540 7ea8 50bf 1591 b93f
00000070: 1b2f 5cc1 a818 2140 d15c f3bf 5ea3 a03d
00000080: 20d2 30c1 02bc 0dc0 cae0 fb40 a453 b3bf
00000090: 92ec 3d3f 58e2 e53f 1d38 97bf 37a8 6d3f
000000a0: 8fa9 fb3d 2e07 b5bd cb68 043e 13b9 c8be
000000b0: 5d5c 9c41 058b 4f40 2dec 0cc1 cb69 133f
000000c0: 5f40 2fbe 0cc8 a6be 8c69 e63d aa9a 403e
000000d0: 7d40 303e 3be3 abbe 105a 6fbd 75b0 1ebe
000000e0: cf83 25c0 0d1a 26c0 e882 2cc0 d9b1 b5bf
000000f0: 9279 e83f 77a1 8840 8748 b2bc b763 ba3e
00000100: 0918 7d3e 0abb 183e f4a3 713e 9f3c a4be
00000110: f706 6941 9912 853f 7f13 e5c0 ad2f 8ebf
00000120: 8195 3b41 5760 32c0 020e 6740 df36 4f3f
00000130: 38f3 0a41 45d8 683f 36c8 72c0 020e 993f
00000140: 3dac 8ac1 d26f 9fbf 003a 3840 fbe6 36bf
00000150: 0877 ce40 7992 0c3f aca8 93c0 9ab2 a33e
00000160: 06bb 09c0 f20c 1ebf 1b81 adc0 27c0 50bd
00000170: 4d9f c5be fc3e 37bd 8f53 443e 2ca5 423c
00000180: df89 15c1 54e3 5fc0 8290 0040 cb4b 4ebf
00000190: fc1d 92c0 5de1 8dbf 9f71 acc0 54e1 cf3e
000001a0: 3277 17c0 af0b 233f a27f e840 0305 463f
000001b0: 1b65 ddbd a58c 33bd 5be9 453e 69ad 883e
000001c0: 787a 2241 8846 57be 1fd7 8a40 c5a9 bebe
000001d0: 707c 15c1 2f6e 3340 43ad f13f b16b 3b3e
000001e0: 36ea 45c0 2e02 83be d853 05c1 dbfa c1be
000001f0: ce6f 68be 4b6a 82bd 4eef e2bd 5eda 00be
12.5721 -0.072985 -2.23318 0.00516655 9.81303 4.10511 -2.38761 -0.0845754
2.45136 -0.0967192 -5.17078 0.64507 13.3478 3.64451 -2.85649 -0.23653
5.00066 -1.86476 5.34117 -1.49905 -1.73687 -6.63603 1.39615 0.0791388
-1.31521 2.84111 -0.815071 1.44974 -13.7615 2.51713 -1.90127 0.0784366
-11.0513 -2.2146 7.87119 -1.40099 0.741891 1.79597 -1.1814 0.928348
0.122882 -0.0883926 0.129306 -0.392037 19.5451 3.24286 -8.80766 0.575833
-0.171144 -0.325745 0.112506 0.18809 0.172121 -0.335718 -0.0584355 -0.15497
-2.58617 -2.59534 -2.69549 -1.41949 1.81621 4.26971 -0.0217631 0.364042
0.247162 0.149151 0.235977 -0.320775 14.5642 1.03963 -7.15863 -1.11083
11.724 -2.78713 3.61023 0.809431 8.68438 0.90955 -3.79347 1.19574
-17.3341 -1.2456 2.87854 -0.714462 6.45203 0.54911 -4.61434 0.319722
-2.15204 -0.617385 -5.42201 -0.0509645 -0.385981 -0.0447378 0.191725 0.0118802
-9.34616 -3.49825 2.00882 -0.805844 -4.56616 -1.10844 -5.38887 0.406016
-2.36665 0.636897 7.26558 0.773514 -0.108103 -0.0438353 0.193273 0.266948
10.1549 -0.21023 4.33876 -0.372389 -9.34288 2.8036 1.8881 0.183028
-3.09242 -0.255876 -8.33297 -0.378867 -0.226989 -0.0636793 -0.110808 -0.125833

bias f4 [32]
00000000: 7b49 9f3f 7e74 e63f 2ee7 c23f 46d2 ee3d
00000010: 488a c03f f088 263f 0421 b93f de21 a43a
00000020: 65fc 9f3f ac1c d63f a7ae 9cbe d95e 0b3f
00000030: 5a49 d3be d8b7 abbe dd98 d63f a5dc ad3e
00000040: 5a48 70be 2bfb 4ebe 115c 403c 2029 a63f
00000050: 0af4 e93f 7311 a73f 5b42 fa3f 2062 abbe
00000060: b4e3 1a3f d7a3 b83f a8c6 1140 3106 9ebe
00000070: fdf5 2e3f e04a d23f 9a96 303f 4488 83be
1.24443 1.80043 1.52268 0.116612 1.50422 0.650527 1.44632 0.00125223
1.24989 1.67275 -0.30602 0.544416 -0.412669 -0.335387 1.67654 0.339574
-0.234651 -0.20213 0.0117407 1.29813 1.82776 1.30522 1.95515 -0.334733
0.605037 1.4425 2.27775 -0.308641 0.683441 1.64291 0.689798 -0.256899

weight f4 [9, 32]
00000000: 008c 47c0 793f 5ebe 07b1 873f 0950 1e41
00000010: d07d 293f d218 cd3f f1bd ffbe 711b 3741
00000020: e8f5 07be 9830 fa3d 097c bf3d d179 41c0
00000030: d83f 89bd 44f9 52be 207f 093f 21b0 1440
00000040: 46b6 43be d521 77c0 8065 eb40 dd7c 53bf
00000050: d881 67c0 74b5 893f 1075 e33f 7b58 bebd
00000060: 8a1f 2540 e3c2 f53f bf9e 7f3f 6761 9fbe
00000070: 5873 a03f 7138 13bf fbad bd3e 656d 833e
00000080: 8db4 d43f 17bc 0240 9560 e0c0 c095 9ac0
00000090: 31eb 9d3f 8290 2ec0 66da fe3f 4f1e 4ec1
000000a0: 66bc edbd eb56 1f40 40bd 69be 5f0c c640
000000b0: bec1 27be 295f 30be aa7d e440 6003 fabe
000000c0: 1211 3ebe fc23 67bc c7f4 76c0 b83b 5b40
000000d0: a515 13bf c4b1 acc0 34d7 dec0 a230 83bc
000000e0: 1ff4 02c1 986c 18bf 61fa 1a3f afb2 d6be
000000f0: f354 833f 3aae 62bf 43e7 21c0 3eed 983e
00000100: a6b7 3b3f f8df 4640 562a 68be 2bd9 0ec1
00000110: 99d3 d8c0 003a b4bf d3de 7640 1fba 54c0
00000120: 0e04 1341 55fb 3a40 02a0 e53c 91ed 34c0
00000130: b343 ac3e b918 abbe 93c3 8f3e 8c4a 5fc1
00000140: 6f17 953d 2d21 8bbf d1cb b8bf 1aa3 ddbf
00000150: c3d3 4940 c9c8 d1bf f051 6f3e 3150 633c
00000160: b296 9c3d eae7 cd3f a4c2 04c1 800b 8abe
00000170: f3e5 3940 be87 41c0 1040 a63f 3560 98be
00000180: b01b a540 4564 5240 0248 0140 8750 e0c0
00000190: 0fd6 e7be 022b 7b40 21c9 6c3f 96b2 7dc1
000001a0: 7765 3bbf f5d9 453f 336b 89be be93 08c1
000001b0: b953 a23e ddef d0bd 1956 0fc0 3c14 11c0
000001c0: 616e 87be a1f8 5941 350c d7c0 6458 6f40
000001d0: a435 7ebf ddb5 0440 153c 5d3f 7aa5 5cbe
000001e0: 1add 05c0 9739 aac0 7b83 a33f 528e 53bd
000001f0: 94de 033f e162 f93f 4434 0fc1 2062 b3be
00000200: 342c 763e 9c16 38c0 03b5 b83d 1b12 5bc0
00000210: c5c9 1d40 622d 20c0 363c 85bf 63d1 dfc0
00000220: d460 b5c0 a488 9cbf a532 a5be 2c7d d540
00000230: d3f9 203e 7d24 753e 1d3e 113f 9c88 5a3f
00000240: 4c33 8d3e 3119 18c1 758e d53f a660 ddbe
00000250: e308 0041 1877 733f ae2a 1bbf 4b41 a2bd
00000260: 1d8f 01c0 6b11 713e 7fde 803f b665 403e
00000270: 8d97 fcc0 b515 4f40 815b 1b40 1005 b33e
00000280: e7fb a9be 9528 33bf fa0b c5be 13b8 89c0
00000290: a77a fabe 266e cdbe 234a 73bf 19e7 8bc0
000002a0: 0938 04c0 9ed1 aebe 44e3 c4bd 8142 6dbe
000002b0: 21d5 c63d 5c72 fcbd aa9b 13bf 6cea 34bf
000002c0: b427 ac3d 9c8c aabe 51db 6abf daaa 38bf
000002d0: 7897 7bbe 1c99 3fbf 5b5f 80bf 41d5 68be
000002e0: 5f08 7dbf b6b9 a9bf 9cbf 69be 93c6 283e
000002f0: c955 fcbe 7975 4ebf 672c 3ebf 2271 1f3e
00000300: a989 96be d861 78bf 7576 f2be e0b9 a3c0
00000310: 107a 3ebf e6b2 1dbf 8880 03bf 1765 8ec0
00000320: 4209 0fc0 cb83 48bf 1399 793e f436 76be
00000330: 7d7a 87bd f0f9 a13e 7bd7 00bf 69c6 86bf
00000340: ace2 e5be bc24 26bf 404f 57bf 4700 0fbf
00000350: c348 27bf 40bd 69be 573d 30bf 02b7 1ebe
00000360: f965 5cbf 2237 cbbf 7903 c4be 276c ffbd
00000370: 1a33 c9be 23be 33be b2d5 21bf 69de b63d
00000380: 69c6 72be b893 10bf d32e cebe 8e92 a1c0
00000390: 50a9 2ebf 1894 f9be 2e57 17bf 7e57 64c0
000003a0: 84d8 fdbf e15f 28bf c496 96be 730e 1ebe
000003b0: 92ff ae3c 3a77 3b3e e7ab 18bf b30a 13bf
000003c0: 3fc4 66bd 2ae2 8cbe 234c 6dbf fe0b acbe
000003d0: 0e31 f6be 8a3d dcbe 8a06 19bf 0e65 68be
000003e0: 42b5 d9be 7cf2 fcbf dbf9 16bf d266 06bd
000003f0: aeef 5bbf 1783 57bf e4d7 33bf 5516 253e
-3.11792 -0.217039 1.06009 9.89454 0.662076 1.60232 -0.499496 11.4442
-0.132774 0.122163 0.0934983 -3.02306 -0.0670163 -0.206029 0.537096 2.32325
-0.191125 -3.86144 7.35614 -0.826124 -3.6173 1.07585 1.77701 -0.0929422
2.58005 1.92001 0.998516 -0.31129 1.25352 -0.57508 0.370468 0.256694
1.66176 2.04273 -7.01179 -4.83078 1.23374 -2.72757 1.99104 -12.8824
-0.116082 2.48968 -0.228261 6.18901 -0.163825 -0.172238 7.14034 -0.488307
-0.185612 -0.0141077 -3.85869 3.42552 -0.574549 -5.3967 -6.96377 -0.0160144
-8.1846 -0.595407 0.605383 -0.419332 1.02603 -0.885471 -2.52974 0.298685
0.733271 3.10742 -0.226724 -8.92802 -6.77583 -1.40802 3.85735 -3.32386
9.18849 2.92159 0.0280304 -2.827 0.336454 -0.334173 0.280789 -13.9557
0.0727986 -1.08695 -1.44372 -1.73154 3.15355 -1.63894 0.233711 0.0138741
0.0764593 1.60864 -8.29752 -0.269619 2.90466 -3.02391 1.29883 -0.297609
5.15963 3.28737 2.02002 -7.00983 -0.452805 3.9245 0.924944 -15.8561
-0.732017 0.772857 -0.268396 -8.53607 0.317045 -0.10202 -2.23963 -2.26686
-0.264514 13.6232 -6.72024 3.73977 -0.993006 2.0736 0.864198 -0.215475
-2.09162 -5.31953 1.27745 -0.0516494 0.515115 1.94833 -8.95026 -0.350358
0.240403 -2.87638 0.090189 -3.42298 2.46544 -2.50277 -1.0409 -6.99431
-5.66807 -1.22292 -0.322652 6.67153 0.157203 0.239397 0.567354 0.853647
0.275782 -9.50615 1.66841 -0.432378 8.00217 0.951036 -0.60612 -0.0792261
-2.02436 0.235418 1.00679 0.187888 -7.8935 3.2357 2.42746 0.349648
-0.332 -0.699838 -0.384857 -4.30372 -0.489217 -0.401231 -0.95035 -4.37196
-2.06592 -0.341443 -0.0961366 -0.231699 0.0970862 -0.123265 -0.576594 -0.706702
0.0840601 -0.333104 -0.917409 -0.721357 -0.245695 -0.74843 -1.00291 -0.227376
-0.988409 -1.32598 -0.22827 0.16482 -0.492842 -0.80648 -0.742865 0.155705
-0.294019 -0.970243 -0.47356 -5.11644 -0.74405 -0.616011 -0.51368 -4.44984
-2.23494 -0.783261 0.243748 -0.240444 -0.0661516 0.31636 -0.503288 -1.05293
-0.448995 -0.648998 -0.841053 -0.558598 -0.653454 -0.228261 -0.688436 -0.154995
-0.860931 -1.58762 -0.382839 -0.124718 -0.392968 -0.17553 -0.632167 0.0892914
-0.237085 -0.564754 -0.402701 -5.04914 -0.682271 -0.487458 -0.591174 -3.56784
-1.98317 -0.657713 -0.294119 -0.154352 0.0213621 0.183072 -0.596373 -0.574382
-0.0563395 -0.275163 -0.926943 -0.336029 -0.480843 -0.430157 -0.597756 -0.226948
-0.425211 -1.97615 -0.58975 -0.0328129 -0.859126 -0.841844 -0.702513 0.161218

bias f4 [9]
00000000: c53d 4ebf ab09 4a40 e63f 4e40 1e36 6dbf
00000010: 5ad8 83bf 6b66 cdbd 6934 9e3d 08e7 dbbe
00000020: 1a14 7dbf
-0.80563 3.15684 3.22265 -0.926607 -1.03004 -0.100293 0.0772484 -0.429497
-0.988588
