model_dir/VCAS_32/VertCAS_1.pt (torch, 10191 bytes, 8 tensors)

_initializer_W0 f4 [32, 4]
-0.321317 -6.51072 6.21351 -0.0189567 1.36212 -1.10933 -7.25826 0.257138
13.8627 -0.545739 -2.46763 -0.712211 -16.9859 -3.32171 4.49929 -0.470942
11.2605 2.47796 -1.31294 -0.180999 -5.13772 -1.21549 -3.41302 1.66131
-5.23684 -5.89483 0.0816608 -0.276511 -0.121641 -0.00234923 -0.273049 0.131656
13.1593 -3.04971 3.24052 0.550948 12.4798 0.322054 -6.31107 -1.18262
10.1429 -4.05063 -0.132312 -0.62232 0.119891 -0.372008 0.0173363 -0.0235243
13.6172 0.383908 -5.38347 1.45189 5.62109 0.90365 -2.55069 1.93571
-3.91082 1.92585 1.94485 0.240756 0.152216 0.192905 0.0816516 0.20769
12.6664 -3.10479 1.12344 -0.0390656 16.033 4.61972 -3.57329 0.100532
18.2954 -0.524038 3.65339 -0.231053 -13.3277 2.41155 -1.73483 -0.00769091
17.4013 -3.5737 1.56517 -0.40982 -13.2382 -3.64112 9.68269 -0.736125
2.0755 -0.00637376 4.85007 -0.099548 -10.9175 0.333631 1.28589 0.0887763
-3.43964 0.837656 4.80064 0.41325 -0.158589 0.294756 0.266312 -0.106575
-2.99903 -0.300704 5.1609 0.0352043 -0.0025554 -0.0157892 -0.144259 -0.135127
12.0447 0.0370442 3.09019 -0.369615 -0.259746 0.240328 0.0936807 -0.104185
-0.163614 0.296611 -0.0595841 -0.184739 5.50797 0.191288 -2.12961 0.733487
00000000: a983 a4be d157 d0c0 13d5 c640 154b 9bbc
00000010: f359 ae3f 87fe 8dbf aa43 e8c0 98a7 833e
00000020: 9fcd 5d41 8db5 0bbf a6ed 1dc0 7653 36bf
00000030: 20e3 87c1 e696 54c0 2ffa 8f40 4f1f f1be
00000040: 022b 3441 e696 1e40 6b0e a8bf cd57 39be
00000050: 3468 a4c0 2d95 9bbf eb6e 5ac0 cea5 d43f
00000060: 3194 a7c0 73a2 bcc0 c73d a73d da92 8dbe
00000070: eb1e f9bd 8af5 19bb 14cd 8bbe d5d0 063e
00000080: 7e8c 5241 732e 43c0 ae64 4f40 ee0a 0d3f
00000090: 43ad 4741 43e4 a43e 49f4 c9c0 1860 97bf
000000a0: 5249 2241 c39e 81c0 cc7c 07be 5d50 1fbf
000000b0: 6a89 f53d d577 bebe db04 8e3c 08b6 c0bc
000000c0: 0de0 5941 978f c43e 6345 acc0 88d7 b93f
000000d0: f8df b340 9b55 673f 813e 23c0 58c5 f73f
000000e0: e04a 7ac0 4182 f63f d8f0 f83f be88 763e
000000f0: 83de 1b3e e388 453e f438 a73d b0ac 543e
00000100: 93a9 4a41 e1b4 46c0 e2cc 8f3f 4003 20bd
00000110: 9643 8041 bfd4 9340 c9b0 64c0 b9e3 cd3d
00000120: fb5c 9241 5b27 06bf 24d1 6940 2899 6cbe
00000130: 423e 55c1 d656 1a40 e90e debf 0704 fcbb
00000140: dd35 8b41 80b7 64c0 7e57 c83f edd3 d1be
00000150: abcf 53c1 1c08 69c0 4cec 1a41 b072 3cbf
00000160: fed4 0440 f9da d0bb c633 9b40 d2df cbbd
00000170: 14ae 2ec1 afd1 aa3e 0b98 a43f 59d0 b53d
00000180: 1023 5cc0 a070 563f d89e 9940 8195 d33e
00000190: 2865 22be 42ea 963e 0c5a 883e fe43 dabd
000001a0: 1cf0 3fc0 e0f5 99be 1826 a540 6232 103d
000001b0: 7f78 27bb 5a58 81bc a2b8 13be bb5e 0abe
000001c0: 17b7 4041 a9bb 173d acc5 4540 2d3e bdbe
000001d0: 6dfd 84be 8b18 763e abdb bf3d f25e d5bd
000001e0: 6e8a 27be 66dd 973e 750e 74bd 382c 3dbe
000001f0: 4a41 b040 00e1 433e 884b 08c0 cec5 3b3f

_initializer_B0 f4 [32]
-1.43121 2.54894 -0.199066 -0.257833 1.42421 1.16571 -0.0288667 -0.285295
0.0959164 1.21486 0.0476068 -0.371571 0.24714 0.701985 2.0016 -0.328501
-0.569143 0.0314526 0.521915 0.0371736 0.679712 1.08756 1.69847 0.947027
1.68701 -0.360213 1.56065 -0.0808226 -0.350619 -0.369147 -0.383366 0.787206
00000000: e431 b7bf d521 2340 f5d7 4bbe b002 84be
00000010: 834c b63f fc35 953f dc79 ecbc 3012 92be
00000020: d16f c43d 8880 9b3f 59ff 423d 8e3e bebe
00000030: 4512 7d3e 4ab5 333f 371a 0040 4831 a8be
00000040: 5bb3 11bf 71d4 003d 399c 053f 5843 183d
00000050: 9b01 2e3f 2b35 8b3f 7767 d93f 5d70 723f
00000060: f2ef d73f d76d b8be 61c3 c73f 5286 a5bd
00000070: 5584 b3be d600 bdbe 8c48 c4be 5586 493f

_initializer_W1 f4 [9, 32]
6.39886 1.33377 0.277319 -1.76657 -3.00866 1.93484 2.06839 0.250362
7.36659 0.0514961 4.52617 -0.0927613 -3.24562 -0.0499968 -1.04428 -0.227101
-4.0125 6.44344 2.67444 9.0697 -6.1521 -0.413633 0.762488 -2.36931
-0.0199725 -0.15834 1.03198 -0.252723 4.96372 -0.020016 -0.158604 -0.311512
-50.5472 -9.63353 3.97711 -6.80664 0.619075 -3.16664 -57.0724 -0.0186127
-1.16237 6.92139 -3.61223 -0.133175 4.45363 1.24466 1.42795 -0.348928
-0.211221 -3.86153 2.03756 -15.0025 -0.906644 -1.47899 1.50506 1.09699
1.53273 -0.159285 0.297893 0.120742 -2.07035 0.258179 0.282294 1.57796
1.65317 1.15616 0.972039 1.26955 7.53441 1.11563 0.33595 -0.321002
-3.02999 -0.646498 -1.14272 -0.205747 0.956617 -1.00131 2.42822 -0.141224
-12.6609 -16.5025 -33.5572 -4.67831 -0.00933995 6.85097 -4.3564 1.93338
-5.95928 0.283277 -6.38669 0.240401 -0.891087 0.254331 0.253556 -1.23727
-29.9488 0.87908 5.39465 -12.747 1.70544 0.24174 -3.73037 0.107254
-3.22979 -6.97613 -0.376536 0.3217 -5.77197 3.10743 -0.832469 0.374735
10.428 4.79719 0.132734 -15.7301 3.0678 5.40788 -0.949335 0.122732
0.83056 -0.249703 0.0592045 0.169187 -8.66158 0.224727 0.294122 2.36894
1.72791 0.260316 -13.0054 13.574 1.3066 -1.86161 -1.32292 0.144446
-10.2036 2.12217 -5.16994 0.13148 4.64907 -0.741611 2.71671 0.16094
0.123205 -10.9454 -12.8844 -3.59321 10.8278 -11.978 0.722257 3.1593
2.38109 -0.320732 1.09379 0.11526 37.5747 0.243399 -0.32667 0.408125
-0.093134 -1.87954 -1.66109 -0.593244 -0.82139 -0.987792 -0.294015 -0.0663135
-1.1332 -1.36853 -0.660105 0.334756 -0.76548 -0.331685 -0.874984 0.304063
-0.214972 -0.632655 -3.42248 -2.06672 -0.59841 -1.41204 -0.528475 -0.615809
-1.93145 0.272743 -0.70047 -0.384388 0.179268 0.325479 0.0273215 -0.117672
0.0849728 -2.42435 -1.4424 -0.427872 -0.499499 -0.960721 -0.635133 -0.121445
-0.740981 -1.12491 -0.191137 0.26256 -0.581441 -0.376658 -0.440548 -0.317026
-0.627947 -0.484637 -3.48488 -1.96614 -0.698804 -1.67356 -0.830362 -0.646762
-1.88331 -0.14103 -0.789397 -0.314833 -0.346699 -0.261696 0.0709471 -0.574763
-0.340714 -1.87922 -1.52234 -0.611853 -0.253898 -0.858196 -0.560962 -0.162736
-1.0218 -1.5208 -0.563538 -0.0165055 -0.638609 -0.454345 -0.864054 -0.0445197
-0.664438 -0.639627 -3.46906 -2.63757 -0.592492 -1.39769 -0.890877 -1.08561
-1.51882 0.260694 -0.343903 -0.439228 0.0473651 -0.319907 0.147552 -0.599864
00000000: 76c3 cc40 fab8 aa3f c2fc 8d3e f71e e2bf
00000010: e38d 40c0 d6a8 f73f 8060 0440 732f 803e
00000020: 1bbb eb40 93ed 523d 62d6 9040 a3f9 bdbd
00000030: 3db8 4fc0 72c9 4cbd f8aa 85bf 2a8d 68be
00000040: 6666 80c0 a930 ce40 062a 2b40 7e1d 1141
00000050: 01de c4c0 b4c7 d3be 6a32 433f c6a2 17c0
00000060: 5e9d a3bc e223 22be ec17 843f e964 81be
00000070: cbd6 9e40 98f8 a3bc 1669 22be 807e 9fbe
00000080: 5530 4ac2 f022 1ac1 f888 7e40 ffcf d9c0
00000090: b37b 1e3f 3baa 4ac0 234a 64c2 a979 98bc
000000a0: 8ac8 94bf 077c dd40 c72e 67c0 075f 08be
000000b0: 2384 8e40 0551 9f3f 11c7 b63f b1a6 b2be
000000c0: 514a 58be 4f23 77c0 6267 0240 3d0a 70c1
000000d0: d219 68bf 8b4f bdbf cea5 c03f 2b6a 8c3f
000000e0: 7f30 c43f 9b1b 23be 6e85 983e 9547 f73d
000000f0: 9d80 04c0 0a30 843e d788 903e 98fa c93f
00000100: 139b d33f 0dfd 933f 8cd7 783f 9d80 a23f
00000110: e319 f140 f7cc 8e3f a301 ac3e 605a a4be
00000120: 5beb 41c0 e580 25bf a644 92bf 57af 52be
00000130: dae4 743f ed2a 80bf f567 1b40 069d 10be
00000140: 0c93 4ac1 1f05 84c1 933a 06c2 b7b4 95c0
00000150: 9706 19bc 253b db40 a167 8bc0 ff78 f73f
00000160: 6cb2 bec0 af09 913e c45f ccc0 ae2b 763e
00000170: 471e 64bf ac37 823e 18d2 813e dd5e 9ebf
00000180: 2497 efc1 630b 613f f9a0 ac40 b6f3 4bc1
00000190: dc4b da3f b18a 773e 62be 6ec0 fca7 db3d
000001a0: e1b4 4ec0 753c dfc0 54c9 c0be ddb5 a43e
000001b0: fab3 b8c0 22e0 4640 b01c 55bf 44dd bf3e
000001c0: 17d9 2641 9582 9940 6ceb 073e 7dae 7bc1
000001d0: d656 4440 5a0d ad40 9e07 73bf ea5a fb3d
000001e0: 959f 543f 25b2 7fbe 6b80 723d 5b3f 2d3e
000001f0: d595 0ac1 d61e 663e 2997 963e b79c 1740
00000200: 282c dd3f 2448 853e 1e16 50c1 1b2f 5941
00000210: ab3e a73f 3d49 eebf 7155 a9bf a7e9 133e
00000220: f241 23c1 a2d1 0740 2670 a5c0 b1a2 063e
00000230: 2ec5 9440 38da 3dbf 94de 2d40 75cd 243e
00000240: e752 fc3d 5c20 2fc1 8126 4ec1 27f7 65c0
00000250: ab3e 2d41 e3a5 3fc1 d6e5 383f f931 4a40
00000260: c763 1840 fc36 a4be 5001 8c3f 6f0d ec3d
00000270: 7e4c 1642 963d 793e 4a41 a7be c3f5 d03e
00000280: 0abd bebd c494 f0bf 999e d4bf d7de 17bf
00000290: 9d46 52bf f0df 7cbf 2289 96be 5fcf 87bd
000002a0: b30c 91bf fe2b afbf a4fc 28bf 2365 ab3e
000002b0: 7ff6 43bf 9ed2 a9be f4fe 5fbf 25ae 9b3e
000002c0: 9f21 5cbe aef5 21bf ea09 5bc0 2445 04c0
000002d0: 6631 19bf babd b4bf 234a 07bf a9a5 1dbf
000002e0: c139 f7bf f8a4 8b3e 0052 33bf 81ce c4be
000002f0: 0892 373e 2fa5 a63e 57d1 df3c 04fe f0bd
00000300: 3806 ae3d 8d28 1bc0 90a0 b8bf 0a12 dbbe
00000310: 55be ffbe d0f1 75bf 1498 22bf 28b8 f8bd
00000320: eeb0 3dbf 0dfd 8fbf 6bb9 43be 446e 863e
00000330: 51d9 14bf 51d9 c0be 828f e1be 3b51 a2be
00000340: 22c1 20bf 5722 f8be 4608 5fc0 7aaa fbbf
00000350: d2e4 32bf 3737 d6bf 9b92 54bf 3292 25bf
00000360: 4d10 f1bf 2b6a 10be ec15 4abf ca31 a1be
00000370: 8882 b1be 05fd 85be b74c 913d ab23 13bf
00000380: 1172 aebe 488a f0bf 0adc c2bf 66a2 1cbf
00000390: ebfe 81be bcb2 5bbf 359b 0fbf 44a4 26be
000003a0: 58ca 82bf 93a9 c2bf 0744 10bf 8b36 87bc
000003b0: e17b 23bf e89f e8be a532 5dbf 4a5a 36bd
000003c0: 9c18 2abf 98be 23bf 1405 5ec0 f2cd 28c0
000003d0: 8ead 17bf 82e7 b2bf 8410 64bf 45f5 8abf
000003e0: b268 c2bf af79 853e 0e14 b0be 7ee2 e0be
000003f0: e801 423d daca a3be df17 173e b090 19bf

_initializer_B1 f4 [9]
0.412864 2.03007 1.67997 -1.43304 -0.429325 -0.788578 0.208637 -1.09645
-0.184413
00000000: e962 d33e abec 0140 4209 d73f db6d b7bf
00000010: 7dd0 dbbe 3fe0 49bf f0a4 553e 7958 8cbf
00000020: c3d6 3cbe

weight f4 [32, 4]
-0.321317 -6.51072 6.21351 -0.0189567 1.36212 -1.10933 -7.25826 0.257138
13.8627 -0.545739 -2.46763 -0.712211 -16.9859 -3.32171 4.49929 -0.470942
11.2605 2.47796 -1.31294 -0.180999 -5.13772 -1.21549 -3.41302 1.66131
-5.23684 -5.89483 0.0816608 -0.276511 -0.121641 -0.00234923 -0.273049 0.131656
13.1593 -3.04971 3.24052 0.550948 12.4798 0.322054 -6.31107 -1.18262
10.1429 -4.05063 -0.132312 -0.62232 0.119891 -0.372008 0.0173363 -0.0235243
13.6172 0.383908 -5.38347 1.45189 5.62109 0.90365 -2.55069 1.93571
-3.91082 1.92585 1.94485 0.240756 0.152216 0.192905 0.0816516 0.20769
12.6664 -3.10479 1.12344 -0.0390656 16.033 4.61972 -3.57329 0.100532
18.2954 -0.524038 3.65339 -0.231053 -13.3277 2.41155 -1.73483 -0.00769091
17.4013 -3.5737 1.56517 -0.40982 -13.2382 -3.64112 9.68269 -0.736125
2.0755 -0.00637376 4.85007 -0.099548 -10.9175 0.333631 1.28589 0.0887763
-3.43964 0.837656 4.80064 0.41325 -0.158589 0.294756 0.266312 -0.106575
-2.99903 -0.300704 5.1609 0.0352043 -0.0025554 -0.0157892 -0.144259 -0.135127
12.0447 0.0370442 3.09019 -0.369615 -0.259746 0.240328 0.0936807 -0.104185
-0.163614 0.296611 -0.0595841 -0.184739 5.50797 0.191288 -2.12961 0.733487
00000000: a983 a4be d157 d0c0 13d5 c640 154b 9bbc
00000010: f359 ae3f 87fe 8dbf aa43 e8c0 98a7 833e
00000020: 9fcd 5d41 8db5 0bbf a6ed 1dc0 7653 36bf
00000030: 20e3 87c1 e696 54c0 2ffa 8f40 4f1f f1be
00000040: 022b 3441 e696 1e40 6b0e a8bf cd57 39be
00000050: 3468 a4c0 2d95 9bbf eb6e 5ac0 cea5 d43f
00000060: 3194 a7c0 73a2 bcc0 c73d a73d da92 8dbe
00000070: eb1e f9bd 8af5 19bb 14cd 8bbe d5d0 063e
00000080: 7e8c 5241 732e 43c0 ae64 4f40 ee0a 0d3f
00000090: 43ad 4741 43e4 a43e 49f4 c9c0 1860 97bf
000000a0: 5249 2241 c39e 81c0 cc7c 07be 5d50 1fbf
000000b0: 6a89 f53d d577 bebe db04 8e3c 08b6 c0bc
000000c0: 0de0 5941 978f c43e 6345 acc0 88d7 b93f
000000d0: f8df b340 9b55 673f 813e 23c0 58c5 f73f
000000e0: e04a 7ac0 4182 f63f d8f0 f83f be88 763e
000000f0: 83de 1b3e e388 453e f438 a73d b0ac 543e
00000100: 93a9 4a41 e1b4 46c0 e2cc 8f3f 4003 20bd
00000110: 9643 8041 bfd4 9340 c9b0 64c0 b9e3 cd3d
00000120: fb5c 9241 5b27 06bf 24d1 6940 2899 6cbe
00000130: 423e 55c1 d656 1a40 e90e debf 0704 fcbb
00000140: dd35 8b41 80b7 64c0 7e57 c83f edd3 d1be
00000150: abcf 53c1 1c08 69c0 4cec 1a41 b072 3cbf
00000160: fed4 0440 f9da d0bb c633 9b40 d2df cbbd
00000170: 14ae 2ec1 afd1 aa3e 0b98 a43f 59d0 b53d
00000180: 1023 5cc0 a070 563f d89e 9940 8195 d33e
00000190: 2865 22be 42ea 963e 0c5a 883e fe43 dabd
000001a0: 1cf0 3fc0 e0f5 99be 1826 a540 6232 103d
000001b0: 7f78 27bb 5a58 81bc a2b8 13be bb5e 0abe
000001c0: 17b7 4041 a9bb 173d acc5 4540 2d3e bdbe
000001d0: 6dfd 84be 8b18 763e abdb bf3d f25e d5bd
000001e0: 6e8a 27be 66dd 973e 750e 74bd 382c 3dbe
000001f0: 4a41 b040 00e1 433e 884b 08c0 cec5 3b3f

bias f4 [32]
-1.43121 2.54894 -0.199066 -0.257833 1.42421 1.16571 -0.0288667 -0.285295
0.0959164 1.21486 0.0476068 -0.371571 0.24714 0.701985 2.0016 -0.328501
-0.569143 0.0314526 0.521915 0.0371736 0.679712 1.08756 1.69847 0.947027
1.68701 -0.360213 1.56065 -0.0808226 -0.350619 -0.369147 -0.383366 0.787206
00000000: e431 b7bf d521 2340 f5d7 4bbe b002 84be
00000010: 834c b63f fc35 953f dc79 ecbc 3012 92be
00000020: d16f c43d 8880 9b3f 59ff 423d 8e3e bebe
00000030: 4512 7d3e 4ab5 333f 371a 0040 4831 a8be
00000040: 5bb3 11bf 71d4 003d 399c 053f 5843 183d
00000050: 9b01 2e3f 2b35 8b3f 7767 d93f 5d70 723f
00000060: f2ef d73f d76d b8be 61c3 c73f 5286 a5bd
00000070: 5584 b3be d600 bdbe 8c48 c4be 5586 493f

weight f4 [9, 32]
6.39886 1.33377 0.277319 -1.76657 -3.00866 1.93484 2.06839 0.250362
7.36659 0.0514961 4.52617 -0.0927613 -3.24562 -0.0499968 -1.04428 -0.227101
-4.0125 6.44344 2.67444 9.0697 -6.1521 -0.413633 0.762488 -2.36931
-0.0199725 -0.15834 1.03198 -0.252723 4.96372 -0.020016 -0.158604 -0.311512
-50.5472 -9.63353 3.97711 -6.80664 0.619075 -3.16664 -57.0724 -0.0186127
-1.16237 6.92139 -3.61223 -0.133175 4.45363 1.24466 1.42795 -0.348928
-0.211221 -3.86153 2.03756 -15.0025 -0.906644 -1.47899 1.50506 1.09699
1.53273 -0.159285 0.297893 0.120742 -2.07035 0.258179 0.282294 1.57796
1.65317 1.15616 0.972039 1.26955 7.53441 1.11563 0.33595 -0.321002
-3.02999 -0.646498 -1.14272 -0.205747 0.956617 -1.00131 2.42822 -0.141224
-12.6609 -16.5025 -33.5572 -4.67831 -0.00933995 6.85097 -4.3564 1.93338
-5.95928 0.283277 -6.38669 0.240401 -0.891087 0.254331 0.253556 -1.23727
-29.9488 0.87908 5.39465 -12.747 1.70544 0.24174 -3.73037 0.107254
-3.22979 -6.97613 -0.376536 0.3217 -5.77197 3.10743 -0.832469 0.374735
10.428 4.79719 0.132734 -15.7301 3.0678 5.40788 -0.949335 0.122732
0.83056 -0.249703 0.0592045 0.169187 -8.66158 0.224727 0.294122 2.36894
1.72791 0.260316 -13.0054 13.574 1.3066 -1.86161 -1.32292 0.144446
-10.2036 2.12217 -5.16994 0.13148 4.64907 -0.741611 2.71671 0.16094
0.123205 -10.9454 -12.8844 -3.59321 10.8278 -11.978 0.722257 3.1593
2.38109 -0.320732 1.09379 0.11526 37.5747 0.243399 -0.32667 0.408125
-0.093134 -1.87954 -1.66109 -0.593244 -0.82139 -0.987792 -0.294015 -0.0663135
-1.1332 -1.36853 -0.660105 0.334756 -0.76548 -0.331685 -0.874984 0.304063
-0.214972 -0.632655 -3.42248 -2.06672 -0.59841 -1.41204 -0.528475 -0.615809
-1.93145 0.272743 -0.70047 -0.384388 0.179268 0.325479 0.0273215 -0.117672
0.0849728 -2.42435 -1.4424 -0.427872 -0.499499 -0.960721 -0.635133 -0.121445
-0.740981 -1.12491 -0.191137 0.26256 -0.581441 -0.376658 -0.440548 -0.317026
-0.627947 -0.484637 -3.48488 -1.96614 -0.698804 -1.67356 -0.830362 -0.646762
-1.88331 -0.14103 -0.789397 -0.314833 -0.346699 -0.261696 0.0709471 -0.574763
-0.340714 -1.87922 -1.52234 -0.611853 -0.253898 -0.858196 -0.560962 -0.162736
-1.0218 -1.5208 -0.563538 -0.0165055 -0.638609 -0.454345 -0.864054 -0.0445197
-0.664438 -0.639627 -3.46906 -2.63757 -0.592492 -1.39769 -0.890877 -1.08561
-1.51882 0.260694 -0.343903 -0.439228 0.0473651 -0.319907 0.147552 -0.599864
00000000: 76c3 cc40 fab8 aa3f c2fc 8d3e f71e e2bf
00000010: e38d 40c0 d6a8 f73f 8060 0440 732f 803e
00000020: 1bbb eb40 93ed 523d 62d6 9040 a3f9 bdbd
00000030: 3db8 4fc0 72c9 4cbd f8aa 85bf 2a8d 68be
00000040: 6666 80c0 a930 ce40 062a 2b40 7e1d 1141
00000050: 01de c4c0 b4c7 d3be 6a32 433f c6a2 17c0
00000060: 5e9d a3bc e223 22be ec17 843f e964 81be
00000070: cbd6 9e40 98f8 a3bc 1669 22be 807e 9fbe
00000080: 5530 4ac2 f022 1ac1 f888 7e40 ffcf d9c0
00000090: b37b 1e3f 3baa 4ac0 234a 64c2 a979 98bc
000000a0: 8ac8 94bf 077c dd40 c72e 67c0 075f 08be
000000b0: 2384 8e40 0551 9f3f 11c7 b63f b1a6 b2be
000000c0: 514a 58be 4f23 77c0 6267 0240 3d0a 70c1
000000d0: d219 68bf 8b4f bdbf cea5 c03f 2b6a 8c3f
000000e0: 7f30 c43f 9b1b 23be 6e85 983e 9547 f73d
000000f0: 9d80 04c0 0a30 843e d788 903e 98fa c93f
00000100: 139b d33f 0dfd 933f 8cd7 783f 9d80 a23f
00000110: e319 f140 f7cc 8e3f a301 ac3e 605a a4be
00000120: 5beb 41c0 e580 25bf a644 92bf 57af 52be
00000130: dae4 743f ed2a 80bf f567 1b40 069d 10be
00000140: 0c93 4ac1 1f05 84c1 933a 06c2 b7b4 95c0
00000150: 9706 19bc 253b db40 a167 8bc0 ff78 f73f
00000160: 6cb2 bec0 af09 913e c45f ccc0 ae2b 763e
00000170: 471e 64bf ac37 823e 18d2 813e dd5e 9ebf
00000180: 2497 efc1 630b 613f f9a0 ac40 b6f3 4bc1
00000190: dc4b da3f b18a 773e 62be 6ec0 fca7 db3d
000001a0: e1b4 4ec0 753c dfc0 54c9 c0be ddb5 a43e
000001b0: fab3 b8c0 22e0 4640 b01c 55bf 44dd bf3e
000001c0: 17d9 2641 9582 9940 6ceb 073e 7dae 7bc1
000001d0: d656 4440 5a0d ad40 9e07 73bf ea5a fb3d
000001e0: 959f 543f 25b2 7fbe 6b80 723d 5b3f 2d3e
000001f0: d595 0ac1 d61e 663e 2997 963e b79c 1740
00000200: 282c dd3f 2448 853e 1e16 50c1 1b2f 5941
00000210: ab3e a73f 3d49 eebf 7155 a9bf a7e9 133e
00000220: f241 23c1 a2d1 0740 2670 a5c0 b1a2 063e
00000230: 2ec5 9440 38da 3dbf 94de 2d40 75cd 243e
00000240: e752 fc3d 5c20 2fc1 8126 4ec1 27f7 65c0
00000250: ab3e 2d41 e3a5 3fc1 d6e5 383f f931 4a40
00000260: c763 1840 fc36 a4be 5001 8c3f 6f0d ec3d
00000270: 7e4c 1642 963d 793e 4a41 a7be c3f5 d03e
00000280: 0abd bebd c494 f0bf 999e d4bf d7de 17bf
00000290: 9d46 52bf f0df 7cbf 2289 96be 5fcf 87bd
000002a0: b30c 91bf fe2b afbf a4fc 28bf 2365 ab3e
000002b0: 7ff6 43bf 9ed2 a9be f4fe 5fbf 25ae 9b3e
000002c0: 9f21 5cbe aef5 21bf ea09 5bc0 2445 04c0
000002d0: 6631 19bf babd b4bf 234a 07bf a9a5 1dbf
000002e0: c139 f7bf f8a4 8b3e 0052 33bf 81ce c4be
000002f0: 0892 373e 2fa5 a63e 57d1 df3c 04fe f0bd
00000300: 3806 ae3d 8d28 1bc0 90a0 b8bf 0a12 dbbe
00000310: 55be ffbe d0f1 75bf 1498 22bf 28b8 f8bd
00000320: eeb0 3dbf 0dfd 8fbf 6bb9 43be 446e 863e
00000330: 51d9 14bf 51d9 c0be 828f e1be 3b51 a2be
00000340: 22c1 20bf 5722 f8be 4608 5fc0 7aaa fbbf
00000350: d2e4 32bf 3737 d6bf 9b92 54bf 3292 25bf
00000360: 4d10 f1bf 2b6a 10be ec15 4abf ca31 a1be
00000370: 8882 b1be 05fd 85be b74c 913d ab23 13bf
00000380: 1172 aebe 488a f0bf 0adc c2bf 66a2 1cbf
00000390: ebfe 81be bcb2 5bbf 359b 0fbf 44a4 26be
000003a0: 58ca 82bf 93a9 c2bf 0744 10bf 8b36 87bc
000003b0: e17b 23bf e89f e8be a532 5dbf 4a5a 36bd
000003c0: 9c18 2abf 98be 23bf 1405 5ec0 f2cd 28c0
000003d0: 8ead 17bf 82e7 b2bf 8410 64bf 45f5 8abf
000003e0: b268 c2bf af79 853e 0e14 b0be 7ee2 e0be
000003f0: e801 423d daca a3be df17 173e b090 19bf

bias f4 [9]
0.412864 2.03007 1.67997 -1.43304 -0.429325 -0.788578 0.208637 -1.09645
-0.184413
00000000: e962 d33e abec 0140 4209 d73f db6d b7bf
00000010: 7dd0 dbbe 3fe0 49bf f0a4 553e 7958 8cbf
00000020: c3d6 3cbe
